best_ema20_model.pth (torch, 59105 bytes, 12 tensors)

lstm.weight_ih_l0 f4 [128, 4]
00000000: 6fac dd3b e28b 513e 1b75 f8bd e01d dfbd
00000010: 54a1 a33d 374a 533d c373 b83d 6554 de3d
00000020: f499 fe3c c5f7 283e 8977 873b a5b8 11bc
00000030: 9344 e93d 8c96 dc3a b21e 143b 255a acbb
00000040: ecd1 f8bd a9b2 af3d 8cb7 ec3d a414 d83c
00000050: a0c3 1f3e fa14 e93d bb3d 1bbe c13b 073e
00000060: 0693 fcbb 12d4 27be eb0d 443d ba2e 1f3e
00000070: 4cda 273d 2272 c23c 0ee1 afbc 1e67 123e
00000080: 4b56 6bbd e4b0 52bd aab1 92bd 3a8d dfbd
00000090: 8278 fbbc 53b8 16be 1199 13be 60dc e33d
000000a0: 64c3 3a3e 61a8 1fbe c233 8c3c 62b4 963c
000000b0: 7aae 153e e4db b6bd 6117 f83d 7f93 9d3c
000000c0: e1ef 46bd 1680 9439 541e 98bd 4bae e93d
000000d0: cda5 f53d 9aed 10be 0041 513d f991 f03d
000000e0: a7b1 e73b 1f96 ffbc d437 903d 3ac9 19be
000000f0: 8181 88bd 3a05 0b3e 4657 0abd 5357 83bb
00000100: 04d3 82bd 2a73 3e3d b346 87bb f718 56bd
00000110: 94f1 27be 59c0 21be 7581 40bd 0268 273e
00000120: 0dfb 22be 26a6 973d 208f 063e 57f5 d4bc
00000130: 5563 cabd 99cd 183d 0050 393e 8d5e 293d
00000140: ec18 ecbd 9733 cb3d 648c c03d 340e 253e
00000150: f488 62bc 6570 063e 24a7 9ebd 9264 17be
00000160: b1ab a3bd 21e3 05be 7fc7 c2b9 e5b4 dc3c
00000170: b860 22bd e0bc 2fbe b783 843d 55d3 bf3d
00000180: b793 553c f449 1d3e 33c9 cd3d c876 393e
00000190: dbbb d63d a1de dcbd 202f 463d c88c a93c
000001a0: d9f6 a0bd dc98 813a f172 083e 1cd0 61bd
000001b0: e3aa 8cbd 598b 273d 3e66 b83c 7281 b0bc
000001c0: 5a17 823c 776c d53c b5ba 21be d87c 043d
000001d0: 3539 443b 1d84 ba3d e771 c7bc ceb3 1ebd
000001e0: 4d9e fbbc 1014 0d3d 49d5 11be 15a7 093d
000001f0: 24eb febc ab67 41be 1a99 eabd e48f 0dbe
00000200: 3677 17be 6c75 01be a368 523d 0362 d63d
00000210: 51c9 e8bd 9163 073e 5076 863d 675b 3c3d
00000220: 871c e43d 8404 abbd 2e03 30be 3d0e 933b
00000230: 19b1 ee3c 2e49 2dbd dab2 f23d 34b1 353e
00000240: 2295 2a3e e81f 16be 49d2 b03d 1735 173e
00000250: 2a41 6b3d 1515 923d a783 1fbd ec8a 123e
00000260: 52cf 84bc 412b e83c 1fd7 bebc 9fbd 39bd
00000270: 0c57 c3bd 6c5f 1e3e 3f27 fa3d ac1c 4c3e
00000280: 776b f0bc 7ba5 a63d 0abc 823b ff48 133d
00000290: e1f9 20be 799e 9fbc 978d 13bc a5c1 a4bd
000002a0: ee87 1a3e 8d23 ab3d 7cb7 893d 81a3 483d
000002b0: af18 093e 8c8a 21be 0b9a 10be 9662 4bbd
000002c0: 9f26 d23d 7909 a4ba b156 1fbe f47f 183e
000002d0: 6fb5 13be ea41 1d3e 240b 183e f25a dfbd
000002e0: 160b ea3d f512 1cbe c479 293e 1349 4a3d
000002f0: f1b2 6fbd ac7b 043e 9bb5 8aba 5dee 99bd
00000300: 6c6f 3b3e 1f5f 02be c325 0fbe 84c2 e73d
00000310: d11f 4f3d 982f 61be 8e1d c7bd 8090 e0bd
00000320: bc94 203d aec4 a93d 5d82 13be 5225 44bd
00000330: bd5a 303d f398 22be d257 04be 4213 8ebc
00000340: 3dc3 0bbe fee4 3bbc 8745 703c 78d6 563e
00000350: a02e 7bbd ee3f b7bd d8f7 d63c bf8a 25be
00000360: e6dd 113d 0773 35be 9041 cfbd 8a53 aa3b
00000370: f5bd d83d b450 b53d 74fb 07be 5ee6 f9bc
00000380: 790d c8bc 0be9 22bb d74f 103e 3bd7 e23d
00000390: f3f4 53bd 7e34 3fbe cff0 7e3d 3cf7 323d
000003a0: 851b 08be 8de1 743d e02c 243e df32 cfbc
000003b0: fdd0 2cbe 2d32 a3bb 7458 fe3d 1848 b9bb
000003c0: 95a8 97bd 0518 ef3c e8be 20be 8d22 173e
000003d0: 0f36 32be eaa5 303d 455a 6b3d 2eaf df3d
000003e0: 8fa7 13be b160 32be bcb9 153e a88c 1bbe
000003f0: b684 2dbe 0cff 8bbd 1293 a73d 5ed8 b4bd
0.0067649405 0.20463517 -0.12131711 -0.1089437 0.07989755 0.05158445 0.09006455 0.10855941
0.03107927 0.16500767 0.0041341227 -0.00889412 0.113900326 0.0016829534 0.0022601304 -0.0052597695
-0.121494144 0.085789986 0.11558446 0.02637703 0.15601969 0.11380954 -0.15160267 0.13206388
-0.0077079562 -0.16389492 0.047864836 0.15545169 0.04097967 0.023736063 -0.02146962 0.14297149
-0.057455342 -0.051438227 -0.07162793 -0.10915609 -0.030697111 -0.14718752 -0.14413859 0.111260176
0.18238598 -0.15591575 0.017114524 0.01839656 0.14617339 -0.089286596 0.12113834 0.01923537
-0.04856861 0.0002832419 -0.0742766 0.11410197 0.119945146 -0.14153138 0.05108738 0.11746592
0.0070707384 -0.031199513 0.07041898 -0.15018168 -0.06665326 0.13576213 -0.033774637 -0.0040082126
-0.06387904 0.046496548 -0.004128301 -0.052269902 -0.16400748 -0.15796031 -0.04699846 0.1634827
-0.15916081 0.07404737 0.13140535 -0.025995893 -0.09882227 0.03730545 0.18096924 0.041349936
-0.11528191 0.09921949 0.094017774 0.161187 -0.0138265975 0.13128813 -0.07746723 -0.14784458
-0.07991732 -0.13074924 -0.000371512 0.026941726 -0.03964302 -0.17161894 0.06470435 0.0936648
0.013035706 0.15360242 0.10048141 0.18111718 0.10485049 -0.107846506 0.048384786 0.020697013
-0.078595825 0.0009887475 0.13325097 -0.05513011 -0.068685316 0.040904377 0.02250969 -0.0215461
0.015880276 0.026052697 -0.1579388 0.032345623 0.0029941325 0.0910723 -0.024346305 -0.038745694
-0.030715132 0.03444296 -0.14241518 0.033606607 -0.031117983 -0.18887202 -0.11454983 -0.13824421
-0.14791569 -0.12642449 0.05136932 0.10467913 -0.11366523 0.13221575 0.06565535 0.045985606
0.11138254 -0.08350471 -0.17188713 0.0044877813 0.029137181 -0.042306118 0.118505195 0.17743379
0.16658452 -0.14660609 0.08633859 0.14766346 0.057435192 0.07132927 -0.038943913 0.14310807
-0.01621214 0.028340938 -0.023295937 -0.045346852 -0.09538087 0.15466088 0.12214517 0.19932812
-0.029348118 0.08137032 0.003989701 0.035958286 -0.15720321 -0.019484745 -0.009005926 -0.08044747
0.15090916 0.0835639 0.0672445 0.048984054 0.13388322 -0.15775508 -0.14121263 -0.049654566
0.10261273 -0.001251503 -0.15560414 0.1489256 -0.1442468 0.15357175 0.14848 -0.10906018
0.11427896 -0.15241607 0.16550356 0.049386095 -0.05852026 0.12937802 -0.0010582687 -0.07516167
0.18304223 -0.12731598 -0.13979249 0.11316398 0.050567452 -0.21990812 -0.09722434 -0.10965061
0.039204344 0.08289467 -0.14405198 -0.047887154 0.043055285 -0.15878658 -0.12924126 -0.017343167
-0.13648696 -0.01146817 0.014665014 0.20980251 -0.061323762 -0.089477405 0.026241228 -0.16166209
0.03561201 -0.1771966 -0.10119927 0.005197947 0.105831064 0.088532835 -0.13279516 -0.030505355
-0.024420487 -0.0024858143 0.14092956 0.11076208 -0.051747274 -0.18672368 0.06224137 0.043692812
-0.13291748 0.059785414 0.16032743 -0.025292812 -0.16876598 -0.0049803467 0.12419215 -0.005654346
-0.07405201 0.029186258 -0.15697825 0.14759274 -0.17403434 0.043126978 0.057459135 0.10922085
-0.14419387 -0.17419697 0.14621633 -0.15190375 -0.16945156 -0.06835756 0.08182348 -0.08830331

lstm.weight_hh_l0 f4 [128, 32]
00000000: 2aa7 213d 7ec8 253e 53ad fb3d 5160 1bbe
00000010: 8f36 f13d 5ff4 0cbe c9cc 7fbd b971 1e3d
00000020: 14b4 e13d 0173 763d ee6b 00be 6fea ae3d
00000030: fdaf 02bd 374e b63c 61dd 913d 4933 07bd
00000040: 4c4f 443d 004a a43d ce1c a13c 73b5 153d
00000050: 53d9 babd a46f 45be 9c13 2abe 93d5 cbbd
00000060: e5b9 a73d d2e4 ef3c 08b3 d33d cb96 17be
00000070: bbab 67bd 1f4f 323d 82d8 38be d723 c1bd
00000080: 1147 9abd 49e9 573d 4945 073e 7063 e73d
00000090: 21c8 3fba 872b ccbd 169c 4d3d f5a5 3dbe
000000a0: 09d3 ec3c 2d9c e0bd bd53 003e 0d9b 9abd
000000b0: 9e00 0abe dd0b 0fbe 69a9 f2bd 1515 363d
000000c0: 4d53 613d 61a1 41bd fb6c 67bd d8cf f93d
000000d0: 5ba3 4c3e 9daf 09bd 0e6c cdbd cf17 923c
000000e0: 03ec 3b3e d2e9 293e a13b 173d 04be e53b
000000f0: 9f8b 58be 2929 e4bd 0542 7abd 58e4 fd3d
00000100: 9959 75bd 0137 0d3e 58bb d8bc 7bb5 e4bd
00000110: bd23 343e ecb5 153d 9799 dbbc 400e fd3d
00000120: dc60 2abd 28ce 97bd 3583 d33d 56ca a6bd
00000130: 7ab3 2f3d 691e a6bc c2ef ab3d 284c 55bd
00000140: d011 113d 3c9f a0bd 105d e7bd 3bd9 2d3e
00000150: 6714 873d ff73 efbd 4cd1 143e bcc4 1ebe
00000160: 2555 ec3d f121 743d c073 58bd 9aad f33d
00000170: 820e 1b3e ce1f 9dbb 143e 02be 481e 8e3d
00000180: 145e 323d 6b96 073e 7081 af3d 77af 793d
00000190: 7d19 493c ebdf acbd 7823 b3bc 2b6d dc3d
000001a0: e351 45bd ca69 2b3e ba1b 8dbd e06d 1cbe
000001b0: 721a 173d 0300 2a3d a177 d63b dd01 d23d
000001c0: 8de9 6ebd 589b 5b3d f291 05be 5e47 263e
000001d0: 327e 313e 0569 053e fb27 0ebe 7569 37be
000001e0: 1d35 80bd 5507 adbd 3ec2 b73d 49b3 25be
000001f0: 301d 4f3d e217 0ebd 4b77 a23d 36a6 59bd
00000200: 5293 07be 7e89 a83d 0bd6 36bc e656 3c3d
00000210: b1ab 4c3d 5e8a fd3d cd48 e93d 8003 c9bd
00000220: 61d2 173e 22e0 4a3e dbef c2bc 8a05 d53d
00000230: 2c9d 3dbe dc41 e83d 8d74 683d 62d7 debd
00000240: 15c2 bb3d 2d3d 87bd c367 183d c181 4d3e
00000250: 2c98 0e3d 6e3e 903d c613 2c3d 7e81 c3ba
00000260: 1bd9 f43d c55f dc3d 8c8d 27be 67ea d23d
00000270: 1952 e8bd b202 f13d 9967 bc3d 0560 d1bd
00000280: c42d 25bd bdc3 fdbd 330c 2a3e 84a0 3c39
00000290: 93a9 02bd 431b e93c b77d 033c 261e c6bd
000002a0: a835 7e3d 8d4f f23d c19b e93d c842 55bd
000002b0: 8138 2fbe 8aed 3bbe ec38 2a3e 9290 a3bd
000002c0: 7f8a 01bd b48c c23d 8802 94bd ef19 d53d
000002d0: 0773 ab3d 33aa 9abc 3f0e 8d3c 0654 563b
000002e0: 1ef6 9abd 7988 2e3d 24f1 d0bd 1cf3 273e
000002f0: 98a7 d2bc 5704 173e 2650 c4bd fd7d 893d
00000300: 7f2b 3d3d 3820 2e3d ed40 8b3d f45a 95bb
00000310: 5ac3 2a3e 57d3 8b3d c9bc 113e 6165 31bd
00000320: 34f0 22be 8fbe aebd 4905 093d 695f c23d
00000330: 1d14 4dbe 3dce 2cbe 895e 483c ff0f 5a3d
00000340: 3080 8cbc ccab 01bd 9e40 0dbe 8e09 c4bc
00000350: 5100 92bc d2e8 013e 2c49 013d c18b d3bd
00000360: cc34 fdbd 0e42 f8bd ef88 2dba 358d dcbc
00000370: 1346 b53d 0acc 0dbe 1b7d cabd 148f c53c
00000380: 713f 373e 0537 bd3c 15ea 09be fba8 acbd
00000390: 4933 ca3d d0be 223d 08cc bdbd 9a39 e8bd
000003a0: 3150 a53d ac4e 6fbc eb2e 7e3c 2ba7 a43d
000003b0: 59d4 8a3d 5e8e d93b 17fc 603b 1203 e13d
000003c0: 255a 3c3c e385 afbd 0cf9 9ebd 276f 98bd
000003d0: 9188 b7bd 90d5 e1bb ad38 c83b 43ce eabd
000003e0: fe1f 0b3e 5794 69bd fcc9 7dbc a71a 18be
000003f0: 9bb9 1e3d 6e1f 0ebe 46d7 06bd ea71 873c
0.03946606 0.16189763 0.12288918 -0.1517346 0.11777984 -0.13765095 -0.062451158 0.038682673
0.11020675 0.06016827 -0.12541172 0.085408084 -0.031906117 0.022254093 0.07122303 -0.033007894
0.047927186 0.08021927 0.019667055 0.036549997 -0.091234826 -0.19280869 -0.16609043 -0.099528454
0.081897534 0.029283915 0.10336882 -0.14803617 -0.05656026 0.043532487 -0.18051341 -0.09430664
-0.07533086 0.052712712 0.13210024 0.11298263 -0.00073158933 -0.0996924 0.050197683 -0.18520339
0.028909223 -0.10967288 0.12531944 -0.07549105 -0.13476798 -0.13969369 -0.11848719 0.0444537
0.055011082 -0.047273044 -0.056500416 0.12197846 0.1998419 -0.033614744 -0.100303754 0.017833618
0.1835175 0.16593102 0.0369221 0.007011177 -0.21147011 -0.11140663 -0.061098117 0.12397069
-0.0598999 0.13790514 -0.02645652 -0.11167427 0.17591758 0.036550447 -0.026806636 0.123562336
-0.04159628 -0.07412368 0.1032776 -0.08144061 0.04289577 -0.020278173 0.083953395 -0.05207458
0.035417378 -0.078428715 -0.11297047 0.16977398 0.06595688 -0.116920464 0.14532965 -0.15504736
0.115396775 0.05960268 -0.052844763 0.11898346 0.15142253 -0.004795051 -0.12718993 0.069393694
0.04354675 0.13240974 0.0856961 0.060958352 0.012274143 -0.084411465 -0.021867499 0.1076301
-0.048173796 0.16739574 -0.06890054 -0.15276289 0.036890455 0.041503917 0.0065450226 0.10254262
-0.0583282 0.053614944 -0.13043955 0.16238162 0.17333296 0.13028343 -0.13882439 -0.17911322
-0.062601306 -0.08448664 0.08972596 -0.16181673 0.050564945 -0.034690745 0.079329096 -0.053137027
-0.13239792 0.082293496 -0.01115943 0.04598131 0.049968425 0.12379907 0.11390839 -0.09815121
0.14826347 0.19812062 -0.023796013 0.10401447 -0.18516988 0.11340687 0.056751776 -0.10880925
0.091678776 -0.06603465 0.03720833 0.20069028 0.03481309 0.070431575 0.042011045 -0.0014915911
0.11955472 0.10760454 -0.1636259 0.10298615 -0.11343784 0.11768092 0.09199447 -0.102233924
-0.04032685 -0.1239085 0.16606216 0.00017988874 -0.0319 0.028455382 0.008025578 -0.09673719
0.06206289 0.11831579 0.11406661 -0.05206564 -0.17111398 -0.18352333 0.16623276 -0.07986559
-0.03162622 0.09499493 -0.07227045 0.10405337 0.08371549 -0.018879985 0.017218707 0.003270389
-0.075664744 0.04261062 -0.10202244 0.16401333 -0.02571468 0.1474775 -0.095855996 0.067134835
0.04618406 0.042511195 0.06799493 -0.0045579616 0.16676083 0.06827419 0.14232172 -0.043309573
-0.15911943 -0.0853244 0.033452306 0.09490854 -0.20027204 -0.16875549 0.01222957 0.05323791
-0.017150968 -0.03165798 -0.13794181 -0.023930337 -0.017822416 0.1268647 0.031563923 -0.1032939
-0.12363586 -0.12121974 -0.0006619831 -0.026922802 0.08851256 -0.13847366 -0.09887143 0.024116077
0.17895295 0.023097524 -0.13468201 -0.08430668 0.09873063 0.039732754 -0.092674315 -0.113391116
0.08071936 -0.014606159 0.015514116 0.08039697 0.06778783 0.006639286 0.0034329945 0.10986914
0.0114961015 -0.08570459 -0.07762346 -0.074430756 -0.08961595 -0.0068919137 0.006110272 -0.114651226
0.13586423 -0.057026234 -0.015490051 -0.14853917 0.038751226 -0.13879177 -0.032920144 0.01653381

lstm.bias_ih_l0 f4 [128]
00000000: bbc3 1c3e b278 a43d 7fcc c2bc 1b14 0bbe
00000010: 425b 9fbc eb82 fa3d 5453 ac3d 57d2 f9bd
00000020: d1d1 f5bd 359b 8c3d 5ed4 4bbd 7f72 983b
00000030: afa1 2e3e 89ca 853d 1261 c03d 0f8e 1fbe
00000040: 72dd 023e 5feb 8a3d ff19 113e 52cf dfbd
00000050: 3475 d9bd e53c 10be 67ed 0c3e 5d4d 233d
00000060: 972f 07bd 54ab f33d 8aec 733d cc63 383e
00000070: 654c 013d 91d1 933d 3cac 1c3e d106 093e
00000080: d8e0 d53d da78 d9bc de0e 993d a9e2 103e
00000090: b09a e23d 2d5d acbd 1c9f fb3d bb84 f7bd
000000a0: fc7e 333e fc89 4f3e 8cec 373c 0530 e2bd
000000b0: 2a7f fe3d b17c 243e 66f4 c33d 5d3c 05be
000000c0: b4b8 07be 099f 9fbb a5a1 143e e9ab 2f3e
000000d0: 3ccc 433e 9fc8 cb3d 6d78 2f3e f3c3 bc3c
000000e0: 4f31 2e3e 08b7 d7ba 98d0 903d da7c 733d
000000f0: ce54 4ebd 7737 2a3e 964a 393e 2e60 663e
00000100: e3aa 73bd 027c 20bd ae9f a4bb b151 1dbe
00000110: 191c 2ebd 4517 2fbd cd5c bbbd 13fe 173e
00000120: aa47 0d3e 027a 4d3e 262f 063e 0c78 3ebd
00000130: 321f eebd 1270 1abe 00fc bf3d 3066 883d
00000140: d05b f4bd bdd8 a2bc b892 fbbd 8d30 f7bc
00000150: af0c 293e af3c b2ba a7c1 ee3d a11e 203e
00000160: 287f 313e 20c6 01be dd98 debc 0c5c 6ebc
00000170: 663d d6bd abb6 483d ffdd 893d 3b61 0ebe
00000180: a64e e43b cfd9 4e3e 0713 a13d 9906 813b
00000190: a318 5a3d 2e13 62bc ef23 91bd 788c cebd
000001a0: ee36 29bc 5208 fc3c 3517 9b3d e1b4 27bd
000001b0: 24ab 013e 37f2 36be 4c66 a33d e094 6dbd
000001c0: 7eaa 393e 1c40 903d 857a 08be ca66 323b
000001d0: 9884 d3bd 21f7 133e 89d7 36bd da62 e93d
000001e0: 4252 eb3d 31cb f7bb dad1 0c3e a28f f3bc
000001f0: 1e12 8b3d d9a9 9d3d 4e38 83bc bd1f 02bd
0.1530904 0.08030833 -0.023779152 -0.13581888 -0.019452695 0.12232002 0.08414331 -0.12198322
-0.1200291 0.06865541 -0.049763076 0.004652321 0.17053865 0.06532771 0.09393515 -0.15581535
0.12779787 0.06783175 0.14170073 -0.10928215 -0.10618058 -0.1408573 0.13762437 0.0398687
-0.03300437 0.118979126 0.059551753 0.1800682 0.031566996 0.07217706 0.15300077 0.13381507
0.10443276 -0.026546884 0.07473539 0.14148964 0.110646605 -0.08416209 0.12286207 -0.12085863
0.1752891 0.2026748 0.011225831 -0.11044315 0.12426598 0.16063191 0.095681 -0.13011308
-0.13254052 -0.0048712534 0.14514787 0.17155422 0.19120878 0.09950375 0.17135783 0.023042655
0.17010997 -0.0016457746 0.07071036 0.05944524 -0.050373845 0.1662272 0.18094859 0.22497627
-0.059489142 -0.039180763 -0.005023918 -0.15363194 -0.042507265 -0.0427468 -0.0914856 0.14843015
0.13796869 0.20066074 0.13103923 -0.046501204 -0.11627044 -0.15081814 0.09374237 0.06660116
-0.11931574 -0.01987874 -0.12283844 -0.030174518 0.16508745 -0.0013598407 0.1165803 0.15636684
0.17333663 -0.12673235 -0.0271725 -0.014548313 -0.104609296 0.04900233 0.067317955 -0.13904278
0.0069673834 0.20200275 0.07864957 0.003937554 0.05324615 -0.013798518 -0.07086932 -0.10085386
-0.010328038 0.030765686 0.07572786 -0.040943984 0.12662941 -0.17865835 0.07978496 -0.058003306
0.18131444 0.07043478 -0.13327987 0.0027221912 -0.103280246 0.14449741 -0.044639144 0.113958076
0.11490299 -0.007562064 0.13751927 -0.029731575 0.06790565 0.076984115 -0.01601806 -0.03176855

lstm.bias_hh_l0 f4 [128]
00000000: 87ed eb3c dec4 023c 9e1a 86bd df76 63bd
00000010: 4939 173e 42b6 0abe 2554 1b3d 6cfc 28bd
00000020: 9c11 1a3d b380 4f3e 71d4 20be 39e4 163e
00000030: 8b8b ea3d bc1f 623d 6741 95bd 7da0 a33d
00000040: 2074 243e 1684 b93d 4b75 b4bb 5912 27be
00000050: 1954 79bd 054a 9abd a3d2 d1bd 77fd 81bd
00000060: ac4c 1d3d 08c7 bebc a3a3 ee3d 69c2 d83d
00000070: e2a2 223c 37b2 043e beec 66bd 86f6 ef3d
00000080: ee9b 60bd 4a4b cd3d 6136 873d a699 033d
00000090: 0015 34bd 336c aebd 3ef1 323e 18fe 9abd
000000a0: 4607 19be a71a 2c3e b801 2a3e 91bb 7cbd
000000b0: dfa6 743d b490 af3d ce85 863d 4d77 d8bd
000000c0: eb22 193e 8bd4 103e f10c c6bc 9d2f 633d
000000d0: d27b 3e3e be78 19be aba7 6d3d e0d0 083e
000000e0: a8cb 373e 1645 893c 6281 c73d 7f7f fcbc
000000f0: 9456 bbbd ffcd 373e 8391 2a3e b9f2 803d
00000100: 3de5 f3bc 712c 093e 34ee c43d 741a d8b9
00000110: ba8f 9c3d 1ed8 57bd 7d91 12be dc4f 36be
00000120: 8e42 2abd 8fb1 133e a86e 113e 637f e6bd
00000130: 7a88 80bd 0456 4a3d 7b85 a2bd ed5e 0f3e
00000140: 5f92 9ebd 5073 21be f989 10be b393 113e
00000150: 2a10 cd3d ce4c 89bd 75c1 fc3d 3773 08be
00000160: 6e22 eebc 005a 0bbe f996 2cbe 26b4 2bbe
00000170: bec9 85bd c12e 50bd ff9e 35be e419 ff3d
00000180: 3f5d e93d 004b 98bc 65f6 5cbc f2ca 2a3e
00000190: 114c 523e f615 423e 0f76 0d3d e2f4 093d
000001a0: 7dc5 4f3d 85a7 423e b026 f9bc 08b5 473e
000001b0: bb85 1e3e f81b 303e 848f 193d 8d4f 26bd
000001c0: c3d2 173d 8f77 3e3d dea0 a23d d46f c5bd
000001d0: 0cae 73bd 61a0 63bd 9ac1 ebbc be8d babd
000001e0: b225 c83d 11ee 943c c598 cdbd a4ef 9f3d
000001f0: d839 55bd 3328 293e e1c4 09bc 97fb a23d
0.028799785 0.007981507 -0.065480456 -0.055533286 0.14767946 -0.13546088 0.037922043 -0.041256353
0.03761445 0.20263939 -0.1570604 0.14735498 0.11452397 0.055206046 -0.07287865 0.07989595
0.16059923 0.090583965 -0.0055071465 -0.16315593 -0.060871217 -0.07533649 -0.10245254 -0.06347173
0.038403198 -0.023288265 0.11652305 0.10583956 0.00992653 0.12958609 -0.05637812 0.117169425
-0.054836206 0.10024126 0.06602169 0.032128952 -0.04396534 -0.08516731 0.17474839 -0.07567996
-0.14944181 0.16807042 0.16602218 -0.061702315 0.059729453 0.08572522 0.0656849 -0.1056963
0.14954726 0.14143579 -0.024176093 0.05546533 0.18601921 -0.14987466 0.05802123 0.1336093
0.17948782 0.016756576 0.09741475 -0.030822514 -0.09147373 0.17949675 0.16657071 0.06296296
-0.029772395 0.1339586 0.09615746 -0.0004121844 0.07644601 -0.05269634 -0.14313312 -0.17803901
-0.041567378 0.14423202 0.14202368 -0.11254766 -0.06276031 0.049398437 -0.07935616 0.14001055
-0.07742762 -0.15766644 -0.14115132 0.14216499 0.10012849 -0.067041025 0.123415865 -0.13325201
-0.029069152 -0.13608551 -0.16854466 -0.1676794 -0.0653262 -0.050825838 -0.17736433 0.1245611
0.113947384 -0.01859045 -0.013486479 0.1667898 0.2053683 0.1895369 0.034536418 0.033680804
0.05072545 0.19009216 -0.030413955 0.19502652 0.15480702 0.17198169 0.037490383 -0.04060321
0.037066232 0.04650074 0.07940839 -0.0964047 -0.059492156 -0.05557287 -0.02877884 -0.091090664
0.09772815 0.018179925 -0.10038904 0.0780938 -0.052057117 0.16519241 -0.008408756 0.07958143

lstm.weight_ih_l1 f4 [128, 32]
00000000: 965c e73c fa7b 1a3e 1576 b7bd 8d39 123e
00000010: 9b7e 213d 3d20 fc3c e44d 893c e465 d2bc
00000020: c34c fa3d 5538 01be 9026 a53c cdc8 2b3e
00000030: a5d5 d73d bc6b ec3d 4a9e ce3d 8bd2 2c3c
00000040: 980b 293d 9e66 3a3e 992d 0bbc 0cb1 213e
00000050: 5679 e8bd cb94 3cbd 4082 f5bd 270f f8bc
00000060: ae01 863d c756 0bbe a9a8 943d fd49 c93d
00000070: 0bb9 07be 5d9b 27be 6553 f6bd 59d6 01be
00000080: 87ac c63c b897 51bd f272 d4bd e87d 2a3d
00000090: f981 fdbd 49b6 713d ba67 0abe c0d3 2bbe
000000a0: 10a6 153d 645b 00be 4072 dcbd 5571 033e
000000b0: ff02 a6bd 9bd9 36be c77f 073d 5360 e9bd
000000c0: 9b64 f2bd 6d18 42bd 8e2c 5c3d 42b1 863d
000000d0: 35f8 a8bd 8310 10be 3742 3a3e 7ef7 37be
000000e0: 1fa7 403d 24d1 e1bc f628 02be 33a8 033d
000000f0: e583 30be f910 c3bc 275b c0bd 6c4f 403d
00000100: 7924 393e 5501 113e 47f5 91bd e31a 9f3d
00000110: 222c 5a3e 7431 90bd 81b0 77bc 6fb2 41be
00000120: ac07 ebbc fada cb3d aaaf 6b3d 5bd6 ecbd
00000130: 06f6 043d b1c4 223e 9b09 0a3e 0d44 25be
00000140: e481 af3d 7be6 cebd 37b7 a63d 3cb6 5bbd
00000150: 16ad a03d 651c 9abd 5842 1cbe 245c 06be
00000160: 5852 3f3e 27b3 e8bc f326 49bd c544 9abd
00000170: b8e0 ae3d 0e02 d5bd 02ce b3bd 5e2f d6bd
00000180: 37d1 1f3e d7f6 163e 7d6a 1b3d d36d 88ba
00000190: bb82 c63d 826a 9bbd 665c a83d b34d 913d
000001a0: 94fa 693c 6246 11be 8638 063e 3f4e 8dbd
000001b0: 88b5 de3d e997 003e 1f2d 1f3e 6180 e93d
000001c0: e7fd 823c d338 213e 0a15 283e 36bd 01be
000001d0: f35f aabd c147 353d 9ee4 4cbd e744 08be
000001e0: 4287 debd 95c0 53bc 1663 ddbd c8e7 f73c
000001f0: 6018 d1bd 773d 563d 80c4 89bd 9733 c83d
00000200: 92db 83bb b598 5e3e fd41 743d c2a8 18be
00000210: 507d 3abd 203a 0a3c 0d7f 2fbe 0147 b0bc
00000220: e309 363e ca29 7e3d 4a75 06bd e012 0cbe
00000230: 62ee 803d fee7 2cbe c431 61bd d6d8 643d
00000240: ba5b 623d 66b3 173e 9462 46be 3a81 be3c
00000250: 19e4 513e 137a 9fbd da38 febd 676d 9ebc
00000260: 8a21 f5ba 0d3a 7dbc 8180 3dbc 27da ffbc
00000270: a91c 59be 6002 bc3d 8014 05be 72e5 2a3e
00000280: 4375 0bbd 72a6 f53a 1516 153e c6ed 59bd
00000290: e3c0 f0bd d195 733d 5009 fc3d ca2d 50be
000002a0: e1b3 113e cf77 0abd ab9e 923d 18fd 423e
000002b0: a751 923d 8171 ac3d 84d4 eb3d 67e8 df3c
000002c0: 3ecf 023e a23b 993d b240 0ebe 813c af3b
000002d0: d721 653d ba47 a7bd e96f fb3d 89e7 74bd
000002e0: 9c09 303e 91a6 fa3c 8fb9 15be da9c 203e
000002f0: e207 e9bd ad7a 25be 28cf adbb 5e7d 94bd
00000300: e7d0 5b3c 3dd7 1dbc 90f0 5ebd a8dc 843d
00000310: 2fbf eebd 8388 aebd 8a19 25be cb87 d6bd
00000320: c1da 62bd 10ea 423e c80c 0e3e 187f 063e
00000330: edcb 86bd 5c18 22be f40d c63d d34b 173d
00000340: b119 38bd bb8f c43d 192c 873c 2627 a2bc
00000350: fe45 023c abd5 d0bd 7066 1bbe 5114 5b3d
00000360: dabe 0f3c a01d 0abe d93f f83d 1e00 bc3d
00000370: 6260 71bd 21fd 13be ef80 2a3e 3938 a93d
00000380: 0fea cf3c 894f a83d 8c91 9f3b a255 333d
00000390: 876d a13c 157c 723d 5f8f bd3d c75a 1ebe
000003a0: ecfc e4bd 44b2 083e aa5f ca3d f14f 38bc
000003b0: d159 6a3d 9f97 193d d865 68bd dfa9 adbc
000003c0: 4b87 953d e29f 3f3d fb8d 11be dda4 abbd
000003d0: b681 ef3d f6bc bdbb 2802 393e a2d7 34bb
000003e0: 6fd8 5f3e ff9e 693c 4305 2ebe 5022 c13b
000003f0: 6e2b 563c 609d 87bd e5ea dabd 47de 943d
0.02824239 0.15086356 -0.08958069 0.14279766 0.03942738 0.030777091 0.016760774 -0.02568335
0.122216724 -0.12619145 0.02015999 0.16775818 0.10538796 0.11543986 0.10088785 0.010548244
0.041270822 0.18203208 -0.008494758 0.15790194 -0.11351268 -0.046040338 -0.11987734 -0.030280663
0.06543289 -0.13607322 0.07258732 0.09828565 -0.13254182 -0.1636786 -0.12027625 -0.12679423
0.02425219 -0.05117008 -0.103734866 0.04162398 -0.12378306 0.05901173 -0.13516131 -0.16779995
0.036535323 -0.12534863 -0.10763979 0.12836201 -0.0810604 -0.17856447 0.033080842 -0.113953255
-0.11835595 -0.047386575 0.05375343 0.06576778 -0.08250467 -0.14068799 0.18189321 -0.17965505
0.04703438 -0.027565546 -0.12710938 0.03214283 -0.17237814 -0.023811804 -0.09392386 0.046950743
0.1808032 0.14160664 -0.07126861 0.077688 0.21305898 -0.070406824 -0.015117765 -0.18915723
-0.028690182 0.09953876 0.057540573 -0.115643226 0.03246119 0.15895344 0.13480227 -0.1613924
0.085696965 -0.101025544 0.08140414 -0.05364059 0.078455135 -0.07524947 -0.15259683 -0.13121086
0.18683755 -0.028405739 -0.04910941 -0.07532648 0.085389555 -0.104007825 -0.08779527 -0.10458253
0.15607153 0.147426 0.037943352 -0.0010408707 0.096929036 -0.07588674 0.082207486 0.07094898
0.014280934 -0.14187005 0.131075 -0.0689969 0.10874468 0.12557949 0.15544556 0.114014395
0.01599021 0.15744333 0.16414276 -0.12669834 -0.08319082 0.044257883 -0.050022714 -0.13307534
-0.10865642 -0.012924333 -0.10809915 0.03026189 -0.10209727 0.05230471 -0.067269325 0.09775465
-0.0040239776 0.2173794 0.059633244 -0.14908126 -0.045529664 0.00843671 -0.1713831 -0.021518232
0.17777209 0.062051572 -0.0328267 -0.13679075 0.06295468 -0.16885373 -0.0549791 0.055870853
0.05526326 0.14814529 -0.19373542 0.02325498 0.20497169 -0.07786956 -0.12413187 -0.019339276
-0.0018702012 -0.015455735 -0.011566282 -0.031231953 -0.21202339 0.091801405 -0.12996101 0.16689089
-0.034047376 0.0018741621 0.14559205 -0.053205274 -0.1175554 0.059469048 0.12306464 -0.20329967
0.14228775 -0.033805665 0.0715917 0.1904186 0.0714448 0.08420087 0.115151435 0.027332498
0.12774369 0.07482077 -0.13891867 0.005347789 0.055940475 -0.08167978 0.122772045 -0.05979112
0.17191166 0.030597003 -0.14621566 0.15684834 -0.11378457 -0.16160078 -0.005304236 -0.072504744
0.013416505 -0.009633836 -0.054428637 0.06487399 -0.11657559 -0.08522131 -0.16123024 -0.10475119
-0.0553844 0.190346 0.13872063 0.1313442 -0.065818645 -0.15829605 0.0967063 0.036937546
-0.044946376 0.09597727 0.01650052 -0.019794058 0.007951258 -0.10197004 -0.15175796 0.053486172
0.00877353 -0.13487864 0.12121553 0.0917971 -0.05892981 -0.1445203 0.16650747 0.08262677
0.025380163 0.08218295 0.0048696455 0.043782838 0.019705547 0.059200365 0.092558615 -0.15464316
-0.111810535 0.13349253 0.09881528 -0.011249528 0.05721456 0.037498113 -0.05673775 -0.021199165
0.07301196 0.046783336 -0.14214318 -0.083810546 0.11694662 -0.005790348 0.18067229 -0.0027594347
0.21859907 0.014259099 -0.16994195 0.005893983 0.013071878 -0.06621814 -0.10689334 0.072689585

lstm.weight_hh_l1 f4 [128, 32]
00000000: cff0 0fbd 7d0b 6ebd 502e cd3c 1164 1a3d
00000010: 8bd1 2fbd 288d 15be 0813 b73d d070 1fbd
00000020: 98a2 ac3c 95b7 163e 0cd6 803d 2b10 b13c
00000030: 9d60 99bd 9d15 e43d fbc5 37be 5ab4 0dbe
00000040: 8d07 a43d ae10 eabd 707f 933d 31f0 73bd
00000050: 6b6f 4c3b ade9 e5bc 46cc 0b3e 5c44 293e
00000060: 87fd 483d d046 24be c8fa a13d 33e9 943d
00000070: b2b5 fcbc 6f44 1a3e ccda 623d 3365 173d
00000080: 04fa 363e 3c16 a83c 9ea3 3dbe 67b1 d5bd
00000090: 432e b9bd 04e0 15be 792a 42bd 8395 d13d
000000a0: 884d 5dbd c3fa 79bd 920f 19bd efae 003e
000000b0: 9b62 393d a95f e2bc e779 44bd 56a3 c03d
000000c0: 9a21 c2bd fe06 ac3d 5eb3 b7bd 01de af3d
000000d0: 8305 96bd 2d4f 1d3c 2890 bb3d ea03 a3bd
000000e0: 55c6 a1bd c725 723d 4240 6d3c 77bb 8dbd
000000f0: 5026 873d f17b 20be 53bb 063d 216c 123e
00000100: ce5f de3d e518 b93d 2aca 71bd 86d8 283d
00000110: 3e69 da3d 4324 993d 4fe8 ba3d 5bd8 2c3e
00000120: 2697 87bc 50d7 b8bd be56 1abd c408 85bd
00000130: 88a6 b33c 4a99 6ebd b081 023e d186 433e
00000140: ea0e 6bbd 7b9e adbd 9bf9 4dbd 24af abbd
00000150: 7f9a e43d 28f5 eb3c 4a2e 35be 7a57 81bd
00000160: 6f9b 09be f677 ba3d 366f aabc 8986 0c3e
00000170: fffe 0d3d 1972 91bb 47d0 963d c2c5 8abd
00000180: 1da2 ad3d 884a a63d 643e 95bd 7950 7cbd
00000190: 791d 243d 6430 d7bd a262 f43c f4cf 253e
000001a0: d808 2fbe ac14 a53d ee6e d93c d579 ef3d
000001b0: 3f4d e8bc 8b8b 81bd ac18 223e de41 14bd
000001c0: 8089 693d 3777 2f3d d256 7e3d 81e8 263e
000001d0: 69f2 943d 9945 8abd e3dc 65bb 0f52 b33d
000001e0: c431 4c3d 1b39 02be 3be4 c2bc 1be2 243e
000001f0: 9322 cb3d 1094 be3c 52ae 9e3b 8a45 19bd
00000200: b8ef a8bd 3552 0d3d 1d23 b4bd 2685 2abe
00000210: 546b b7bd 4beb 22bd 0b91 00be 636e cabd
00000220: 0e43 4e3d 248c 01be b62b 9bbd 8dcc 1ebe
00000230: e168 e23d a1b1 aebc 11e3 953d 3428 463e
00000240: a25d 58be 0616 0c3e b595 ffbc 7e8f f9ba
00000250: d7b2 4ebd 36f0 b6bd 6e5f f5bd 2680 653d
00000260: 9b64 cb3d 56c3 d93d e1c3 1f3e faee 643d
00000270: bec3 d9bd 4c0c 84bd 2631 81bd 12f7 563d
00000280: d9ee 3a3e 7068 80bd 70a9 8bbd c15e 41bd
00000290: 6067 963d a70c c13d 15be cabd 418c 463e
000002a0: 06e2 273d 0513 bfbd 6769 b4bd 4425 993d
000002b0: f487 b13b 3fae 9cbd b6f4 d63d 78af 113e
000002c0: cdae 683d cab6 69bc 8de8 aabd 41b7 7ebc
000002d0: 132c da3d c1c9 353e 5b01 afbd dcc1 01be
000002e0: ed53 f33d b9bb 4ebe 88e4 0bbe c1a2 17be
000002f0: bed5 bebc ba66 2bbe b842 d43b d4a9 98bc
00000300: 6827 bcb7 dee5 893c d7c7 bcbd 4837 c0bd
00000310: 7caa 183e d7f6 803d 142c 05be 2768 383e
00000320: 05c9 0e3b 5c35 e63d d2a4 5bbc 026a 1ebe
00000330: 83e3 733b 776b b4ba 9208 8c3d f06a 383e
00000340: 36f1 6b3d 50bb afbd 8905 0e3e 70ce 76bd
00000350: 76c8 063e 3bd5 043e 8756 06bd 9f0f 8d3d
00000360: 103c f33c 7b53 ca3c 31c9 113d 0c5d a8bd
00000370: 59ab 3dbe f668 88bd fbb3 cebd b1bc 16be
00000380: 8ba1 623d 226b d0bd 96cb 3fbd 8ee6 2cbe
00000390: 64e2 f8bd 021e 4fbd 2fb4 9f3d afad cdbd
000003a0: 748b a33d 7a78 29be f952 01be 951b a53d
000003b0: 9184 e5bb 3a74 3f3d cfc3 22be cc31 343d
000003c0: c3b8 c83d 1d51 6abd 0e34 e83d f79f 8c3d
000003d0: 4674 08be a017 dc3d ee89 58be bcb2 c7bc
000003e0: 8473 af3d 9dc3 44be 9db0 cf3d 5020 03be
000003f0: f186 ce3d b1c6 c33c aaa5 edbd f53e 7cbd
-0.035141762 -0.058116425 0.025046498 0.037693087 -0.042924445 -0.14604628 0.08939177 -0.038925946
0.021073624 0.14718468 0.06290826 0.021614155 -0.07489131 0.11136935 -0.17946617 -0.1383833
0.08009253 -0.11428963 0.07202041 -0.059555236 0.003119434 -0.028065527 0.13652143 0.16529983
0.049069908 -0.16042638 0.07909161 0.07271042 -0.030848358 0.15065168 0.055384442 0.036961745
0.17868811 0.020518415 -0.18519446 -0.104342274 -0.09042027 -0.14636236 -0.047403786 0.10233595
-0.054029018 -0.06103016 -0.037368365 0.12566732 0.045260053 -0.027633505 -0.047967818 0.09406154
-0.09479065 0.08399771 -0.089697585 0.08587266 -0.0732527 0.0096013965 0.09158355 -0.07959731
-0.07899157 0.05911806 0.014480652 -0.06920522 0.065991044 -0.1567228 0.03289349 0.1429906
0.10858117 0.090379514 -0.05903069 0.041222118 0.106646046 0.074776195 0.091263406 0.16879408
-0.016551565 -0.090254426 -0.03768038 -0.064958125 0.021929994 -0.058251657 0.12744784 0.19094397
-0.05738727 -0.084774934 -0.05028687 -0.08383015 0.1116228 0.028803423 -0.17693439 -0.06315513
-0.134382 0.09104912 -0.020804983 0.13723196 0.03466701 -0.0044386503 0.073639445 -0.067760006
0.08478186 0.081196845 -0.07287291 -0.061600182 0.04006717 -0.10507277 0.029832188 0.16192609
-0.17093217 0.080605835 0.026542153 0.116931595 -0.028357146 -0.06325444 0.15829724 -0.03619563
0.057015896 0.0428383 0.062094517 0.1629963 0.072727986 -0.06751556 -0.0035074286 0.08755886
0.049852148 -0.12717097 -0.02379047 0.16101877 0.09918704 0.023263961 0.004842558 -0.037419833
-0.08248848 0.034502227 -0.0879576 -0.16652355 -0.08956018 -0.039775174 -0.1255533 -0.09884336
0.050356917 -0.12651116 -0.075766966 -0.15507717 0.1105516 -0.021324934 0.073187 0.19351274
-0.21129468 0.13680276 -0.031199316 -0.0019039956 -0.050463524 -0.08932535 -0.119810924 0.056030415
0.09931298 0.106329605 0.15602066 0.05589197 -0.10633038 -0.06447658 -0.063082024 0.05248172
0.18255176 -0.0626992 -0.06819427 -0.047209505 0.07343936 0.09426241 -0.098995365 0.1938944
0.040987037 -0.093297996 -0.088091664 0.07477811 0.005417818 -0.07650422 0.10495894 0.14227092
0.056807328 -0.014264772 -0.08345137 -0.015546621 0.10652938 0.17752744 -0.085451804 -0.12671608
0.11881242 -0.20188798 -0.13661397 -0.1480818 -0.02329528 -0.16738406 0.00647768 -0.018635668
-2.2429696e-05 0.016833242 -0.09217804 -0.09385544 0.14908785 0.06297081 -0.13005096 0.18008481
0.0021787297 0.11240646 -0.013405995 -0.15470126 0.0037214465 -0.0013764937 0.06837572 0.18009543
0.057603084 -0.08580649 0.13869299 -0.060255468 0.13162407 0.12971966 -0.032797363 0.06887745
0.029691726 0.02469801 0.03559226 -0.08220872 -0.18522395 -0.06660645 -0.10092922 -0.14720418
0.05532984 -0.10176684 -0.046825014 -0.16884825 -0.121525556 -0.050565727 0.07798039 -0.10042893
0.07985583 -0.16549864 -0.12629308 0.080619015 -0.0070043285 0.0467417 -0.15895008 0.043992803
0.098008655 -0.057206262 0.11338054 0.068664484 -0.13325605 0.107466936 -0.21146366 -0.02437722
0.08566955 -0.19215246 0.10141108 -0.12805295 0.10084332 0.023898454 -0.116038635 -0.061583478

lstm.bias_ih_l1 f4 [128]
00000000: 3b1c bbbd 6920 403e 20b9 ed3d 20d8 343e
00000010: 91b6 07be bd4c ca3d 2abc d1bd b558 eabb
00000020: 3120 a3bd 354b febd 3829 303e b1bb 0b3e
00000030: 1761 f4bd b021 193e c853 d43d f16d 6bbd
00000040: e74e 873d 70bb 2d3e a4ab 813b b49a 123e
00000050: 48ce 233e 3322 143e 1f22 28be 9591 3c3d
00000060: c83a 32be a233 e73d b946 18be 9114 ddbd
00000070: 0307 3b3e 2e78 17be 084f c0bd df66 4abd
00000080: c9f7 9ebd 331a d23d e950 58bd 4d40 363e
00000090: dc3f b83d b1dc 8dbd 57b0 c9bd 8b6a 843d
000000a0: 037a 163e 3c33 97bd 3b9e 313e 78e3 16bc
000000b0: b4f4 3e3d e96f 0d3e ff8b b43c dc4d 00be
000000c0: e3be 433d b612 f33c bec3 0d3e b899 d43d
000000d0: 0f06 263e 78bd 06bc 1488 073d d8f9 94bb
000000e0: 9504 34be 8ccc a3bd 8d8e 3b3e 83d9 bb3d
000000f0: 2fb2 c8bc 0757 2bbe eb04 8e3d 8770 293e
00000100: 6e69 443e 00e8 0dbd b245 17be cfe9 b53c
00000110: 07fc 223e 343b 38be 5698 15bd bd92 2c3e
00000120: 1ee8 edbc 45a1 f0bd b5ec 12bd 54c1 a63d
00000130: c78e d5bd ca3b ad3d 5efe 8fbd 88a4 083e
00000140: be5a 19be 13e0 763d de95 21be a395 2a3e
00000150: 4af5 f73d 25a2 013e 26a4 10be 7699 623d
00000160: 70e5 9bbd be5e 9abd 5b5a 24be 1f7b b83d
00000170: 5833 90bc deed 59bd 8ddf c93d 3647 0a3d
00000180: 77ff ab3d 643b 573d 1233 d0bc 3b4e b13d
00000190: 18de aebd 1492 4a3e eb10 17be 5455 003e
000001a0: ee75 753d 646c 773d 0042 fe3d 14ae 883d
000001b0: 19f3 b6bd 74d5 88bd ffce 443d b746 863d
000001c0: da1b b0bd 846c 07be 016a cb3d 4f57 a7bd
000001d0: e467 103e c2f8 583e 484b dd3d c73c c2bd
000001e0: 4ead 46be 2ede fe3d f555 d93c 80cf 7ebd
000001f0: 1f50 803c 0a8d 00be 4166 873c cc10 393b
-0.09136244 0.18762363 0.116075754 0.1766057 -0.13253237 0.09877918 -0.102409676 -0.007151688
-0.079651244 -0.12416688 0.17203224 0.13645817 -0.11932581 0.14954257 0.103675425 -0.057477895
0.06606846 0.16966033 0.0039572287 0.14316827 0.15996659 0.14466171 -0.16419266 0.046037275
-0.17405236 0.11289145 -0.14870729 -0.10794938 0.18264394 -0.14791939 -0.09390074 -0.04941451
-0.07762105 0.10258903 -0.052811537 0.17797966 0.08996555 -0.06926859 -0.09848087 0.06465634
0.14694981 -0.07382819 0.17345516 -0.009209506 0.046620086 0.13812222 0.022039412 -0.12529701
0.047789466 0.029672008 0.13844201 0.10380882 0.16213249 -0.008223884 0.03308876 -0.0045463853
-0.17579873 -0.079979986 0.18316098 0.091723464 -0.024499027 -0.16732417 0.06934532 0.16546832
0.19180843 -0.03464508 -0.1477268 0.022206215 0.15916453 -0.17991334 -0.036522232 0.16852851
-0.029041346 -0.1174951 -0.035870273 0.08142343 -0.10427623 0.084586695 -0.070309386 0.13344014
-0.14976022 0.060272288 -0.15779826 0.16658644 0.12107332 0.1265951 -0.14125118 0.055322133
-0.07612121 -0.07537602 -0.16050093 0.090078585 -0.017602608 -0.053205363 0.09857092 0.03375932
0.083983354 0.052546874 -0.025414977 0.086574994 -0.08538455 0.19782287 -0.14752547 0.1253255
0.05992692 0.060406104 0.12414932 0.06673828 -0.08933086 -0.06681338 0.04804897 0.065564565
-0.08599062 -0.13224989 0.09932328 -0.0817095 0.14102131 0.21188644 0.108053744 -0.094842486
-0.19402048 0.12444721 0.026530245 -0.062209606 0.015663205 -0.12553802 0.01652825 0.0028238771

lstm.bias_hh_l1 f4 [128]
00000000: 55bf e33d c092 ad3d df70 a4bc b76a 82bd
00000010: 21d7 0dbd 77a3 aa3d ef07 2e3e d5d0 f2bd
00000020: 225c c3bd 5589 70bd ecd3 f03b 892d 4fbd
00000030: 575c cbbd d129 433b a275 7dbd 1dac fc3d
00000040: 58d2 c4bd d567 503d 6f8c f13c c791 d3bd
00000050: 7a33 08bd 72b7 3a3e 7236 28be 29dc 593e
00000060: 341c 09bb 9a8c 23be 83dd 2abd 23da a2bd
00000070: dfa1 243e 18e3 1dbe 2779 4f3d b88e b4bd
00000080: 5c59 febc 5598 7fbd 89fc 3e3e b520 9b3d
00000090: cf5a afbc 75fb cf3d 5997 103d 4081 2c3e
000000a0: e57f 57bd e708 61bd 0485 ab3d 1afb 09bd
000000b0: f56e bb3c 440e 15be 8b09 d3bd 1bf1 463e
000000c0: ff96 dabd 81c8 1e3c 2c3e 0d3c a0de 86bd
000000d0: 6e40 fd3d 3fd2 53bd 47c5 ba3d 1be4 f2bd
000000e0: c292 383d 5ed2 adbc 07b6 e0bd c4b1 3fbe
000000f0: 5e9a 1c3e 014a f5bd 68e2 ba3d f1a4 06be
00000100: 9f1b ff3d c7c9 e73d 3937 03be c89e f43c
00000110: 371c 343e 3269 dbbc 8198 b7bc 21ff 77bd
00000120: 04bf 1fbe 53a1 6a3d f410 353e 8d42 17be
00000130: 12c3 db3c 9d9d b2bd 6117 31be fa16 583d
00000140: 7e8a 433e 5223 95bb 256f 973d c5c0 0abe
00000150: 908e c13d e390 dabd ddad b3bd 9116 c4bc
00000160: 52cd b0bd 15c1 94bd 3a9c 0dbe 8a4b cf3d
00000170: bc4b 37be 23ae 1cbd a4dc e23c f211 b33c
00000180: 1f84 d8bd 6d8f f3bb 0944 4a3e b578 a23d
00000190: ac1f 9a3c 076c 423e f9aa 8d3d b2af a03c
000001a0: 4def c73d e57a 85bd 31e6 203e 17d7 13be
000001b0: 1a09 f93d 753e 303c 8155 e63d 69c5 26bd
000001c0: da33 013e f974 003d e0e3 12bd ae05 2f3d
000001d0: 5eda d63d 1388 b73d 1722 ebbd 22eb 07be
000001e0: 0841 9b3d f755 d03c dd97 b1bc 7a41 8b3d
000001f0: e278 78bc 99ea 093e 3588 d13d 2d56 d0bc
0.11120478 0.08475256 -0.020073352 -0.063680105 -0.03462899 0.0833196 0.16995214 -0.11856238
-0.09539057 -0.05872472 0.007349482 -0.050580535 -0.09929722 0.0029779563 -0.06187976 0.123375155
-0.096104324 0.050880272 0.02948591 -0.10330539 -0.033252217 0.18234041 -0.16427019 0.2127539
-0.0020921351 -0.15971604 -0.041715156 -0.079517625 0.16077374 -0.1541866 0.05065265 -0.08816284
-0.03104847 -0.062401135 0.18651022 0.07574598 -0.021405606 0.101553835 0.035300586 0.1684618
-0.052612204 -0.05494013 0.0837498 -0.033686735 0.022880057 -0.14556223 -0.103045546 0.19427912
-0.106733315 0.009691359 0.00862078 -0.06585431 0.123658046 -0.05171418 0.09119659 -0.11859914
0.045061834 -0.021218475 -0.10972219 -0.18720156 0.15293261 -0.11977006 0.09125215 -0.13148858
0.1245644 0.11317783 -0.12814035 0.029860869 0.17588888 -0.02678356 -0.022411587 -0.060546044
-0.1560021 0.057282757 0.17682248 -0.14771481 0.026826415 -0.087214686 -0.17294075 0.052756287
0.190958 -0.0045513296 0.07394246 -0.13550098 0.0945102 -0.10672166 -0.08773396 -0.023936542
-0.08632912 -0.0726339 -0.13829127 0.1012183 -0.17899984 -0.038252007 0.0276931 0.021859143
-0.10572075 -0.007432869 0.19752516 0.07933179 0.01881393 0.18986522 0.06917376 0.019615028
0.0976244 -0.06517581 0.15712811 -0.14437519 0.12159939 0.010757078 0.11246777 -0.04071561
0.12617436 0.031361554 -0.03586185 0.042730026 0.10490869 0.08961501 -0.114811115 -0.1327329
0.07580763 0.025431616 -0.02167886 0.06799598 -0.015165539 0.13468398 0.102310576 -0.025431717

fc.0.weight f4 [8, 32]
00000000: f24b 1d3e 8f1c 8c3b 0a22 2bbe 6358 463d
00000010: ddd7 763d cc64 8c3c bf41 983d 5236 acbd
00000020: 9bb0 b73d ce2d 06be 9076 0f3e 0d23 1c3e
00000030: 73e2 12be 5489 06bd 07f7 783c 6204 2bbe
00000040: bad3 ec3d 50b5 b03d 9263 4fbc 3ba4 c03d
00000050: b3e6 f33d 1590 ea3d c4f1 3ebd 0c01 90bd
00000060: 346a d2bd 81d9 afbd 1aab 39bd ee6f aa3d
00000070: 2b53 36bd 9243 e33c 93de a4bc 4908 1c3d
00000080: 7777 cabd da62 00b6 7c73 173d 3eb7 a3bd
00000090: ce9c 3f3c 0f1e 9ebd 8d9a 2f3c afa5 98bc
000000a0: 7fa4 1b3b ab51 1437 37e6 c03b 145b 8439
000000b0: eab3 d83b d681 a0bd 843f afbd 9a76 b5bd
000000c0: 46a0 bb3d 3815 d937 1da3 723d 23bf 963b
000000d0: 3187 20ba a942 8eb9 b11a 7d3a 833b 313d
000000e0: c05a 7338 6e02 aabd 977b a43d 48ba 11b9
000000f0: 04ef 9c3d 3ce1 683a 5b5b 62bc 4853 a0bd
00000100: 1a0c 4e3d 0995 8e3d 6438 17bd 633d 7c3b
00000110: f476 11b9 37ee e9bc a6d2 823d 185c 363c
00000120: 40de b53d 2e8b 5639 cc82 dfbc a52c 85bc
00000130: 5333 9e3d 64fe 2d3c b30a 683a becd d43d
00000140: 1637 a4bc fece dbbb d6ac afbd c84c ac39
00000150: accb d73b b1aa db39 da2f b3bc 5291 71ba
00000160: 52ac 043a d582 61b9 82ad 4a39 1a9c 8cbc
00000170: d23f d43d 73c7 5db9 17bd 0ebd d6c5 cdbd
00000180: 406f 3f3c ccb4 183e d01f dabd 4f52 bdbd
00000190: 4f2a 183e c7ad 56be 7d15 fa3d 6dd7 053d
000001a0: b22d 5dbd 7bc2 173e 8d1e f73d 1137 08be
000001b0: b39e 51bd d7ed ebbd 25f4 8c3c fdfe 8b3d
000001c0: 44c2 eb3d 4375 953d 4dbb f2bd e689 adbb
000001d0: c194 54bc 3982 2f3e 55e3 b93b e543 0d3d
000001e0: 51ad e53c 1859 afbd a01f 163e 9df1 bcbd
000001f0: 998c c7bd 1ddb 073e 3707 0fbe ac15 043e
00000200: 5bcd 523d 3d18 e53d 6951 cebd e6c9 93bd
00000210: 353d 09bd 7807 073e c48c c23c e805 f2bb
00000220: e2ab 103c 04a6 babb 06b8 813d 95e7 ca3d
00000230: 2110 c73d 0c93 47bd 2523 bebd 0b3b d23b
00000240: de5a b53b 0792 123c 8a13 17bc b0d9 00bd
00000250: c7e3 a5bd e5ef 8dbb faf5 0b3e 9ee2 a6bd
00000260: 1576 d63d a321 2ebd 9534 fd3d 1f7b f8bd
00000270: 4c59 a23d a90d c4bd 1ce4 e23c 9e57 8e3d
00000280: b68b f73d 5618 e9bd 931a 4abc 44d9 46bd
00000290: 9464 f03d 1c15 06be 3f1e 3bbd e326 fa3b
000002a0: 58bb ff3d 5a1a 14be d137 f53d a0ae 17be
000002b0: d8dd 943d 881a 003e acc6 b43d 98ea 9ebd
000002c0: 29f7 263c 781e 253e f5c5 083b 49ae 593d
000002d0: 5ca2 31be 4f0c 583d 0640 cebd 4375 f23d
000002e0: 687d d2bd 968e 7fbd e643 99bd 290d 553d
000002f0: b8a2 c23d 50ad 23be 9238 563d c015 013e
00000300: cbec 203d 0799 e83b 7845 2dbd da7b 6d3d
00000310: d377 063c 2208 65bd dde9 c7bd 4fc1 ddbd
00000320: 4789 763d f247 f4bc 448a 7e3c 7605 83bd
00000330: c541 863d a2f4 f1bb 1e61 9f3d 91f9 153c
00000340: d1f0 fbbb ad7a baba efa7 4cbc c930 a93b
00000350: 5ab5 6fbc 0ab3 7cbd e911 3d3d ff28 8c3b
00000360: 061a a0bd 60d8 6e3d 3b5a d23c db13 3abd
00000370: e225 3bbc 38d5 20bd 5da8 573d f396 ccbd
00000380: 88a3 7a3d 72b9 bfbd 7ccb 1ebe 52bb 96bc
00000390: 58f6 ea3d 36e8 0b3e 6be3 863c abd7 d23c
000003a0: 0762 95bd 15e8 24be b7b6 643d 5462 083e
000003b0: df73 e7bd 4d65 ffbd 74df 37be b7cb 473e
000003c0: 6a40 29be c74a d83d 31e8 ef3c cf8b 2b3e
000003d0: 43e6 e93d 56a9 2b3e a2b8 d6bc 4145 253e
000003e0: b483 c93d 8136 de3d 1acf bd3d 610b b6bd
000003f0: 3b17 ab3b a223 3cbe 255f 6f3d 35ab 563d
0.15361002 0.0042758654 -0.16712204 0.048424136 0.060264457 0.017137907 0.07434415 -0.08408798
0.08969232 -0.1310341 0.14010072 0.15247746 -0.14344196 -0.03284581 0.015195615 -0.1670089
0.11563821 0.086283326 -0.012658017 0.094063245 0.11909237 0.11453263 -0.046617284 -0.0703145
-0.10274163 -0.085864075 -0.04532919 0.0832213 -0.04451291 0.027742181 -0.020125663 0.03809384
-0.09886067 -1.9131026e-06 0.03697537 -0.07993935 0.0116951 -0.07720577 0.010718 -0.018633692
0.002374917 8.840502e-06 0.0058868187 0.0002524486 0.0066132443 -0.07837264 -0.085570365 -0.08860512
0.09161429 2.5878297e-05 0.05923759 0.004600422 -0.0006123661 -0.00027134016 0.00096551614 0.043269645
5.8020232e-05 -0.08301245 0.080313854 -0.00013897673 0.07662776 0.000888366 -0.013815726 -0.07828385
0.05030451 0.0696202 -0.036919013 0.0038488738 -0.00013872591 -0.028555973 0.06387834 0.011130355
0.088802814 0.00020460479 -0.027284048 -0.01625664 0.07724633 0.0106197335 0.0008851692 0.10390805
-0.020045798 -0.006708025 -0.08577888 0.00032863603 0.006585559 0.0004189811 -0.021873403 -0.0009215075
0.0005061078 -0.00021506411 0.00019328858 -0.017164279 0.10363735 -0.00021150503 -0.0348483 -0.100475
0.011684239 0.14912719 -0.10650599 -0.09244215 0.1485989 -0.20964728 0.1221113 0.03267615
-0.053998657 0.14820282 0.12066374 -0.13302256 -0.051176738 -0.11519974 0.017206261 0.068357445
0.115116626 0.072977565 -0.11852131 -0.00529598 -0.012974919 0.1713952 0.005672852 0.034488577
0.028036745 -0.08561915 0.14660501 -0.092257716 -0.09743614 0.13267179 -0.13967596 0.12898892
0.051465373 0.11186264 -0.100741215 -0.072162434 -0.033505637 0.13186443 0.023748763 -0.007385958
0.008830043 -0.00569606 0.06333928 0.09907452 0.09719873 -0.04872422 -0.09284047 0.00641573
0.005534514 0.008945948 -0.009220967 -0.031457603 -0.08100086 -0.004331576 0.13668051 -0.081486925
0.10471741 -0.042512547 0.12363545 -0.121328585 0.07927188 -0.09572918 0.027696662 0.069503054
0.120871946 -0.11381595 -0.012335437 -0.048547044 0.11737934 -0.1309399 -0.04568314 0.00763403
0.12486905 -0.14463177 0.11973537 -0.14812708 0.07268876 0.12510121 0.08826956 -0.07759589
0.0101907635 0.16124904 0.0020869945 0.053144727 -0.17347091 0.052746113 -0.10070805 0.11838772
-0.102778256 -0.06239184 -0.07483654 0.052014504 0.095036924 -0.15984082 0.052300043 0.12605953
0.039288323 0.0070983204 -0.04230258 0.057979442 0.008207279 -0.05591596 -0.09761403 -0.10827886
0.06018951 -0.029819462 0.015535895 -0.06397526 0.06555513 -0.007383899 0.077821955 0.00915374
-0.0076886197 -0.0014227234 -0.01249121 0.0051632863 -0.01463064 -0.061694182 0.04615966 0.004277348
-0.078174636 0.05831182 0.02567779 -0.045429092 -0.011422606 -0.03926584 0.052650798 -0.09989729
0.06119111 -0.09361543 -0.1550731 -0.018399868 0.114727676 0.136628 0.016465863 0.025737604
-0.07294088 -0.16104157 0.055838313 0.13318759 -0.113013975 -0.124704935 -0.17956334 0.19511305
-0.16528478 0.10561138 0.029285522 0.16752551 0.11420872 0.16763815 -0.026211087 0.161397
0.098395735 0.108502395 0.09268017 -0.08888889 0.005221275 -0.18372968 0.058440346 0.05240937

fc.0.bias f4 [8]
00000000: 4183 debd 6405 03bd fbfc a5bd 8445 2b3d
00000010: 6278 f2bd db5e dd3a 56d4 6ebc 5a9d 0ebb
-0.108648784 -0.031987563 -0.08104893 0.041814342 -0.118393674 0.0016889231 -0.014576992 -0.002176127

fc.2.weight f4 [2, 8]
00000000: 0389 843d 1585 0a3e 6c90 8ebe 73f8 98be
00000010: b202 223d ed39 a43e 7ce9 cb3d bc81 63be
00000020: 4461 463e df32 3f3d f880 723e e0fc b73e
00000030: 3b8d 603e c0e2 893d cb2b e3bb d4d4 7f3e
0.064714454 0.1352733 -0.2784456 -0.29877052 0.03955335 0.32075444 0.09956643 -0.22217458
0.19373041 0.046679374 0.2368201 0.35935116 0.21928875 0.06732702 -0.0069327108 0.24983531

fc.2.bias f4 [2]
00000000: 0020 78bd dc2e aabe
-0.060577393 -0.33238876
