best_lstm_model.pth (torch, 211269 bytes, 9 tensors)

lstm.weight_ih_l0 f4 [256, 6]
0.07262154 0.09588082 0.0072623007 0.06670558 0.06139211 -0.116317965 0.033930622 0.04771744
0.08196882 -0.028014958 -0.02745381 -0.022101285 0.01961754 0.06606716 0.1040641 0.07187299
-0.033981938 0.029647658 -0.05767914 -0.0875995 0.035048567 -0.10503351 -0.005836174 0.027859105
0.01519477 -0.013560469 0.049280282 0.004475425 0.06044476 0.03446323 -0.034088414 -0.080865555
-0.07723763 -0.1498 0.010303179 0.014240356 -0.010223854 0.03459712 -0.06050699 -0.0010323864
-0.026771331 -0.030904964 0.07951355 -0.011969534 0.036412064 0.07917843 -0.0160287 0.0027394511
-0.060304414 -0.093915775 -0.105416715 0.03294077 -0.024705334 -0.0056364695 -0.013640292 -0.056007296
0.0017930865 0.024412934 0.001597351 0.004007056 0.057266828 -0.0019149077 0.035574637 -0.042462762
0.013634672 -0.2801918 0.016596619 0.04004117 0.05912918 -0.038195636 -0.05407947 0.01675618
0.03429403 0.0125326235 0.041287474 0.0002448127 -0.050186638 -0.09500972 0.14420202 0.14106329
-0.036596034 0.15498947 0.08354567 0.018235827 -0.06714107 -0.073204815 0.06480329 -0.05628465
0.018620308 -0.17727762 0.08707101 0.13646537 -0.023693878 0.067034915 0.07152435 0.029288452
-0.08947804 0.021396646 0.023723692 0.02884206 -0.04056229 -0.09383075 0.05552967 -0.042485103
0.09400242 0.07142625 -0.032462485 -0.12046892 -0.05648952 -0.044055894 -0.07498678 -0.0958068
-0.06515758 -0.017220024 -0.06623348 -0.06989773 -0.09797556 0.044625852 -0.05488822 0.01897571
0.00889437 0.0074985093 -0.08538825 -0.020306395 -0.005242598 -0.2148093 -0.0012834325 -0.02697824
0.02058506 -0.002950618 -0.09934275 -0.078891255 -0.050073992 0.021456411 0.086498395 -0.06247883
-0.07801824 -0.17410636 0.07965257 -0.1268959 -0.13206926 -0.103937216 0.006681881 0.002886083
-0.09064966 -0.012799617 0.01389356 0.062483173 0.015267072 -0.27000138 0.08927949 0.094860874
0.07490184 -0.0059015043 -0.027556963 -0.11291567 0.028502107 -0.011913447 -0.029558275 -0.0017682182
-0.025629446 -0.20644552 0.051167678 -0.023082297 -0.023355715 0.05368077 -0.016444387 0.015269934
-0.15938327 -0.03273512 -0.028583255 -0.121695824 -0.05360352 0.039865043 0.075642906 -0.022803042
0.07851876 0.05021412 -0.030884992 -0.014207129 -0.034829937 -0.0015663079 -0.04643903 -0.0425731
0.034680948 -0.014799387 -0.01454666 -0.049182266 0.035305906 0.07374868 0.005549297 -0.04792189
-0.03526469 -0.12123884 -0.12923002 -0.14365903 -0.03205456 -0.10466094 -0.050686587 -0.0055398904
0.012038476 0.04565463 -0.015742974 -0.11644612 0.07052218 0.081076644 0.035870798 0.009516883
0.030962015 -0.15252326 -0.00152863 0.079374075 0.04865329 -0.065487765 -0.041651983 -0.031124331
-0.054177213 0.0020387403 -0.15473177 -0.07027839 -0.007312099 0.037794713 -0.035802282 0.013081683
0.026023181 -0.08293334 0.0037155005 -0.015694689 0.073892325 0.019361272 0.02874483 -0.018596
0.049318995 0.03736229 0.03079739 -0.036520768 -0.020589622 -0.033677418 -0.0751585 -0.024107935
-0.02563002 -0.035166595 0.050615486 -0.049655996 -0.03767192 -0.13415709 0.084948525 -0.049466975
0.04661252 0.038312033 -0.02048719 -0.11612022 -0.05874156 -0.03402358 -0.008633184 -0.08767025
00000000: 9aba 943d 2a5d c43d 98f8 ed3b ef9c 883d
00000010: 4b76 7b3d 1d38 eebd d6fa 0a3d 5d73 433d
00000020: 45df a73d a07f e5bc d0e6 e0bc c10d b5bc
00000030: f7b4 a03c 384e 873d 8f1f d53d 2532 933d
00000040: a530 0bbd a5df f23c f640 6cbd 5e67 b3bd
00000050: 168f 0f3d cf1b d7bd 603d bfbb c738 e43c
00000060: 7cf3 783c bb2c 5ebc 1fda 493d 96a6 923b
00000070: ed94 773d 5129 0d3d 4ba0 0bbd d79c a5bd
00000080: c32e 9ebd 2c65 19be aace 283c 6250 693c
00000090: f481 27bc b6b5 0d3d 2dd6 77bd 2451 87ba
000000a0: 8d4f dbbc 682c fdbc 00d8 a23d dd1b 44bc
000000b0: d124 153d 4d28 a23d 9f4e 83bc 5d88 333b
000000c0: c301 77bd ea56 c0bd b8e4 d7bd e7ec 063d
000000d0: d762 cabc 22b2 b8bb 887b 5fbc e867 65bd
000000e0: 0006 eb3a a2fd c73c 355e d13a 9f4d 833b
000000f0: 9f90 6a3d a4fd faba b6b6 113d 6fed 2dbd
00000100: f663 5f3c 4d75 8fbe a2f5 873c 3602 243d
00000110: 7031 723d 0773 1cbd 6f82 5dbd 4244 893c
00000120: e677 0c3d a255 4d3c 0e1d 293d 345a 8039
00000130: 8190 4dbd 7594 c2bd b2a9 133e e572 103e
00000140: b9e5 15bd 8fb5 1e3e fe19 ab3d 4d63 953c
00000150: 4281 89bd 68ec 95bd 96b7 843d bc8a 66bd
00000160: 9e89 983c 4488 35be 4952 b23d 94bd 0b3e
00000170: aa19 c2bc 9a49 893d 5c7b 923d 56ee ef3c
00000180: 4340 b7bd 0548 af3c 3058 c23c 2f46 ec3c
00000190: a524 26bd 562a c0bd 1473 633d dc04 2ebd
000001a0: 5784 c03d ed47 923d 62f7 04bd 69b8 f6bd
000001b0: 8e61 67bd f473 34bd ab92 99bd 5b36 c4bd
000001c0: 5671 85bd 0211 8dbc 6ba5 87bd 8b26 8fbd
000001d0: 69a7 c8bd 99c9 363d 78d2 60bd f372 9b3c
000001e0: b1b9 113c 0eb6 f53b 09e0 aebd 9959 a6bc
000001f0: 19ca abbb f8f6 5bbe d938 a8ba 7801 ddbc
00000200: 00a2 a83c 285f 41bb 3674 cbbd bd91 a1bd
00000210: 631a 4dbd 5bc5 af3c 1226 b13d cde9 7fbd
00000220: 07c8 9fbd f048 32be e320 a33d 00f1 01be
00000230: 2a3d 07be 09dd d4bd aef3 da3b 7024 3d3b
00000240: 87a6 b9bd 7cb5 51bc d0a1 633c 5bee 7f3d
00000250: be22 7a3c 9f3d 8abe 2ad8 b63d 6b46 c23d
00000260: 2366 993d 6861 c1bb 24bf e1bc 5540 e7bd
00000270: 407d e93c 9e30 43bc 3224 f2bc 8fc3 e7ba
00000280: d8f4 d1bc 7466 53be 3395 513d 1617 bdbc
00000290: 7c54 bfbc 5ee0 5b3d 61b6 86bc bf2e 7a3c
000002a0: 5e35 23be 4315 06bd 6e27 eabc a93b f9bd
000002b0: 5d8f 5bbd 8749 233d abea 9a3d 72cd babc
000002c0: 72ce a03d 52ad 4d3d 8602 fdbc 05c5 68bc
000002d0: d6a9 0ebd 924c cdba da36 3ebd 2261 2ebd
000002e0: 9c0d 0e3d 2179 72bc 1d55 6ebc 5873 49bd
000002f0: ed9c 103d 8c09 973d e1d6 b53b be49 44bd
00000300: b571 10bd 124c f8bd e054 04be 5a1b 13be
00000310: a44b 03bd 7a58 d6bd bd9c 4fbd f887 b5bb
00000320: 073d 453c 5900 3b3d 69f7 80bc 4e7b eebd
00000330: ef6d 903d 830b a63d 42ed 123d b3ec 1b3c
00000340: 0da4 fd3c 0f2f 1cbe 505c c8ba e08e a23d
00000350: ac48 473d 731e 86bd 459b 2abd 74f8 febc
00000360: ede8 5dbd 639c 053b 0172 1ebe 1eee 8fbd
00000370: 559a efbb a1ce 1a3d 6aa5 12bd 8e54 563c
00000380: 912e d53c f4d8 a9bd c17f 733b 2692 80bc
00000390: dc54 973d 889b 9e3c 477a eb3c a356 98bc
000003a0: b702 4a3d 3309 193d cf4a fc3c cd96 15bd
000003b0: 91ab a8bc 55f1 09bd b3ec 99bd 017e c5bc
000003c0: 0cf6 d1bc d90a 10bd 2f52 4f3d 1664 4bbd
000003d0: df4d 1abd 7a60 09be 7ef9 ad3d e29d 4abd
000003e0: c5ec 3e3d 14ed 1c3d c0d4 a7bc 70d0 edbd
000003f0: fd9a 70bd 4f5c 0bbd 3372 0dbc 768c b3bd

lstm.weight_hh_l0 f4 [256, 64]
-0.005517058 0.017722404 -0.04935508 -0.0007559263 0.0028908094 -0.011188822 -0.006821692 -0.0052080033
0.018563546 -0.007838651 -0.006090159 0.008532512 0.030888073 -0.09990724 -0.0010293194 -0.03545041
-0.010352778 0.024567394 -0.012495663 -0.0036542418 0.0051079504 -0.0028754384 0.0012622278 0.021197736
0.0054812706 -0.0054751504 0.0016270288 -0.015947098 -0.03859768 -0.014895426 0.003099864 0.019879404
-0.01857747 -0.012163951 0.0032902276 -0.0124791665 0.01181484 -0.015102419 -0.016768685 -0.029400645
-0.015018221 0.010624002 -0.004644564 -0.0033994862 -0.005385949 0.00833062 -0.07742147 -0.00044971754
-0.0012676311 0.02511927 -0.005972309 0.0108608585 0.06609399 0.04215869 0.01975277 -0.0037267287
0.031840764 0.008035416 -0.004349273 -0.016835617 0.002403449 -0.010465398 0.014456404 -0.008705582
0.0011633532 0.0039438372 -0.042075243 0.015655713 -0.006477054 -0.038139984 0.00012900206 0.013941884
0.05552779 -0.006386536 0.000530289 -0.006491845 0.009472068 -0.026119312 -0.006997613 -0.00794298
-0.00039054835 0.013603579 -0.010339787 -0.021809509 0.002567188 -0.022834606 -0.0022156998 0.04240696
0.009348608 -0.0067220055 0.0014999004 -0.004022622 -0.009929112 -0.0065812613 -0.0003818428 -0.00078481715
0.034379248 -0.009167736 0.0115459515 -0.0023217832 0.04450323 0.0006409358 0.010576323 0.0005597414
-0.008418723 0.0037580281 0.0068576974 0.0020634488 0.005797071 -0.00094800186 -0.04421174 -0.0022958212
-0.0025732033 0.0275877 -0.00020282705 0.0056368476 0.024342109 -0.016664885 -0.00021238095 0.012237561
0.024384443 0.012665764 -0.00037198485 -0.008537556 -0.0010885108 -0.00018796172 0.010937416 -0.0083798785
0.009869257 0.011808506 -0.032927595 0.0010392122 0.013999141 -0.02745126 0.016838728 -0.017473347
-0.00808352 -0.018908167 0.004870776 0.009700035 0.020056527 -0.021949533 -0.003058912 -0.018367443
-0.0124609135 0.009284635 0.019870324 0.012304711 -0.0013992423 -0.0028085373 0.003975843 -0.008921334
-0.003727565 -0.007614853 -0.0011764538 0.015449138 0.007709455 -0.013479814 -0.011637892 0.017356649
0.0021804497 -0.020005224 0.0049438076 -0.0058416775 0.0051023164 0.022339659 -0.019190118 0.0009710124
0.0052676382 0.017954947 0.022792222 0.003538563 0.015397418 -0.008851985 -0.06433374 -0.0038770873
0.016354805 0.011764365 0.004288129 -0.00834079 -0.0053181476 -0.0020214238 0.009177962 -0.010277375
0.014328313 0.017308556 0.011449001 -0.026484147 -0.017557701 -0.014003528 -0.0064689633 0.0052477703
0.0058195516 -0.008739379 -0.02901372 0.030509917 0.0048607783 0.032039333 0.011496537 0.00198404
0.024573378 0.005925333 -0.003938769 -0.006234802 -0.0010816818 -0.030940812 0.009255103 -0.011223442
0.0072316905 0.0007796487 -0.024096794 -0.0074254833 0.0064688167 -0.018963626 -0.0061338376 0.015431644
0.0066644326 -0.004648995 0.004857477 -0.00143149 -0.045901403 0.010858446 0.007740335 -0.00217576
0.0074993046 0.005753977 3.4693745e-05 0.0039350493 -0.016554348 0.012525271 -0.015694804 -0.007508824
-0.034086023 -0.012230496 -0.014842086 -0.0011164327 -0.0024845176 0.004691906 -0.06609247 0.003584774
-0.002974468 0.0012600252 -0.006718347 0.012187344 0.012227267 -0.009489769 -0.0058744904 -0.020859633
-0.0074505596 -0.006721782 -0.0046424177 -0.01343784 0.013540179 0.006096165 0.04312464 -0.030018182
00000000: 70c8 b4bb 932e 913c 8d28 4abd 5b29 46ba
00000010: bc73 3d3b 5251 37bc 8088 dfbb e6a7 aabb
00000020: 9412 983c af6d 00bc f58f c7bb f3cb 0b3c
00000030: fc08 fd3c 2b9c ccbd 3aea 86ba 7334 11bd
00000040: b39e 29bc 8f41 c93c 9cba 4cbc 017c 6fbb
00000050: 9860 a73b da71 3cbb 5671 a53a e0a6 ad3c
00000060: 3b9c b33b e468 b3bb 0742 d53a 7da3 82bc
00000070: 9a18 1ebd f20b 74bc 1727 4b3b 22da a23c
00000080: c72f 98bc 4f4b 47bc dca0 573b 6b75 4cbc
00000090: 0893 413c 2370 77bc 7b5e 89bc 9fd9 f0bc
000000a0: fc0e 76bc 4b10 2e3c 6d31 98bb eac9 5ebb
000000b0: 9d7c b0bb 277d 083c 268f 9ebd 11c8 ebb9
000000c0: a426 a6ba edc6 cd3c 5cb3 c3bb bef1 313c
000000d0: 495c 873d 97ae 2c3d 90d0 a13c 223c 74bb
000000e0: 766b 023d faa6 033c 5984 8ebb d9ea 89bc
000000f0: 2f83 1d3b 1077 2bbc 8eda 6c3c dba1 0ebc
00000100: a87b 983a 4e3b 813b 1757 2cbd 6940 803c
00000110: 783d d4bb ac38 1cbd ba44 0739 806c 643c
00000120: 1c71 633d 2646 d1bb 1803 0b3a 8bb9 d4bb
00000130: bc30 1b3c 2bf8 d5bc 3b4c e5bb 4623 02bc
00000140: 83c2 ccb9 8ce1 5e3c 3668 29bc dba9 b2bc
00000150: 453e 283b a40f bbbc 4635 11bb ecb2 2d3d
00000160: e72a 193c 4544 dcbb 4e98 c43a 33d0 83bb
00000170: b7ad 22bc 9fa7 d7bb 1332 c8b9 30bc 4dba
00000180: 41d1 0c3d 4634 16bc 3b2b 3d3c 0f29 18bb
00000190: 0549 363d 7904 283a 5048 2d3c 9cbb 123a
000001a0: afee 09bc 4049 763b 89b6 e03b ed3a 073b
000001b0: 5bf5 bd3b 5483 78ba 5f17 35bd 7d75 16bb
000001c0: 30a3 28bb 9aff e13c f9ad 54b9 4eb5 b83b
000001d0: 1a69 c73c cc84 88bc 94b2 5eb9 0d80 483c
000001e0: e2c1 c73c 1184 4f3c f606 c3b9 1be1 0bbc
000001f0: 5dac 8eba 9717 45b9 d932 333c c24b 09bc
00000200: aab2 213c 7778 413c 16df 06bd 2d36 883a
00000210: a75c 653c 77e1 e0bc 5ff1 893c 4424 8fbc
00000220: be70 04bc 4de5 9abc 089b 9f3b e5ec 1e3c
00000230: 964d a43c 82cf b3bc 0778 48bb 5277 96bc
00000240: dc28 4cbc 951e 183c 17c7 a23c b399 493c
00000250: c866 b7ba 700f 38bb ca47 823b c92a 12bc
00000260: 2a4a 74bb 0486 f9bb 3d33 9aba 621e 7d3c
00000270: 999f fc3b 70da 5cbc dbac 3ebc 882f 8e3c
00000280: e0e5 0e3b ffe1 a3bc aaff a13b 8b6b bfbb
00000290: 5531 a73b a901 b73c 9834 9dbc 8a8b 7e3a
000002a0: 279c ac3b 4116 933c c1b6 ba3c 3ce7 673b
000002b0: 7445 7c3c eb07 11bc 68c1 83bd bb16 7ebb
000002c0: 83fa 853c 53bf 403c 6f83 8c3b cfa7 08bc
000002d0: db43 aebb dd79 04bb 2a5f 163c 6f62 28bc
000002e0: 4dc1 6a3c acca 8d3c 9794 3b3c 48f5 d8bc
000002f0: 2bd5 8fbc 0e6f 65bc 99f9 d3bb 7df5 ab3b
00000300: f0b1 be3b 9d2f 0fbc 2eae edbc efef f93c
00000310: 2a47 9f3b ad3b 033d f95b 3c3c ab06 023b
00000320: 1c4e c93c 4c29 c23b ca10 81bb 4f4d ccbb
00000330: 38c7 8dba 9677 fdbc b7a2 173c 87e2 37bc
00000340: d1f7 ec3b 5761 4c3a a466 c5bc 7851 f3bb
00000350: 5ef8 d33b 9b59 9bbc 5cfe c8bb 02d5 7c3c
00000360: 5061 da3b 9956 98bb 782b 9f3b d5a0 bbba
00000370: 1c03 3cbd a0e7 313c a3a2 fd3b 3297 0ebb
00000380: babc f53b dc8b bc3b 2084 1138 96f1 803b
00000390: fc9c 87bc cb36 4d3c 6492 80bc 950c f6bb
000003a0: c99d 0bbd 6b62 48bc 382c 73bc 4455 92ba
000003b0: 4ad3 22bb 8fbe 993b 7d5b 87bd 87ee 6a3b
000003c0: 4bef 42bb 6e27 a53a 9425 dcbb 6dad 473c
000003d0: e054 483c fa7a 1bbc cc7e c0bb d2e1 aabc
000003e0: d323 f4bb 6542 dcbb 6c1f 98bb 632a 5cbc
000003f0: a0d7 5d3c 57c2 c73b 76a3 303d b1e8 f5bc

lstm.bias_ih_l0 f4 [256]
0.15125902 -0.05168074 0.07530789 0.06632342 -0.045128375 0.09644973 0.031845722 0.012279071
0.09397303 -0.016243707 0.3325124 0.050029203 0.060729418 0.03780862 0.04891878 -0.00431073
0.16519953 0.119875394 0.017960645 0.07068856 0.28373218 0.1068962 0.18048826 0.1084024
0.30207226 0.26336905 0.22991745 -0.016215006 0.11219966 0.084497385 0.04471598 0.04448524
0.17063695 0.07403348 0.14556289 -0.009424077 -0.0268664 0.0502541 -0.025593312 0.025257634
0.040825028 0.118668795 0.1713537 0.09844981 0.016746432 0.18630986 0.12641469 0.22632696
-0.00514659 -0.06764475 0.2527762 -0.08393381 0.010714185 0.008558635 -0.023898203 0.12762828
0.12144492 -0.020202983 0.7643857 -0.0044098184 -0.028106017 0.121295355 -0.0014454836 -0.025291232
-0.17106158 -0.05199555 -0.007888696 -0.06920701 -0.07162959 0.19939339 0.050522137 -0.099880956
0.1241566 -0.12123397 -0.17513469 -0.060458597 -0.019681241 0.026190346 -0.03256269 0.017720819
-0.15211132 -0.0070399544 0.009786827 -0.063982055 -0.13242565 0.024633538 -0.1646277 0.07069914
-0.09420342 -0.17973934 -0.20492065 0.018565482 0.07671611 -0.12503603 -0.06693505 -0.07757385
0.104615614 -0.10739299 -0.08475221 -0.030109804 0.096409224 0.016830835 -0.10058352 -0.016602524
0.0035217758 -0.01751112 -0.02708563 -0.096758485 -0.1258941 -0.066804774 -0.011673677 -0.07025514
-0.008950218 -0.04864376 -0.22179833 0.010002663 -0.08193883 0.049996253 -0.09435687 -0.078698605
-0.056747086 -0.020967796 -0.48338345 -0.046698622 -0.09320359 0.0011852956 -0.09855556 -0.097891025
-0.03218287 0.030754024 -0.09307407 -0.050019022 0.11021758 -0.08773972 0.030089878 -0.026804063
-0.06600731 0.02270607 0.025867252 0.061730333 -0.018877037 -0.115314476 0.041839 0.035922673
0.00024899674 0.10248846 0.022841882 -0.07731058 -0.047596414 -0.010223064 -0.010408856 0.06287284
0.0022381768 0.004757743 0.04965993 0.0059042745 -0.048698418 -0.07477205 0.07040945 0.016558476
-0.06253422 -0.007517613 0.08380548 0.03956265 0.028540716 -0.02525916 -0.024410684 0.08868808
0.09342043 -0.025795743 0.080496594 0.06439165 0.091475226 0.026397409 -0.056752197 -0.023403471
0.05587442 -0.011597795 0.05246777 0.026750736 -0.04428901 0.051403195 0.06198449 0.0376588
-0.07781383 0.016064405 0.054596897 0.016350979 -0.04039175 0.00041929077 -0.035154328 0.1134277
0.14668849 -0.030625975 -0.050197363 -0.078116305 -0.057107683 -0.00764416 0.10450517 0.11128706
-0.00044815056 0.0010892021 0.39057583 0.06478834 0.027034871 0.0471466 0.16937351 -0.022104988
0.12081132 0.093963556 -0.016595319 -0.083322875 0.23366816 -0.07088899 0.17213835 -0.033100702
0.28532314 0.2780725 0.22532515 -0.021363419 0.011899405 0.10278673 0.007813476 -0.0095570125
0.12927264 0.0031574338 0.13901769 0.040416278 0.0873345 -0.0062146634 -0.05515297 0.08685682
0.075293705 0.051520847 0.13729736 0.20642988 0.0709313 0.19415544 0.117059164 0.20632665
-0.014558726 0.050098486 0.2490579 0.026871292 -0.014018297 0.053347036 -0.046313025 0.020803228
0.044620715 -0.0370551 0.67924917 0.110644385 -0.0046565756 0.020665001 -0.015377262 -0.046755433
00000000: a5e3 1a3e 2faf 53bd 063b 9a3d 93d4 873d
00000010: 88d8 38bd 7087 c53d a970 023d 282e 493c
00000020: ef74 c03d 8611 85bc 113f aa3e 6ceb 4c3d
00000030: 69bf 783d 36dd 1a3d 0f5f 483d 0641 8dbb
00000040: 112a 293e 3b81 f53d 3422 933c 2ac5 903d
00000050: 5845 913e 65ec da3d ead1 383e 1402 de3d
00000060: 37a9 9a3e 4fd8 863e 7b6f 6b3e 55d5 84bc
00000070: efc8 e53d f70c ad3d 1a28 373d 2836 363d
00000080: 74bb 2e3e dd9e 973d 700e 153e 7267 1abc
00000090: ed16 dcbc 3ed7 4d3d 11a9 d1bc 19e9 ce3c
000000a0: 2538 273d a008 f33d 5877 2f3e 0ea0 c93d
000000b0: d02f 893c 03c8 3e3e da72 013e 41c2 673e
000000c0: baa4 a8bb 5589 8abd e26b 813e 7de5 abbd
000000d0: 8d8a 2f3c 8439 0c3c 2ac6 c3bc fdb0 023e
000000e0: 1db8 f83d ba80 a5bc c8ae 433f 3d80 90bb
000000f0: 973e e6bc b369 f83d 6276 bdba 8f2f cfbc
00000100: c42a 2fbe 49f9 54bd 973f 01bc 68bc 8dbd
00000110: 89b2 92bd c82d 4c3e 4df0 4e3d 638e ccbd
00000120: d145 fe3d 8449 f8bd 8256 33be 6fa3 77bd
00000130: 8e3a a1bc 238d d63c 7560 05bd 402b 913c
00000140: 12c3 1bbe 6baf e6bb ed58 203c 0609 83bd
00000150: 979a 07be 46cc c93c 2a94 28be b6ca 903d
00000160: b9ed c0bd 970d 38be b8d6 51be a316 983c
00000170: 561d 9d3d 7209 00be 3e15 89bd 0adf 9ebd
00000180: b640 d63d dbf0 dbbd 9192 adbd d6a8 f6bc
00000190: 3372 c53d d2e0 893c bcfe cdbd 0402 88bc
000001a0: 98cd 663b 7b73 8fbc afe2 ddbc 5029 c6bd
000001b0: 62ea 00be f1d0 88bd f342 3fbc ede1 8fbd
000001c0: efa3 12bc ae3e 47bd 1a1f 63be 36e2 233c
000001d0: 8ccf a7bd dfc8 4c3d 2d3e c1bd bc2c a1bd
000001e0: a26f 68bd a8c4 abbc 097e f7be 0e47 3fbd
000001f0: 86e1 bebd ec5b 9b3a 7fd7 c9bd 177b c8bd
00000200: 2fd2 03bd ddef fb3c 9e9d bebd bfe0 4cbd
00000210: c1b9 e13d e2b0 b3bd 0c7f f63c 3294 dbbc
00000220: d72e 87bd 1502 ba3c 8fe7 d33c f2d8 7c3d
00000230: 04a4 9abc ff29 ecbd 5f5f 2b3d a723 133d
00000240: c78b 8239 78e5 d13d e61e bb3c 0255 9ebd
00000250: 75f4 42bd a37e 27bc e889 2abc 7ac3 803d
00000260: 60ae 123b d7e6 9b3b 3668 4b3d a578 c13b
00000270: fe77 47bd 1722 99bd d432 903d a4a5 873c
00000280: f111 80bd 4f56 f6bb 35a2 ab3d 720c 223d
00000290: 38ce e93c 4cec cebc eaf8 c7bc 19a2 b53d
000002a0: 3653 bf3d 9851 d3bc 66db a43d c5df 833d
000002b0: 5d57 bb3d 613f d83c fe74 68bd a3b8 bfbc
000002c0: 93dc 643d ae04 3ebc 72e8 563d 5c24 db3c
000002d0: 6568 35bd 288c 523d 73e3 7d3d 1d40 1a3d
000002e0: db5c 9fbd 8099 833c ffa0 5f3d 7df2 853c
000002f0: d271 25bd 41d4 db39 fcfd 0fbd c84c e83d
00000300: 8235 163e 53e3 fabc c09b 4dbd 71fb 9fbd
00000310: bfe9 69bd dd7b fabb ce06 d63d 78ea e33d
00000320: c0f5 eab9 8fc3 8e3a 8ef9 c73e c0af 843d
00000330: 3c78 dd3c cb1c 413d 4070 2d3e 8515 b5bc
00000340: ed6b f73d f76f c03d e8f2 87bc 2fa5 aabd
00000350: b546 6f3e 3f2e 91bd 0945 303e 9a94 07bd
00000360: e015 923e 855f 8e3e a3bb 663e 5602 afbc
00000370: b9f5 423c d981 d23d 1804 003c 0495 1cbc
00000380: 0c60 043e f3ec 4e3b a75a 0e3e 8a8b 253d
00000390: 6edc b23d 60a4 cbbb 15e8 61bd fde1 b13d
000003a0: 9633 9a3d 8607 533d ae97 0c3e 5b62 533e
000003b0: 6e44 913d afd0 463e b7bc ef3d 4b47 533e
000003c0: b987 6ebc 1234 4d3d 0909 7f3e 2f21 dc3c
000003d0: 00ad 65bc 6c82 5a3d bab2 3dbd 886b aa3c
000003e0: 36c4 363d 17c7 17bd 46e3 2d3f 8699 e23d
000003f0: 3096 98bb a649 a93c e9f0 7bbc a082 3fbd

lstm.bias_hh_l0 f4 [256]
0.12618297 -0.09446524 0.07301713 -0.09074812 -0.020020826 0.034472 0.11747017 0.08837443
0.057817835 0.011077914 0.36142242 0.021736827 -0.039789047 0.1727867 0.14409547 -0.0544989
0.17315692 0.128895 -0.075923525 0.004764466 0.27808136 0.009978706 0.12647946 0.005541032
0.36093292 0.20824043 0.13055992 0.05849932 0.045714755 -0.005557418 0.108488195 0.086390786
0.08415267 0.027300261 0.14599885 -0.025976118 -0.042589784 0.025993094 -0.035379753 0.005177448
-0.04114173 -0.010975088 0.24912214 0.1678622 0.083739735 0.14682281 -0.042924363 0.20546465
-0.024535807 0.11117368 0.31763932 -0.0118286405 -0.0017038231 0.015551523 -0.045474194 0.1255942
-0.007084045 -0.016776593 0.7711559 0.04312875 -0.0056917686 0.13266142 -0.05615578 0.06977886
-0.048022825 -0.0530122 0.04886116 -0.08413193 -0.011121902 0.05825424 -0.051683743 0.025806854
0.032899965 -0.052928012 -0.2838983 -0.08917798 -0.082724735 0.05821056 -0.04278419 -0.04790453
-0.038005903 -0.12255613 -0.0026387104 0.07093781 -0.16631748 0.043785553 -0.112854905 0.08358216
-0.101305835 -0.18754192 -0.19248885 -0.041199762 0.1876653 -0.046588283 -0.10405272 -0.05698359
0.13079771 -0.11038088 -0.05110698 -0.036265798 -0.04917522 -0.004100124 -0.027810302 -0.061323814
-0.08008538 -0.08413748 -0.13634832 -0.11756268 -0.036056433 -0.11604456 -0.026047247 -0.16809556
-0.031145094 -0.11408357 -0.21721987 -0.039032947 -0.056450482 0.041241854 -0.084547885 -0.08928701
-0.02174354 -0.02108659 -0.4022834 -0.003862608 -0.07638862 -0.13105446 -0.06498733 -0.13660336
0.026702086 -0.014709943 0.12581891 0.0171083 -0.082287215 -0.08543986 -0.03679543 0.0048035337
0.019586867 -0.047004297 -0.034461774 -0.03672288 0.034778453 -0.025882322 -0.017173499 -0.019884588
-0.01570269 -0.09345987 -0.013426176 0.119167864 0.038092066 0.050815202 0.03317202 -0.05416786
-0.013680443 0.01092272 -0.07060704 0.029525792 0.05603162 0.07431233 -0.086554326 0.017293157
0.061507847 -0.0122559 -0.05142056 -0.037150607 0.0089747915 0.019684313 0.0054466287 -0.08037909
-0.06178289 0.029114813 -0.034758955 -0.056598123 -0.076218784 -0.03575129 0.11118363 0.025749087
-0.038136996 -0.00039565854 -0.033344638 -0.05807191 0.11022458 0.099210314 -0.06368962 -0.061520703
0.077551484 -0.00507056 -0.020954426 -0.040378906 0.033681314 -0.0050853123 -0.065591484 -0.056001045
0.081423804 0.06499065 -0.05473864 -0.026294805 -0.0361799 0.1925768 0.1278328 0.03011581
0.006894768 -0.05839995 0.36373574 0.0807401 -0.006407354 0.07723262 0.06161418 0.041655146
0.08819331 0.018233575 0.03612157 -0.014715809 0.27734938 -0.0786608 0.19324464 0.02305629
0.28059602 0.24944648 0.16832072 -0.02118333 0.14264405 0.110501766 0.06857189 0.021128692
0.037269738 0.1567033 0.18175732 0.020947207 -0.002423243 -0.012382619 -0.044520635 -0.021978775
-0.02012116 0.05240405 0.24080731 0.08257069 0.12748633 0.20871042 0.19274394 0.22835223
0.067610234 0.11716895 0.3218829 -0.04704907 0.040286552 0.14778769 0.106955975 0.072814986
0.0017432622 0.06841906 0.7506172 0.010434438 -0.04469546 -0.039659977 0.032442655 -0.035624135
00000000: 1c36 013e fe76 c1bd 018a 953d 26da b9bd
00000010: b702 a4bc 8332 0d3d 3394 f03d a7fd b43d
00000020: 65d2 6c3d 2480 353c 5c0c b93e 6e11 b23c
00000030: d7f9 22bd ffee 303e c38d 133e 3d3a 5fbd
00000040: 0c50 313e 0dfd 033e cb7d 9bbd 3d1f 9c3b
00000050: ae60 8e3e ba7d 233c d583 013e 8c91 b53b
00000060: 33cc b83e fb3c 553e 80b1 053e fc9c 6f3d
00000070: 653f 3b3d 001b b6bb 0f2f de3d a7ed b03d
00000080: 3c58 ac3d cca4 df3c b980 153e decb d4bc
00000090: a072 2ebd 78ef d43c 5cea 10bd 95a7 a93b
000000a0: 3b84 28bd dbd0 33bc e019 7f3e 12e4 2b3e
000000b0: bd7f ab3d b858 163e 75d1 2fbd 5365 523e
000000c0: 51ff c8bc 07af e33d 9fa1 a23e eacc 41bc
000000d0: d152 dfba d1cb 7e3c 2643 3abd c49b 003e
000000e0: 4721 e8bb 116f 89bc 796a 453f c6a7 303d
000000f0: 0482 babb 65d8 073e 9a03 66bd 38e8 8e3d
00000100: 95b3 44bd 5223 59bd a422 483d 5c4d acbd
00000110: a338 36bc ff9b 6e3d 55b2 53bd e568 d33c
00000120: 1dc2 063d 0bcb 58bd 1e5b 91be f2a2 b6bd
00000130: 966b a9bd 326e 6e3d 7a3e 2fbd 8a37 44bd
00000140: 14ac 1bbd b5fe fabd 37ee 2cbb d847 913d
00000150: 214f 2abe 7b58 333d 7920 e7bd 202d ab3d
00000160: 6f79 cfbd fd0a 40be cc1b 45be 15c1 28bd
00000170: 552b 403e 5bd3 3ebd 9819 d5bd a067 69bd
00000180: d6ef 053e 5f0f e2bd 8d55 51bd 728b 14bd
00000190: f56b 49bd 555a 86bb 6ed2 e3bc ae2e 7bbd
000001a0: ce03 a4bd 4550 acbd e59e 0bbe b4c4 f0bd
000001b0: e9af 13bd c5a8 edbd 0961 d5bc 3e21 2cbe
000001c0: ff23 ffbc a6a4 e9bd e36e 5ebe 03e1 1fbd
000001d0: 9f38 67bd 38ed 283d 7127 adbd 1cdc b6bd
000001e0: 821f b2bc c9bd acbc 17f8 cdbe cf23 7dbb
000001f0: a371 9cbd 2433 06be 1418 85bd c0e1 0bbe
00000200: 55be da3c f901 71bc acd6 003e b526 8c3c
00000210: 3386 a8bd 18fb aebd ceb6 16bd f666 9d3b
00000220: a374 a03c 9487 40bd ca27 0dbd bb6a 16bd
00000230: da73 0e3d 2a07 d4bc 70af 8cbc 01e5 a2bc
00000240: eea2 80bc e367 bfbd 77f9 5bbc 480e f43d
00000250: 6d06 1c3d 9a23 503d 62df 073d 1edf 5dbd
00000260: f023 60bc 35f5 323c 6c9a 90bd 13e0 f13c
00000270: 6981 653d 1031 983d 6543 b1bd 61aa 8d3c
00000280: a7ef 7b3d f8cc 48bc 5d9e 52bd 3c2b 18bd
00000290: 010b 133c ff40 a13c a279 b23b cb9d a4bd
000002a0: 0e10 7dbd 3082 ee3c 685f 0ebd 6fd3 67bd
000002b0: 9818 9cbd f26f 12bd 3eb4 e33d c0ef d23c
000002c0: 8a35 1cbd 6470 cfb9 6394 08bd d0dc 6dbd
000002d0: 6dbd e13d c72e cb3d b46f 82bd 22fd 7bbd
000002e0: 50d3 9e3d f126 a6bb 9ea8 abbc 5a64 25bd
000002f0: 6bf5 093d b1a2 a6bb d454 86bd 5a61 65bd
00000300: 86c1 a63d d119 853d a035 60bd 3468 d7bc
00000310: 6031 14bd da32 453e 9ae6 023e 6eb5 f63c
00000320: 82ed e13b c934 6fbd 923b ba3e 115b a53d
00000330: c8f4 d1bb 232c 9e3d 275f 7c3d 969e 2a3d
00000340: b29e b43d 945e 953c 36f4 133d 941a 71bc
00000350: bd00 8e3e ea18 a1bd ece1 453e 8be0 bc3c
00000360: 48aa 8f3e e66e 7f3e 445c 2c3e aa88 adbc
00000370: 4811 123e c04e e23d 6b6f 8c3d 1416 ad3c
00000380: 27a8 183d d476 203e 971e 3a3e 7a99 ab3c
00000390: 45cf 1ebb 78e0 4abc 455b 36bd d50c b4bc
000003a0: 22d5 a4bc a1a5 563d 3196 763e d21a a93d
000003b0: c78b 023e 2fb8 553e ab5e 453e 2bd5 693e
000003c0: 3c77 8a3d 46f6 ef3d d6cd a43e 87b6 40bd
000003d0: 8303 253d a855 173e bc0b db3d 0620 953d
000003e0: 2c7e e43a 4b1f 8c3d 7328 403f 34f5 2a3c
000003f0: 9612 37bd 8072 22bd 97e2 043d 9dea 11bd

lstm.weight_ih_l1 f4 [256, 64]
0.0633089 0.0001335706 0.023760526 0.07503551 -0.024071716 -0.091376774 -0.011867354 0.03658005
0.04895868 0.039597865 0.012147677 0.021640789 0.0426783 -0.07735235 -0.0043769563 -0.04596091
0.029917948 -0.03153597 -0.035393592 0.024398819 0.008049624 0.033728004 0.033899296 -0.022985736
0.015020923 0.0052091745 -0.019606106 0.035486836 -0.00381289 0.00922566 0.038863495 0.03778747
-0.0053583276 -0.03313266 -0.0058931867 -0.02541162 0.070886 0.0104825245 0.041624527 0.006498128
-0.044879396 0.063275136 -0.03971678 -0.018253747 0.0051049897 0.01616336 0.002859902 -0.015010202
0.020365275 0.08637522 -0.005509906 -0.01256739 0.05432822 0.06088906 0.053574912 0.022850737
0.030220749 -0.015960284 0.0035682418 -0.049439292 0.0019172323 0.017831715 0.06314096 -0.014324012
-0.047683965 -0.025014332 0.02969383 0.03724538 -0.034708474 -0.0016475937 0.00039309793 0.015380305
0.03083025 0.03406405 0.003611324 -0.010704987 -0.02550519 -0.0121483 -0.014833033 -0.0025418922
0.019232338 -0.009871537 -0.08005866 -0.01135241 0.007853665 0.052404206 -0.010544983 0.0216178
0.008074628 0.012694123 0.00069673784 -0.06317494 -0.048032366 0.015176399 0.012014644 -0.019864526
-0.06864374 0.0069748294 -0.0063602934 0.029573558 0.07414455 -0.005291695 0.0021132538 -0.0069806864
-0.024319855 -0.035163876 -0.039103515 -0.0019802602 -0.05034161 0.027022287 0.013520409 0.0012233496
-0.029359393 -0.027182817 -0.0071240608 0.003259493 -0.03283272 -0.0324878 0.0065314737 -0.054735538
-0.049187418 -0.027371993 -0.0030103077 0.08164787 0.0196695 0.013892992 0.035254598 -0.034722656
-0.014526088 -0.002534446 -0.010441564 0.010324988 -0.02550355 -0.032260653 -0.023860127 0.005212742
0.0044083768 0.006251863 -0.020195765 -0.012246066 -0.0023691694 0.015475938 0.007343991 -0.005986077
0.01413784 0.0012925051 -0.0030516812 -0.01120706 0.013739292 -0.027509844 -0.014885246 0.054592267
0.020531049 0.00803717 0.015078237 0.007917682 -0.015284497 0.0025817652 0.014645985 0.012814354
0.054966953 -0.0063451002 -0.0077925688 0.014608431 0.060347777 -0.03625399 -0.0066311723 -0.014250163
-0.013962983 -0.0044068573 -0.022555169 -0.023123201 -0.019259375 0.012708064 0.042889286 0.014407447
0.0002977762 0.0022385658 -0.010277446 -0.005083968 -0.017032456 0.010776348 -0.0031239453 0.00851028
0.002830978 -0.018090563 -0.018172815 0.0017276185 -0.001964834 -0.00034302543 0.021249156 -0.010994848
-0.019230735 -0.026467806 0.052590553 0.025304072 -0.0419581 0.05984515 -0.019186756 0.011088816
0.077307515 0.033967394 0.025270637 -0.042723153 -0.020872282 0.069463536 -0.015987763 -0.015777769
-2.4873421e-05 -0.023303047 -0.0047012353 -0.021752013 -0.025942568 -0.016400421 0.020670528 0.0926984
-0.0023614133 0.00999191 -0.018262636 -0.019492222 -0.0040483368 -0.005536512 0.019233694 -0.012373573
0.002928808 0.026942993 0.00359085 0.03316465 -0.065426275 -0.07303695 0.04666265 -0.06953176
-0.03679623 -0.028756311 -0.034503046 0.030598724 0.016616073 0.031061033 0.054777753 -0.0057388437
-0.052282758 -0.034219485 -0.00013531161 0.033328358 -0.06520572 -0.08343551 0.027434785 -0.02734853
-0.004710109 1.2499331e-05 0.011258194 0.056661785 0.031643353 0.034594763 0.02511986 -0.055080652
00000000: 19a8 813d 160f 0c39 6fa5 c23c 38ac 993d
00000010: 0c32 c5bc bf23 bbbd 4a6f 42bc f6d4 153d
00000020: e688 483d 5f31 223d 0d07 473c 0648 b13c
00000030: 71cf 2e3d e96a 9ebd 926c 8fbb 8241 3cbd
00000040: 7c16 f53c dc2b 01bd dff8 10bd 08e0 c73c
00000050: 92e2 033c 6026 0a3d fdd9 0a3d 954c bcbc
00000060: 511a 763c b9b1 aa3b fc9c a0bc a55a 113d
00000070: aee1 79bb 3927 173c 542f 1f3d 09c7 1a3d
00000080: e994 afbb 1db6 07bd a21b c1bb 082c d0bc
00000090: ae2c 913d e5be 2b3c 7b7e 2a3d 40ee d43b
000000a0: 75d3 37bd 6596 813d 10ae 22bd e288 95bc
000000b0: c247 a73b 0669 843c 326d 3b3b 5aed 75bc
000000c0: 14d5 a63c 7ee5 b03d 718c b4bb 74e7 4dbc
000000d0: 4587 5e3d cf66 793d 5e71 5b3d 7831 bb3c
000000e0: 8191 f73c 24bf 82bc 2ad9 693b db80 4abd
000000f0: a44b fb3a d113 923c 0c50 813d 43af 6abc
00000100: 4350 43bd dbea ccbc 7a40 f33c 9d8e 183d
00000110: 792a 0ebd 12f4 d7ba b618 ce39 adfd 7b3c
00000120: b88f fc3c bf86 0b3d f6ab 6c3b f863 2fbc
00000130: 43f0 d0bc aa09 47bc 4006 73bc e095 26bb
00000140: 238d 9d3c 3abc 21bc cbf5 a3bd 75ff 39bc
00000150: a9ac 003c cba5 563d ddc4 2cbc d017 b13c
00000160: 724b 043c 03fb 4f3c 49a5 363a dd61 81bd
00000170: 96bd 44bd 6ea6 783c 12d9 443c eeba a2bc
00000180: 1795 8cbd 1c8d e43b 026a d0bb 3f44 f23c
00000190: 19d9 973d f465 adbb 847e 0a3b 3ebe e4bb
000001a0: 6f3a c7bc ff07 10bd 022b 20bd 41c7 01bb
000001b0: 0133 4ebd d85d dd3c b584 5d3c cd58 a03a
000001c0: 1c83 f0bc 80ae debc f470 e9bb 389d 553b
000001d0: 9a7b 06bd ed11 05bd f905 d63b 5f32 60bd
000001e0: bf78 49bd 3b3b e0bc 9548 45bb 0037 a73d
000001f0: ee21 a13c 6f9f 633c 2067 103d 5839 0ebd
00000200: d4fe 6dbc f318 26bb 1813 2bbc 232a 293c
00000210: d2ec d0bc bf23 04bd 5076 c3bc a6cf aa3b
00000220: 2574 903b 6edc cc3b 9771 a5bc b9a3 48bc
00000230: 1144 1bbb ca8e 7d3c dda5 f03b da26 c4bb
00000240: 66a2 673c 4669 a93a b7fe 47bb d19d 37bc
00000250: c41a 613c 535c e1bc 3fe1 73bc 249c 5f3d
00000260: bb30 a83c 56ae 033c b60a 773c 2ab9 013c
00000270: d46b 7abc d532 293b b7f5 6f3c 4cf3 513c
00000280: 0725 613d 8fea cfbb ce58 ffbb 3358 6f3c
00000290: 3b2f 773d 107f 14bd 4e4a d9bb 8479 69bc
000002a0: ffc4 64bc 6667 90bb 9ec5 b8bc de6c bdbc
000002b0: d6c5 9dbc 7c35 503c adac 2f3d 360d 6c3c
000002c0: d81e 9c39 e7b4 123b bc62 28bc 6a97 a6bb
000002d0: a687 8bbc 488f 303c 1bbb 4cbb b46e 0b3c
000002e0: ee87 393b a932 94bc 28df 94bc 4271 e23a
000002f0: 72c4 00bb 18d8 b3b9 b612 ae3c bc23 34bc
00000300: c689 9dbc 03d3 d8bc 3169 573d 7c4a cf3c
00000310: 42dc 2bbd 3020 753d 8b2d 9dbc dead 353c
00000320: 6753 9e3d 6521 0b3d 5e04 cf3c 79fe 2ebd
00000330: 59fc aabc e642 8e3d c5f8 82bc 6140 81bc
00000340: 44a7 d0b7 08e6 bebc d20c 9abb 4731 b2bc
00000350: 8285 d4bc 2d5a 86bc 3d55 a93c a9d8 bd3d
00000360: f1c1 1abb 1cb5 233c 869b 95bc 27ae 9fbc
00000370: e9a7 84bb a16b b5bb fb8f 9d3c 87ba 4abc
00000380: 3ff1 3f3b 8db7 dc3c 7754 6b3b a8d7 073d
00000390: 36fe 85bd 6594 95bd 5621 3f3d ab66 8ebd
000003a0: a5b7 16bd 5b92 ebbc 1153 0dbd 2daa fa3c
000003b0: 6e1e 883c b573 fe3c a35e 603d e90c bcbb
000003c0: 7226 56bd bb29 0cbd 6fe2 0db9 5183 083d
000003d0: 948a 85bd 3de0 aabd eabe e03c 060a e0bc
000003e0: 4257 9abb 38b4 5137 4a74 383c 3016 683d
000003f0: 769c 013d 3db3 0d3d 2ac8 cd3c 409c 61bd

lstm.weight_hh_l1 f4 [256, 64]
-0.034103602 -0.051296607 0.0709011 0.07850199 0.07445033 0.05005865 0.060412902 0.010409927
0.018629584 0.0070903334 -0.005176321 -0.049509462 -0.045768388 0.108715154 -0.0027704234 0.076592565
-0.018223632 0.11723606 -0.020091375 0.024539387 0.017502217 0.032490578 -0.051240835 -0.094085164
-0.005964487 0.05660246 0.0039704633 0.03474766 -0.034632694 -0.050407715 0.095342286 0.018202929
0.052667886 0.02956528 0.011065081 0.045170207 0.029921437 0.007688473 -0.074333236 0.050917834
-0.06996155 -0.036575504 -4.782426e-05 -0.06600433 0.012442924 -0.086744 0.012139552 -0.04770171
0.1161468 -0.038602028 0.017764842 0.084921494 0.014651639 0.007938891 0.01869235 -0.01831401
-0.004171059 0.003910881 0.03483301 0.093480036 -0.019685488 0.07446029 0.07232312 -0.013996201
-0.03531204 -0.028016908 -0.016880656 0.104812026 0.014655155 0.024625655 0.0042513213 0.05727536
-0.043585196 -0.052235384 -0.019925378 0.027256817 -0.07616623 0.0105047515 0.018616412 0.02449704
0.035843637 0.08614876 0.027061729 -0.038351517 0.07911953 -0.012876925 0.0069925124 0.042465087
0.023803558 -0.059365842 0.008966578 0.03435974 -0.08573422 -0.0535922 2.288814e-05 0.057825264
0.073477484 0.00049917 -0.036270194 0.017067892 0.010942569 -0.0025328186 0.1086869 0.042601623
-0.067122295 0.044494793 -0.04964025 0.0048986427 -0.0004468736 0.02098337 -0.02461059 0.006677631
0.011260081 -0.018865023 0.029879166 0.004157434 -0.043088622 -0.055472 0.017224025 -0.007679875
0.0447025 0.011873645 0.0062910435 -0.02458308 -0.006795187 0.043261126 0.0031756952 -0.016697675
-0.03488677 -0.055725474 0.019093003 -0.057535417 0.00673472 0.01036695 0.0051986226 -0.005823998
-0.001907231 0.026876241 -0.00056318654 -0.0056943134 -0.01919568 0.004560591 0.0067144353 0.016403677
-0.013096096 -0.044160437 0.0013279361 -0.011143134 -0.03903734 0.034884874 -0.0044256393 0.033609148
0.0041941437 -0.022511294 0.0011956164 -0.03506472 -0.02442512 0.010315254 0.006085246 0.033801034
-0.023686916 0.0133584505 -0.0018908881 -0.020993197 -0.040366475 0.007837243 0.009304698 -0.013362282
0.012176382 -0.011113109 -0.03381655 0.02158909 -0.0020803926 -0.048658065 -0.004901915 0.002053518
-0.0051125153 0.0055806353 0.025007466 -0.0018375019 0.0008163028 -0.015137647 0.009412257 -0.051813032
0.026907949 0.006758304 0.0006785319 -0.014108239 -0.014306312 0.04116628 0.014289222 -0.00918096
0.0068627526 -0.013878246 0.04201037 0.054582175 -0.0044344026 0.010130075 0.041861765 -0.08012215
-0.04809365 0.0693736 -0.02089643 -0.03969855 0.067346305 0.05976648 -0.024083732 0.044207394
0.033899784 -0.030635275 0.029523063 0.075344145 -0.035495974 -0.008211363 -0.03631174 0.04710643
0.022162424 -0.037353303 0.012789978 0.0063289115 -0.05481788 -0.028648455 0.026831703 -0.056283925
0.06690283 0.03716072 0.027800186 -0.037153263 -0.0685576 -0.0058806143 -0.02016321 -0.06595132
0.006260929 0.03253159 0.00015749219 0.0042538913 0.0034048553 0.020837078 -0.012581598 -0.038114406
-0.0023174183 0.026570387 -0.007903746 0.0322451 0.03677037 -0.020437267 -0.018458845 -0.011420522
-0.0036904134 -0.009361121 0.0060166866 -0.022766173 -0.019620387 0.012224165 0.02425672 -0.0018218524
00000000: 38b0 0bbd 641c 52bd 9934 913d a7c5 a03d
00000010: 6a79 983d 4d0a 4d3d 8573 773d 668e 2a3c
00000020: 129d 983c 0756 e83b 219e a9bb 6fca 4abd
00000030: a277 3bbd 0da6 de3d fe8f 35bb 90dc 9c3d
00000040: ba49 95bc 7619 f03d ab96 a4bc d306 c93c
00000050: cf60 8f3c d714 053d e9e1 51bd b9af c0bd
00000060: be71 c3bb fbd7 673d a91a 823b 9053 0e3d
00000070: 03db 0dbd 5278 4ebd d142 c33d 4f1e 953c
00000080: 48ba 573d e332 f23c 504a 353c 6504 393d
00000090: cd1d f53c 96ef fb3b 063c 98bd 388f 503d
000000a0: 0048 8fbd 32d0 15bd e896 48b8 472d 87bd
000000b0: 68dd 4b3c d7a6 b1bd f9e4 463c de62 43bd
000000c0: 60de ed3d 291d 1ebd 9387 913c 52eb ad3d
000000d0: 6e0d 703c 1f12 023c b320 993c 4307 96bc
000000e0: 61ad 88bb d926 803b 0fad 0e3d 7672 bf3d
000000f0: 7643 a1bc a37e 983d 251e 943d 5250 65bc
00000100: 5ca3 10bd b783 e5bc 4d49 8abc b0a7 d63d
00000110: 2d1c 703c bebb c93c ab4e 8b3b 9199 6a3d
00000120: 6486 32bd c5f4 55bd 8c3a a3bc b049 df3c
00000130: 0afd 9bbd 1f1c 2c3c 7281 983c 04ae c83c
00000140: c7d0 123d c36e b03d 8fb0 dd3c 7b16 1dbd
00000150: 6c09 a23d bdf9 52bc 7221 e53b dfef 2d3d
00000160: aeff c23c 9929 73bd 8ee8 123c ccbc 0c3d
00000170: 6c95 afbd 7f83 5bbd e8ff bf37 2fda 6c3d
00000180: 5d7b 963d bbda 023a 0e90 14bd f7d1 8b3c
00000190: 7648 333c a5fd 25bb 3d97 de3d 0a7f 2e3d
000001a0: 6a77 89bd 2c40 363d 9353 4bbd cb84 a03b
000001b0: 5c4a eab9 51e5 ab3c 269c c9bc 07d0 da3b
000001c0: 347c 383c d28a 9abc 27c5 f43c 163b 883b
000001d0: b27d 30bd 9c36 63bd 6619 8d3c 76a7 fbbb
000001e0: f819 373d ad89 423c 1925 ce3b 7562 c9bc
000001f0: 29aa debb 9432 313d 531f 503b 90c9 88bc
00000200: 6ee5 0ebd 6540 64bd ee68 9c3c 42aa 6bbd
00000210: edae dc3b 24da 293c 3559 aa3b 3cd7 bebb
00000220: 0efc f9ba 902b dc3c cfa2 13ba 5d97 babb
00000230: 4240 9dbc 0371 953b c404 dc3b 0161 863c
00000240: 0291 56bc 93e1 34bd 240e ae3a b191 36bc
00000250: 9ee5 1fbd 71e3 0e3d f404 91bb bfa9 093d
00000260: 076f 893b 9b69 b8bc 3bb6 9c3a 06a0 0fbd
00000270: 3017 c8bc 5001 293c be66 c73b f472 0a3d
00000280: 100b c2bc 67dd 5a3c add7 f7ba edf9 abbc
00000290: 5157 25bd c867 003c bb72 183c 79ed 5abc
000002a0: 737f 473c c213 36bc 3983 0abd 9adb b03c
000002b0: 3257 08bb ae4d 47bd 3ea0 a0bb 5194 063b
000002c0: e386 a7bb c3dd b63b 75dc cc3c 55d8 f0ba
000002d0: 27fd 553a e503 78bc de35 1a3c e739 54bd
000002e0: 0f6e dc3c c374 dd3b 81df 313a 3e26 67bc
000002f0: 0665 6abc f99d 283d 571d 6a3c bd6b 16bc
00000300: f1e0 e03b 9561 63bc 1113 2c3d 8f91 5f3d
00000310: 774e 91bb 9df8 253c 3e77 2b3d 1517 a4bd
00000320: d9fd 44bd bf13 8e3d fd2e abbc f29a 22bd
00000330: dcec 893d b2cd 743d 3f4b c5bc d012 353d
00000340: 80da 0a3d d4f6 fabc 5ada f13c 084e 9a3d
00000350: 3a64 11bd f488 06bc 9ebb 14bd acf2 403d
00000360: f98d b53c c7ff 18bd 0e8d 513c c262 cf3b
00000370: b788 60bd 2ab0 eabc 29ce db3c f989 66bd
00000380: 5a04 893d d735 183d 37bd e33c 052e 18bd
00000390: ed67 8cbd 2bb2 c0bb 512d a5bc 7c11 87bd
000003a0: 7b28 cd3b d83f 053d 7d24 2539 3a64 8b3b
000003b0: fe23 5f3b 85b2 aa3c 0c23 4ebc da1d 1cbd
000003c0: d4df 17bb 24aa d93c b77e 01bc 7013 043d
000003d0: 879c 163d 0e6c a7bc 0137 97bc 241d 3bbc
000003e0: ddda 71bb 635f 19bc a027 c53b 2080 babc
000003f0: efba a0bc dd47 483c 07b6 c63c 39cb eeba

lstm.bias_ih_l1 f4 [256]
-0.044905826 -0.022661958 0.10039755 0.1401282 0.012742579 0.026340287 -0.017181939 0.09865705
0.099985 -0.018774254 0.045350425 -0.023221388 0.09609208 0.024109783 0.024881443 -0.075470544
0.015632225 -0.033099443 0.030086976 0.19191495 0.12061314 -0.08384352 0.08662078 -0.03457863
0.022900976 0.03005111 0.0102675585 0.13628188 0.5185112 0.08949261 0.06253451 -0.013087208
-0.08173177 0.025740016 0.121539325 0.1203724 0.107280135 0.02964178 0.09899444 -0.06673242
0.11071093 -0.0491365 -0.02502904 -0.055733025 -0.07984826 0.07536533 0.002819711 0.09711012
0.16230004 -0.02547722 0.0808911 -0.019551912 -0.065181814 -0.053074997 -0.057145048 -0.014863033
-0.078996144 0.025637597 -0.04602462 -0.018025918 -0.053844757 0.12657067 0.12663387 0.06125187
0.015478951 -0.010143096 0.10439566 0.111177534 -0.07022066 0.14516619 -0.0056141955 -0.03021893
-0.051040433 -0.084463395 0.042798683 -0.01842431 -0.006888553 -0.058411043 0.06752803 0.087302566
-0.0735348 0.0048383977 0.027276395 -0.07538666 -0.0015831387 0.052993417 -0.06613962 0.078866385
-0.006250947 0.13003014 -0.02057326 0.018081885 -0.23795737 0.055900384 -0.042363323 -0.101400964
-0.07229073 0.0041297856 0.06509549 0.086591706 0.034631 -0.018303066 0.068903886 0.10247673
0.046211015 0.107409544 -0.03796075 -0.009138445 0.03903948 0.17195894 0.038694393 -0.019874973
0.07744656 0.026508091 0.11047816 0.05309734 0.10627453 -0.017056739 -0.015746469 0.08598231
-0.09478946 0.007040466 -0.02975521 0.07953448 -0.037848312 -0.047522895 0.0043847174 0.016417202
0.088776015 -0.11571833 -0.029526532 0.09812698 0.0665875 0.06543605 0.076982014 0.009557058
-0.007418613 -0.10157688 0.031672873 0.1082581 -0.102141686 0.020910377 0.032171484 0.10696429
0.060639363 0.117057376 -0.024108779 0.037119094 -0.01892261 0.006346576 0.074768074 -0.020601988
-0.035733525 0.0833728 -0.025740642 0.051818933 -0.007136299 0.10822266 0.082191795 -0.07668598
-0.028013583 0.023924094 -0.03422892 -0.07124075 0.0150166545 -0.097844124 0.064101346 -0.05282781
-0.009401337 0.1123124 -0.061135206 0.060433704 -0.07479813 -0.13973124 0.009494991 -0.075728975
0.1072153 0.010193395 0.025153873 0.084914014 -0.063035935 0.027570343 0.09385853 0.018696278
0.03234231 -0.060256936 0.041621216 0.047422037 -0.054482814 -0.07785747 0.05068116 -0.0833934
-0.077358365 -0.069079064 0.03438643 0.025785798 -0.0035040476 0.018866451 0.05104183 -0.018775536
-0.026943548 -0.05012029 0.024407437 -0.055019215 -0.06929443 0.12379658 0.108243875 -0.083488196
0.08421656 0.06504363 -0.058202237 0.18020132 0.11973661 -0.022660496 0.017712656 -0.019250136
-0.047218062 0.010283624 0.012266085 0.031166425 0.49672654 0.108333245 -0.020769311 -0.04166155
-0.070564 0.07288959 0.11477083 0.037662078 0.05666103 0.08618619 0.077641055 0.11084908
-0.047626447 -0.026981696 -0.026346236 0.100565486 -0.015807606 0.13826102 -0.06580978 0.086103074
0.0037346038 0.08863226 0.08718898 0.09955894 0.065539844 0.014343966 0.0010813277 0.0871536
-0.035148874 0.023764126 -0.013538377 0.002264834 0.0768889 0.017541235 -0.08089741 -0.061345752
00000000: 2cef 37bd 92a5 b9bc 3b9d cd3d c47d 0f3e
00000010: 40c6 503c 96c7 d73c 23c1 8cbc b50c ca3d
00000020: f0c4 cc3d 77cc 99bc 5ec1 393d c83a bebc
00000030: edcb c43d e181 c53c 2bd4 cb3c 4d90 9abd
00000040: 270f 803c 4893 07bd f678 f63c 5a85 443e
00000050: 0604 f73d 27b6 abbd 3c66 b13d 52a2 0dbd
00000060: d49a bb3c bf2d f63c 4339 283c 7a8d 0b3e
00000070: 26bd 043f e747 b73d 1812 803d bb6b 56bc
00000080: fc62 a7bd badc d23c 9ce9 f83d ce85 f63d
00000090: b0b5 db3d 51d3 f23c 99bd ca3d 02ab 88bd
000000a0: 69bc e23d 5b43 49bd b409 cdbc 5048 64bd
000000b0: 7c87 a3bd 2359 9a3d e7ca 383b ace1 c63d
000000c0: fb31 263e 9ab5 d0bc 3caa a53d 552b a0bc
000000d0: 0b7e 85bd 2b65 59bd ed10 6abd 1484 73bc
000000e0: bbc8 a1bd f005 d23c 5084 3cbd 17ab 93bc
000000f0: 528c 5cbd be9b 013e 4fac 013e 3ee3 7a3d
00000100: 6d9b 7d3c 3a2f 26bc 64cd d53d 0cb1 e33d
00000110: d9cf 8fbd 72a6 143e 49f7 b7bb b18d f7bc
00000120: c60f 51bd 25fb acbd ac4d 2f3d 94ee 96bc
00000130: 5fb9 e1bb 6b40 6fbd 234c 8a3d b0cb b23d
00000140: 6a99 96bd 6c8b 9e3b bf72 df3c 5264 9abd
00000150: 5281 cfba a00f 593d 3674 87bd b384 a13d
00000160: bed4 ccbb 9f26 053e 4189 a8bc 7620 943c
00000170: 19ab 73be cdf7 643d 2a85 2dbd 4fab cfbd
00000180: 2a0d 94bd 2753 873b c950 853d fe56 b13d
00000190: 3cd9 0d3d 50f0 95bc 7b1d 8d3d 52df d13d
000001a0: c347 3d3d 89f9 db3d bb7c 1bbd 6bb9 15bc
000001b0: dde7 1f3d 0116 303e 037e 1e3d d7d0 a2bc
000001c0: 4d9c 9e3d 7f27 d93c 6042 e23d 997c 593d
000001d0: 76a6 d93d 93ba 8bbc bdfe 80bc 7e17 b03d
000001e0: fa20 c2bd b6b3 e63b 33c1 f3bc f9e2 a23d
000001f0: d506 1bbd 5ea7 42bd adad 8f3b 5e7d 863c
00000200: 33d0 b53d bbfd ecbd a0e1 f1bc ccf6 c83d
00000210: 075f 883d 5603 863d bfa8 9d3d 3595 1c3c
00000220: d617 f3bb 8a07 d0bd 6abb 013d 6cb6 dd3d
00000230: a92f d1bd 3d4c ab3c 3fc6 033d 1810 db3d
00000240: fb60 783d c7bb ef3d c67f c5bc 310a 183d
00000250: 9703 9bbc f0f6 cf3b 0120 993d 80c5 a8bc
00000260: 515d 12bd 5cbf aa3d 0ade d2bc 1740 543d
00000270: 9dd7 e9bb d8a3 dd3d 2c54 a83d 8a0d 9dbd
00000280: be7c e5bc 76fc c33c a033 0cbd ace6 91bd
00000290: 6a08 763c 8062 c8bd 9147 833d f961 58bd
000002a0: 1108 1abc 0b04 e63d e968 7abd 5589 773d
000002b0: c32f 99bd b515 0fbe e190 1b3c cb17 9bbd
000002c0: b293 db3d 3302 273c 7f0f ce3c 66e7 ad3d
000002d0: fc18 81bd 33db e13c e738 c03d f028 993c
000002e0: 5f79 043d facf 76bd 027b 2a3d 9c3d 423d
000002f0: 5f29 5fbd bd73 9fbd 0c97 4f3d 29ca aabd
00000300: 106e 9ebd 5379 8dbd c9d8 0c3d bd3c d33c
00000310: 2aa4 65bb d18d 9a3c 3d11 513d 27cf 99bc
00000320: b7b8 dcbc ef4a 4dbd 1bf2 c73c d45b 61bd
00000330: 3dea 8dbd 1089 fd3d f7ae dd3d dcfb aabd
00000340: bb79 ac3d 9835 853d 7865 6ebd b286 383e
00000350: 7838 f53d 81a2 b9bc 221a 913c 76b2 9dbc
00000360: ba67 41bd a57c 283c b0f7 483c bb50 ff3c
00000370: f152 fe3e d2dd dd3d 6724 aabc 4da5 2abd
00000380: dc83 90bd 2347 953d f80c eb3d 8d43 1a3d
00000390: 6515 683d 6382 b03d 4602 9f3d d804 e33d
000003a0: f313 43bd b808 ddbc 10d4 d7bc 47f5 cd3d
000003b0: f47e 81bc 4c94 0d3e 47c7 86bd cf56 b03d
000003c0: 41c0 743b d584 b53d 2390 b23d 8fe5 cb3d
000003d0: c139 863d f402 6b3c 56bb 8d3a 967d b23d
000003e0: 44f8 0fbd fcac c23c 12d0 5dbc 9c6d 143b
000003f0: ed77 9d3d a3b2 8f3c 8bad a5bd af45 7bbd
