best_ltc_model.pth (torch, 8876 bytes, 6 tensors)

time_constant f4 [32]
0	0x3ebedb43	0.37276658
1	0x3ec6bee8	0.38817525
2	0x3ec1574d	0.37761918
3	0x3ec87a38	0.39155746
4	0x3ecf8952	0.40534455
5	0x3eadc013	0.33935603
6	0x3ecbd4f1	0.398109
7	0x3ec9fa74	0.39448893
8	0x3eda83d5	0.42678705
9	0x3ed544a0	0.4165392
10	0x3eceaadd	0.40364733
11	0x3ec7b58a	0.3900569
12	0x3ed159a7	0.40888712
13	0x3ee48dae	0.44639343
14	0x3eb9e74f	0.36309287
15	0x3ec40d92	0.38291603
16	0x3ec1e3e2	0.37869173
17	0x3ed07a84	0.40718472
18	0x3ec075c2	0.37589842
19	0x3ec0bcc2	0.3764401
20	0x3ecc5c36	0.399141
21	0x3ec0dcf5	0.37668577
22	0x3ec68ae4	0.3877784
23	0x3edab77d	0.42718115
24	0x3eb7ede1	0.35923675
25	0x3ebd4df0	0.36973524
26	0x3ecaaeb2	0.39586407
27	0x3ecc0c69	0.39853218
28	0x3ec05b47	0.3756964
29	0x3edbcdef	0.42930552
30	0x3ed599a3	0.41718778
31	0x3eca0c47	0.39462492

input_to_hidden.weight f4 [32, 6]
0	0xbe2dfdd2	-0.16991356
1	0xbea2f36e	-0.31826347
2	0xbe36a158	-0.17834985
3	0xbe05afcb	-0.13055341
4	0x3db33f60	0.08752322
5	0x3eda0620	0.42582798
6	0x3e583e61	0.21117546
7	0xbef56d1d	-0.4793481
8	0xbe556c6e	-0.20842144
9	0xbdea052b	-0.11426767
10	0x3e673a7c	0.22580904
11	0xbd136a1a	-0.03598986
12	0x3dc62d5c	0.0967662
13	0x3ea00016	0.31250066
14	0x3cd29dc1	0.025709989
15	0x3e51fb99	0.20506133
16	0xbe999536	-0.2999665
17	0x3e70211b	0.23450129
18	0x3e928a71	0.28621247
19	0x3d7490ee	0.05970853
20	0xbdff98c7	-0.12480312
21	0x3d9e2917	0.07722681
22	0xbda8508a	-0.082184866
23	0x3edc6480	0.43045425
24	0xbd67ea7d	-0.05662011
25	0xbddf185d	-0.10893319
26	0x3d943c48	0.0723806
27	0xbe6e3810	-0.23263574
28	0x3e7ea403	0.24867253
29	0x3e3b056c	0.18263787
30	0xbce3b339	-0.027795421
31	0xbee3e39c	-0.4450959
32	0xbda5c960	-0.0809505
33	0xbd963ae2	-0.0733545
34	0x3d9f2889	0.07771403
35	0x3e1adf70	0.15124297
36	0x3ea04a1e	0.31306547
37	0x3e910e2d	0.28331128
38	0xbe97f9c4	-0.29682744
39	0x3e85eccf	0.26157233
40	0x3ed13561	0.40861037
41	0xbdf4faea	-0.119619206
42	0xbedd5fa5	-0.43237033
43	0x3e77b16e	0.24188778
44	0xbef76afa	-0.48323804
45	0xbd513af9	-0.05108163
46	0xbe9afffa	-0.3027342
47	0x3e1989c9	0.14993967
48	0x3e02f098	0.12787092
49	0xbe7a4b24	-0.24442726
50	0xbed19793	-0.40935954
51	0xbe0ce1bc	-0.13757986
52	0xbea18d95	-0.3155333
53	0xbebf9373	-0.37417182
54	0xbea2e428	-0.31814694
55	0xbdd13f9c	-0.10217211
56	0xbe3f5d36	-0.18687901
57	0xbdc3ea4e	-0.095661744
58	0xbe14e76a	-0.14541402
59	0xbe3b1943	-0.18271355
60	0x3d92e3d0	0.07172358
61	0x3d82d682	0.0638857
62	0x3e35bc12	0.17747524
63	0x3e4db1ad	0.20087309
64	0xbeab02f5	-0.33400694
65	0x3e907cb8	0.28220153
66	0x3e5b3f08	0.21410763
67	0x3cafafcd	0.021446133
68	0xbe108721	-0.14114048
69	0x3eddea78	0.43342948
70	0x3df1d68e	0.11808501
71	0x3e4fae0f	0.20281242
72	0xbdb1d40e	-0.08683024
73	0x3eeb2558	0.4592693
74	0xbe0d0138	-0.13769996
75	0x3ed3cee6	0.41368788
76	0xbe8a9324	-0.27065384
77	0x3e81d4e5	0.25357738
78	0x3e187e34	0.14891893
79	0xbdd20938	-0.102556646
80	0xbeb16394	-0.34646285
81	0xbed8fdb0	-0.42381048
82	0xbd1a4d8d	-0.037671614
83	0x3ddb3de9	0.10705168
84	0xbd7ffd2d	-0.062497307
85	0xbe2f9bbe	-0.17149255
86	0xbe450a64	-0.19242245
87	0xbe88a589	-0.26688793
88	0x3e9dcc0b	0.30819735
89	0xbecfd198	-0.40589595
90	0xbecae775	-0.39629713
91	0xbeeae369	-0.45876625
92	0x3e56e2db	0.20984976
93	0xbea98186	-0.3310663
94	0x3e8b0722	0.2715388
95	0x3e91ed06	0.28501147
96	0xbea5a550	-0.32352686
97	0xbc93070a	-0.017947692
98	0xbef18a8a	-0.4717601
99	0x3e916d32	0.28403622
100	0x3e88dad4	0.26729453
101	0xbe5ad562	-0.21370462
102	0xbe6d9dda	-0.23204747
103	0xbe31efdf	-0.1737666
104	0xbee9139d	-0.45522776
105	0x3e6d5b38	0.23179328
106	0x3e02f2ec	0.1278798
107	0xbddbccd2	-0.10732426
108	0x3dc17f61	0.09448124
109	0xbebe1d8b	-0.37131914
110	0xbe296cf0	-0.16545463
111	0x3d232232	0.039827533
112	0xbeb27a7b	-0.3485907
113	0xbeb10d27	-0.34580347
114	0x3e9b60c5	0.30347267
115	0x3db09978	0.08623022
116	0xbe51e599	-0.20497741
117	0x3ec64ced	0.38730565
118	0xbdc88d7d	-0.09792612
119	0xbe4c7b17	-0.1996883
120	0x3f12ae25	0.57296973
121	0xbe0894d4	-0.13338023
122	0x3da4f9f6	0.08055489
123	0xbca9db6e	-0.020734515
124	0x3e90ecad	0.2830557
125	0xbe1076db	-0.1410784
126	0x3da1cf35	0.0790085
127	0x3df992e8	0.12186223
128	0xbed1c18f	-0.40967986
129	0x3de250ac	0.11050543
130	0xbe3fbbba	-0.18723956
131	0xbe8ecd76	-0.2789113
132	0xbecc1927	-0.3986294
133	0xbe72c075	-0.23706229
134	0xbed7101c	-0.42004478
135	0x3db93dd9	0.09045
136	0xbda1ff59	-0.07910032
137	0x3e81faa4	0.25386536
138	0x3d086919	0.033303354
139	0xbe027de0	-0.1274333
140	0xbe8a3002	-0.26989752
141	0xbcc43576	-0.023951273
142	0x3dc6cd1f	0.097070925
143	0x3cbf13b2	0.023324821
144	0x3e3265a8	0.17421591
145	0xbde176f4	-0.11009017
146	0xbed4fe20	-0.41600132
147	0xbe439d6f	-0.19103025
148	0xbe21263c	-0.15737242
149	0x3dfa4efe	0.12222098
150	0xbdc34004	-0.095336944
151	0xbea8a440	-0.32937813
152	0xbead0cf0	-0.33798933
153	0xbed7a070	-0.42114592
154	0x3d1d37c0	0.038383245
155	0x3e8f9ab2	0.2804771
156	0x3e4faac2	0.20279983
157	0x3e6ad599	0.22933044
158	0x3dc507df	0.09620642
159	0x3eccf533	0.40030822
160	0xbd8f23d5	-0.06989256
161	0xbe6d0773	-0.23147373
162	0x3eea99e4	0.45820534
163	0xbe5dc5c1	-0.21657468
164	0xbbdc0637	-0.006714608
165	0x3e086be8	0.13322413
166	0x3ab9a00e	0.001416208
167	0x3eb63a42	0.35591322
168	0x3effb316	0.4994132
169	0xbdb93420	-0.09043145
170	0x3e95800d	0.29199257
171	0xbd7efa8f	-0.06225067
172	0x3e328d83	0.17436795
173	0x3cbdf789	0.023189323
174	0xbdf5be62	-0.11999203
175	0x3ec0f15e	0.3768415
176	0x3e7d2c51	0.24723937
177	0x3e914dff	0.2837982
178	0xbea07976	-0.31342667
179	0x3d6e4f0e	0.05818086
180	0x3ec665a4	0.3874942
181	0x3e824d1f	0.25449464
182	0x3e86d953	0.2633768
183	0xbe48391e	-0.19553038
184	0xbda1fb26	-0.07909231
185	0x3ea03f7f	0.31298444
186	0xbe1031fb	-0.14081566
187	0xbe027017	-0.12738071
188	0xbdad8262	-0.08472134
189	0x3ee9ba31	0.45649865
190	0xbe795d35	-0.24351962
191	0xbca5c273	-0.020234322

input_to_hidden.bias f4 [32]
0	0xbe3db1ce	-0.18524858
1	0xbe653a65	-0.22385557
2	0x3e3d47b2	0.18484381
3	0x3ebf5492	0.3736921
4	0x3e5ebd91	0.21752001
5	0x3e7153fa	0.23567191
6	0x3ddfc7de	0.109267935
7	0x3dedcfd3	0.11611905
8	0xbe46b300	-0.1940422
9	0x3cfaa6aa	0.03059705
10	0x3e906268	0.28200078
11	0xbe1c2328	-0.15247786
12	0xbe5c9819	-0.21542396
13	0x3d7488a3	0.05970062
14	0xbe1bbb3b	-0.15208142
15	0x3e6ebe55	0.23314793
16	0x3e39176e	0.18075344
17	0xbe5b0682	-0.21389201
18	0xbe4e8d16	-0.20171008
19	0x3e7630ee	0.24042103
20	0x3e8f50b9	0.27991274
21	0xbe3d9c25	-0.18516596
22	0xbccbe3e6	-0.024888944
23	0xbe95a9a3	-0.29230985
24	0xbea1afb2	-0.31579357
25	0x3ebb5d57	0.3659465
26	0x3d850ed3	0.06496968
27	0xbcf8e9d5	-0.030384937
28	0x3b5164d5	0.003195097
29	0x3d46207e	0.04837083
30	0xbeabe506	-0.3357317
31	0x3e69240e	0.2276766

hidden_to_hidden.weight f4 [32, 32]
0	0xbe28b9ad	-0.1647708
1	0xbe59f67e	-0.21285436
2	0xbd3c2e1a	-0.045942403
3	0x3cb8da0a	0.022564907
4	0x3cef0c3d	0.02918064
5	0x3e2731d1	0.16327597
6	0xbd1da01e	-0.038482778
7	0xbe1aca95	-0.15116341
8	0x3b7547db	0.0037426862
9	0xbe515edf	-0.20446347
10	0x3e1dfdb4	0.15428811
11	0x3de4a427	0.11164122
12	0x3d8f88af	0.07008492
13	0x3d646f85	0.055770416
14	0xbe391d5c	-0.18077606
15	0xbe156058	-0.14587533
16	0xbdf9c257	-0.121952705
17	0x3d45b340	0.04826665
18	0xbdd8934d	-0.105749704
19	0x3d7c3f31	0.0615837
20	0x3da42f64	0.080168515
21	0x3d922b02	0.07137109
22	0x3c361aa4	0.01111475
23	0xbe26ed61	-0.1630149
24	0xbd7f5e47	-0.06234577
25	0xbe36b30e	-0.17841741
26	0x3db62b6b	0.08895
27	0xbd4d5a61	-0.05013502
28	0xbde3daf9	-0.1112575
29	0x3d633d7d	0.05547856
30	0x3db9337d	0.09043024
31	0xbd09a2b3	-0.033602428
32	0x3e2ebfa7	0.17065297
33	0x3d262241	0.04056001
34	0x3db8f401	0.09030915
35	0xbc9c183e	-0.019054528
36	0xbd1bc3dd	-0.038028587
37	0xbe1a0762	-0.15041879
38	0xbd0dbd5b	-0.03460441
39	0xbe0b0b2c	-0.1357848
40	0x3d1be72b	0.038062256
41	0x3c13a7c2	0.009012165
42	0xbe0818e3	-0.13290744
43	0x3d764429	0.060123596
44	0x3dcd8485	0.10035042
45	0x3cdf39f5	0.027249316
46	0x3e29a452	0.1656659
47	0x3e199b1b	0.15000574
48	0x3d19ae5f	0.03751981
49	0x3d9a3cf4	0.07531157
50	0x3d778352	0.06042797
51	0x3e41aead	0.1891429
52	0x3d220072	0.039551206
53	0xbe2dc213	-0.16968565
54	0x3e0423c7	0.12904273
55	0x3dab374d	0.08360157
56	0xbe5a6619	-0.2132801
57	0xbc8bb410	-0.017053634
58	0xbddf4ad6	-0.10902946
59	0xbd4a21de	-0.049348705
60	0xbe28337b	-0.16425888
61	0x3e0ff45b	0.14058058
62	0x3dfe6bb5	0.12422887
63	0x3bc9e4eb	0.0061613224
64	0xbd89e405	-0.067329444
65	0x3dc733e4	0.09726694
66	0xbd64c000	-0.055847168
67	0xbdec352a	-0.11533578
68	0x3d1cb343	0.038256895
69	0xbe1d68c8	-0.15372002
70	0x3b12ff02	0.0022429829
71	0x3c30c55c	0.010789242
72	0x3db327d5	0.08747832
73	0xbcde92c5	-0.027169595
74	0xbe148a9e	-0.14506003
75	0xbd7e78d0	-0.062126935
76	0x3df5be52	0.11999191
77	0x3d85cc0d	0.0653306
78	0x3e18c8c6	0.14920339
79	0xbe2be7e4	-0.16787678
80	0x3df00259	0.11719198
81	0x3d82ae8b	0.06380948
82	0xbda12ff7	-0.07870477
83	0xbd511d83	-0.051053535
84	0x3dfc88bf	0.1233077
85	0x3da7e7a7	0.08198481
86	0xbdac97a8	-0.08427364
87	0x3dd7151e	0.10502075
88	0x3dfe817c	0.12427041
89	0x3d69cf86	0.057082675
90	0x3e0030ba	0.12518588
91	0xbdaa7b16	-0.08324258
92	0x3e184ec2	0.14873794
93	0xbc84ec8f	-0.016226081
94	0xbae9f1b2	-0.001784852
95	0xbdc5be72	-0.09655465
96	0x39fa802b	0.00047779208
97	0x3d113365	0.035449404
98	0xbc808518	-0.015688464
99	0xbe6a29e1	-0.22867538
100	0x3dab89e6	0.083759114
101	0x3d8c01ac	0.068362564
102	0x3e49f11d	0.19720884
103	0x3d4d4e66	0.050123595
104	0xbde4480f	-0.111465566
105	0xbe47b72f	-0.19503473
106	0x3d489047	0.04896572
107	0x3d449ccc	0.048001096
108	0x3d6ec77a	0.058295704
109	0xbc80d5c4	-0.015726931
110	0x3da7e65e	0.08198236
111	0x3d29dc2a	0.04146973
112	0xbe61fa5c	-0.22068161
113	0x3bf008fe	0.0073252907
114	0xbe55f027	-0.20892392
115	0x3cfa9c23	0.03059203
116	0xbdd2ce9b	-0.10293313
117	0x3d6708ad	0.05640476
118	0xbdb72b39	-0.08943791
119	0x3dde5820	0.10856652
120	0xbd3633c4	-0.04448296
121	0xbe6907c3	-0.22756867
122	0x3cf44f7a	0.029823054
123	0x3e1792bc	0.14802068
124	0x3e4fd058	0.2029432
125	0x3d9028ae	0.07039009
126	0xbda8995d	-0.08232377
127	0xbdfbb0be	-0.1228957
128	0xbd88baf8	-0.066762865
129	0x3e4b90e4	0.1987949
130	0x3cafd343	0.021463042
131	0x3dbf6992	0.09346308
132	0x399eea85	0.0003031084
133	0x3ce4b509	0.027918356
134	0x3da2f61e	0.079570994
135	0xbda32dd5	-0.07967726
136	0x3d355283	0.044268142
137	0x3d893974	0.067004114
138	0xbdb6e488	-0.089303076
139	0xbcd2f907	-0.025753511
140	0xbe09ca84	-0.1345616
141	0x3e5c6542	0.21523002
142	0xbd373c3a	-0.04473517
143	0x3e295aed	0.16538592
144	0x3da639f9	0.08116526
145	0x3c93b25b	0.018029382
146	0x3dd8c56b	0.105845295
147	0xbd508b17	-0.050913896
148	0x3e0aa7bc	0.13540548
149	0xbc899442	-0.016794328
150	0x3cdb9d84	0.026808508
151	0x3de88310	0.11353123
152	0xbd27c8db	-0.040963035
153	0x3d293ee3	0.04131974
154	0xbe334c4e	-0.17509577
155	0x3da12bc5	0.078696765
156	0xbd430b86	-0.04761841
157	0xbe749e38	-0.2388848
158	0xbe15e747	-0.14639007
159	0x3e3aaf99	0.18231048
160	0x3d2450c7	0.040116098
161	0xbd1f80c4	-0.03894116
162	0x3c90c354	0.017671265
163	0xbcf086f2	-0.029361222
164	0xbd457523	-0.048207413
165	0xbe9764df	-0.29569146
166	0x3d0a72e7	0.033800986
167	0xbe0a152e	-0.13484642
168	0x3d9e9151	0.07742561
169	0xbcaf0450	-0.021364361
170	0x3caae33d	0.020860309
171	0x3df10c53	0.11769929
172	0x3e07013a	0.13184062
173	0xbc80a0bc	-0.015701644
174	0x3e4decc9	0.20109858
175	0xbcb0b677	-0.021571381
176	0x3cfe4991	0.031040939
177	0xbd961fb7	-0.07330268
178	0x3e136b27	0.14396344
179	0xbd81b09f	-0.06332516
180	0xbd6b020b	-0.057374995
181	0xbdc29519	-0.09501094
182	0x3e189a86	0.14902696
183	0x3d2c492f	0.04206198
184	0x3e191b78	0.14951885
185	0x3c12ace3	0.008952352
186	0x3dadab1a	0.08479901
187	0xbddeae3e	-0.10873078
188	0x3dcff81b	0.10154744
189	0xbdcf0ed3	-0.10110249
190	0xbda2343d	-0.0792012
191	0x3dd8a49a	0.1057827
192	0x3e45b83e	0.19308564
193	0xbd882cbb	-0.06649157
194	0xbe0ddb15	-0.13853104
195	0x3d5f01dc	0.054445133
196	0xbc3d75e7	-0.011563755
197	0xbd00a4f7	-0.031407323
198	0x3c32592a	0.010885516
199	0x3e16bea1	0.14721157
200	0x3e2314dd	0.15925927
201	0x3dc76abb	0.09737154
202	0xbd8fba1b	-0.07017919
203	0xbdfae8e3	-0.12251451
204	0xbe1e19c7	-0.15439521
205	0x3e28d073	0.16485767
206	0x3e29b14a	0.16571537
207	0xbd7ba97d	-0.061440933
208	0x3de3233a	0.11090703
209	0x3d603a8f	0.054743346
210	0x3de925fe	0.113841996
211	0xbb22aabb	-0.0024821002
212	0x3b7bf010	0.003844265
213	0xbce12f18	-0.027488276
214	0xbd261e14	-0.04055603
215	0xbe04610a	-0.12927642
216	0xbd023b23	-0.03179468
217	0x3d3e47c3	0.046455156
218	0xbc9dceca	-0.019263644
219	0xbe29d70b	-0.16585939
220	0xbd45a611	-0.048254076
221	0xbe14d739	-0.14535226
222	0xbe357739	-0.17721261
223	0x3e48293e	0.19546983
224	0x3d2b6e93	0.0418535
225	0x3dc2c5d5	0.0951039
226	0xbd3bf5b3	-0.045888614
227	0x3db7edda	0.089809135
228	0xbdfd816f	-0.12378203
229	0x3d9ceb38	0.07662052
230	0x3d1a645c	0.037693366
231	0xbe82b816	-0.2553107
232	0xb8b5b234	-8.6639455e-05
233	0xbdaa0c04	-0.08303073
234	0xbdec512e	-0.11538921
235	0xbdc502df	-0.09619688
236	0x3dce8a36	0.100849554
237	0xbceb8419	-0.028749513
238	0x3e1165b0	0.14198947
239	0xbe033bcd	-0.12815781
240	0xbd1c025f	-0.0380882
241	0x3e24ef12	0.16106823
242	0xbe192a69	-0.14957584
243	0x3ceb4646	0.028720032
244	0x3e4ae168	0.19812548
245	0xbe051399	-0.12995757
246	0x3de62674	0.11237803
247	0x3e32b108	0.17450345
248	0xbe41608a	-0.18884483
249	0xbd68abaf	-0.056804355
250	0xbdcc422d	-0.099735595
251	0x3def1db7	0.116755895
252	0xbd50f4fd	-0.05101489
253	0xbd82c14f	-0.06384527
254	0x3dd228eb	0.10261711
255	0x3c62d9e7	0.013845897

hidden_to_hidden.bias f4 [32]
0	0xbd247c48	-0.040157586
1	0x3d210e43	0.03932024
2	0xbdb3d1be	-0.087802395
3	0xbe227163	-0.15863566
4	0xbdd20338	-0.1025452
5	0xbd4767e0	-0.048683047
6	0xbe4d58e6	-0.20053443
7	0xbd174d56	-0.036938988
8	0x3da2f487	0.07956796
9	0xbd51c1c3	-0.051210176
10	0xbe3c8842	-0.18411353
11	0x3dae0212	0.08496489
12	0x3d9bd793	0.07609477
13	0xbc7d960d	-0.015477669
14	0x3da368d2	0.07978977
15	0x3d5403b6	0.05176135
16	0x3d62398e	0.05523067
17	0x3e43ae49	0.19109453
18	0x3e384a99	0.17997207
19	0xbd9981f9	-0.074954934
20	0xbbe8197b	-0.0070831156
21	0xbdb90138	-0.090334356
22	0xbd5d56a2	-0.054037698
23	0xbc5e6625	-0.013574158
24	0xbd94268b	-0.07233914
25	0x3c77d567	0.015126563
26	0x3da70735	0.081556715
27	0x3ce432f6	0.027856331
28	0x3d9a9631	0.07548178
29	0xbcb3865a	-0.02191465
30	0xbc92d703	-0.017924791
31	0xbcdf9112	-0.027290855

hidden_to_output.weight f4 [1, 32]
0	0xbd874479	-0.06604857
1	0xbdc775f6	-0.09739296
2	0x3e336fba	0.17523089
3	0x3e070ada	0.13187733
4	0xbda205c4	-0.07911256
5	0xbe297ce0	-0.16551542
6	0x3cfd407c	0.030914538
7	0xbe201ac1	-0.15635206
8	0xbddc3684	-0.107525855
9	0xbe68888e	-0.22708341
10	0x3de1eda9	0.11031658
11	0x3df60a20	0.1201365
12	0x3e215576	0.15755257
13	0xbe040830	-0.12893748
14	0xbe04a2c5	-0.12952717
15	0xbe037bfd	-0.12840267
16	0xbe1ef323	-0.15522437
17	0xbe3f2e2f	-0.18669961
18	0xbda3b194	-0.07992855
19	0x3dfdfee5	0.12402133
20	0x3de6468d	0.11243925
21	0xbdbc1f3c	-0.09185645
22	0xbdfbf385	-0.12302307
23	0xbd65767b	-0.056021195
24	0xbdda8fb8	-0.106719434
25	0xbdcbf6c0	-0.09959173
26	0x3df0e373	0.117621325
27	0x3e1e6689	0.15468802
28	0x3e0f45e1	0.139915
29	0x3e1d51ff	0.1536331
30	0x3ddc46c9	0.10755689
31	0x3d9dbd33	0.077021025
