best_lstm_model.pth (torch, 211269 bytes, 9 tensors)

lstm.weight_ih_l0 f4 [256, 6]
-0.008712594 -0.016252901 0.013470344 0.005423396 0.089454636 -0.28356278 0.02054256 -0.03252533
-0.03212448 0.115029894 -0.025339602 -0.03911159 -0.08659628 -0.06082452 -0.06855297 -0.006602399
0.064881556 0.0054981937 0.023887033 -0.06018578 -0.05798586 0.068621896 -0.011405125 -0.07247131
0.096682966 -0.08716411 -0.07818382 0.07264689 0.07587613 -0.12812935 0.03524075 -0.039782934
-0.01624707 0.08087834 0.03781549 -0.12795949 -0.035244714 0.0006369385 0.00966016 -0.015445292
-0.12169931 0.08208944 0.038361046 -0.11000199 -0.10772409 -0.11157632 0.060446426 -0.105173536
-0.08979429 -0.0019449034 -0.0069214585 -0.021934163 -0.032014716 -0.26596233 0.051896363 -0.10915236
-0.093767464 1.41418495e-05 0.029091101 -0.090148084 0.011585258 -0.058174215 -0.08786703 -0.047433347
0.060697064 0.05285617 -0.105560176 0.06448594 -0.0015494591 -0.036405172 -0.0065720235 0.034357265
0.01789803 -0.10349267 -0.035271592 0.066792816 -0.097946756 -0.10366494 0.026455535 -0.06778271
-0.05094349 0.059171963 -0.0005319912 -0.010376243 -0.1304484 -0.034302175 -0.08211024 -0.15135467
-0.01490048 -0.14494064 0.0030451664 -0.044650827 0.026261937 0.04676013 0.10068499 -0.050988648
-0.086685374 -0.035319056 0.04780978 -0.07713059 -0.042976387 -0.3685883 -0.061714068 0.037267543
0.06329038 -0.004556075 0.07645913 -0.007333999 -0.028711502 -0.047076274 -0.087295294 -0.03235491
0.032944307 -0.11779784 0.006664163 0.010876437 0.11629259 -0.04281773 0.08498367 -0.22388044
-0.008120126 0.069265135 -0.07741648 -0.0036767519 -0.06705091 -0.038592607 0.05394032 0.055577334
-0.10065638 -0.091880016 -0.10012878 -0.16640216 0.06199425 -0.038968295 0.10480022 0.04147886
0.023074923 0.0147746755 -0.0028715166 0.06808885 -0.022067439 0.040059056 -0.014198547 -0.042472627
0.0322247 0.020274099 -0.111473195 -0.12885816 -0.06834164 -0.031606752 0.03068536 -0.067977786
0.036724143 -0.08754584 0.110709995 -0.17739683 0.13553324 0.055839084 0.09341669 0.14880382
0.04062211 -0.029408751 -0.027328452 0.104104266 -0.031848766 0.0027054476 0.11621494 0.016677981
0.074744746 -0.07042369 -0.08396531 0.013936347 0.067760445 -0.13180193 0.06781424 0.011898861
-0.065917574 -0.11513003 0.062382072 -0.039676387 -0.06642293 0.07390356 0.10045264 0.01479919
0.050082937 -0.090577945 0.008481704 0.05009406 -0.012957036 0.100444175 0.02272864 0.038203303
0.0040600565 -0.017754883 0.047351003 0.054373764 -0.017872218 -0.14248733 -0.06606808 -0.0944774
0.08980431 0.037997674 -0.11122847 -0.15959954 -0.11209156 -0.14731558 -0.03485335 -0.06665965
-0.037792884 0.03584769 0.12067962 0.01888004 -0.0053877365 0.07881582 0.06312244 -0.13083743
0.12480002 0.013070345 -0.021644788 0.10788395 -0.045192763 -0.11361197 -0.083274275 -0.103291266
0.030434256 0.05431686 0.00673343 -0.117446676 0.08656417 -0.003913066 0.076282606 0.036573287
-0.077677175 -0.057561196 0.04581245 0.15318947 0.014228838 0.09901204 -0.037615363 0.003031781
-0.041392133 -0.05176113 -0.08655547 0.06804232 0.042839173 -0.17978762 -0.011701338 0.028394667
-0.02857093 -0.07911753 -0.01871751 0.08896896 -0.02486536 -0.015316444 -0.058761682 0.012136082
00000000: 45bf 0ebc ce24 85bc b8b2 5c3c beb6 b13b
00000010: fe33 b73d 242f 91be df48 a83c 4839 05bd
00000020: f594 03bd cb94 eb3d ff94 cfbc 7933 20bd
00000030: 6459 b1bd 2223 79bd 8065 8cbd f058 d8bb
00000040: 9fe0 843d 312a b43b bdae c33c 5d85 76bd
00000050: 9582 6dbd a389 8c3d 90dc 3abc d76b 94bd
00000060: b801 c63d 1983 b2bd d71e a0bd e5c7 943d
00000070: f264 9b3d 5734 03be 9b58 103d 6ef3 22bd
00000080: 9318 85bc 8ba3 a53d 6ae4 1a3d d007 03be
00000090: c35c 10bd 38f8 263a a645 1e3c 400e 7dbc
000000a0: 7d3d f9bd 821e a83d 7920 1d3d b948 e1bd
000000b0: 739e dcbd 2082 e4bd ac96 773d 3965 d7bd
000000c0: 12e6 b7bd 21ec feba 67cd e2bb 46af b3bc
000000d0: dd21 03bd 372c 88be 4891 543d 468b dfbd
000000e0: 2809 c0bd c842 6d37 7650 ee3c 8f9f b8bd
000000f0: 18d0 3d3c 1648 6ebd a1f3 b3bd 7849 42bd
00000100: 7c9d 783d b67f 583d ef2f d8bd 3411 843d
00000110: 3817 cbba 971d 15bd 215a d7bb 34ba 0c3d
00000120: e49e 923c f7f3 d3bd f278 10bd acca 883d
00000130: 4f98 c8bd 494e d4bd 47b9 d83c a9d1 8abd
00000140: 1faa 50bd 4d5e 723d 5375 0bba 1e01 2abc
00000150: 4494 05be 7080 0cbd 6a29 a8bd b8fc 1abe
00000160: 2521 74bc 526b 14be 6a91 473b c9e3 36bd
00000170: 4623 d73c 8d87 3f3d ef33 ce3d 79d9 50bd
00000180: 1a88 b1bd b7aa 10bd 30d4 433d a5f6 9dbd
00000190: 0208 30bd 9bb7 bcbe e4c7 7cbd daa5 183d
000001a0: 639e 813d 214b 95bb 9b96 9c3d 0b52 f0bb
000001b0: 6234 ebbc 0dd3 40bd e0c7 b2bd 9586 04bd
000001c0: 9cf0 063d fe3f f1bd 0d5f da3b 1533 323c
000001d0: cf2a ee3d a561 2fbd eb0b ae3d ea40 65be
000001e0: 470a 05bc e1da 8d3d 888c 9ebd a9f5 70bb
000001f0: fd51 89bd 4813 1ebd 86f0 5c3d 0fa5 633d
00000200: ef24 cebd 972b bcbd 5110 cdbd 5465 2abe
00000210: afed 7d3d 389d 1fbd 7fa1 d63d bde5 293d
00000220: 9f07 bd3c 7b11 723c 0e30 3cbb 2b72 8b3d
00000230: c6c6 b4bc f714 243d 06a1 68bc c7f7 2dbd
00000240: 0cfe 033d de15 a63c 0f4c e4bd 65f3 03be
00000250: b4f6 8bbd 1576 01bd dd5f fb3c f037 8bbd
00000260: 0e6c 163d 3c4b b3bd ecbb e23d 84a7 35be
00000270: 3ac9 0a3e 86b7 643d 4051 bf3d 0760 183e
00000280: 5f63 263d 9fea f0bc ebdf dfbc 9e34 d53d
00000290: da73 02bd e14d 313b 1902 ee3d 43a0 883c
000002a0: c613 993d 4c3a 90bd 01f6 abbd 4755 643c
000002b0: fdc5 8a3d 16f7 06be 31e2 8a3d 71f3 423c
000002c0: cbff 86bd 4bc9 ebbd 5884 7f3d b583 22bd
000002d0: bf08 88bd c05a 973d 1dba cd3d 4d78 723c
000002e0: c423 4d3d ee80 b9bd d8f6 0a3c 6e2f 4d3d
000002f0: bf49 54bc adb5 cd3d 6a31 ba3c 117b 1c3d
00000300: 390a 853b b072 91bc 20f3 413d 06b7 5e3d
00000310: c268 92bc 33e8 11be b44e 87bd 5e7d c1bd
00000320: 52eb b73d 73a3 1b3d c1cb e3bd 106e 23be
00000330: 4390 e5bd e5d9 16be 63c2 0ebd db84 88bd
00000340: b6cc 1abd 07d5 123d e026 f73d 50aa 9a3c
00000350: 9c8b b0bb 306a a13d 5646 813d 3ffa 05be
00000360: 2797 ff3d 0025 563c 6950 b1bc 43f2 dc3d
00000370: 0c1c 39bd 64ad e8bd b48b aabd 5f8a d3bd
00000380: 4351 f93c 5b7b 5e3d 1ba4 dc3b e287 f0bd
00000390: 8e48 b13d 2d39 80bb 0e3a 9c3d dfcd 153d
000003a0: 3615 9fbd 4ac5 6bbd d6a5 3b3d b3dd 1c3e
000003b0: 1220 693c d3c6 ca3d 9112 1abd d8b0 463b
000003c0: cc8a 29bd 7b03 54bd ff43 b1bd c659 8b3d
000003d0: 2178 2f3d 3f1a 38be f8b6 3fbc ef9b e83c
000003e0: 950d eabc 5f08 a2bd 7755 99bc 5c35 b63d
000003f0: 71b2 cbbc d3f1 7abc 17b0 70bd 6bd6 463c

lstm.weight_hh_l0 f4 [256, 64]
0.00062871596 0.011421605 -0.016385043 -0.013078101 0.009417066 0.0072437944 -0.028540451 -0.0064114714
0.00060526235 0.026386388 0.011628226 -0.012190333 0.052715812 -0.01724636 -0.05895521 0.029436769
0.005618195 0.029885637 0.04005811 0.008648836 -0.007848121 0.035164956 0.025456615 -0.00479076
0.062276002 -0.0062626675 -0.109661125 -0.051527116 0.00460409 -0.005037976 -0.00793524 0.014849611
0.0059254565 0.010451399 0.036417276 0.0647457 0.020403406 -0.022163836 -0.021529695 -0.06846249
0.005759172 -0.043171644 -0.007966848 0.03509724 -0.0006392521 0.036967754 -0.03603563 0.041494295
0.029979965 -0.06441186 0.020136591 -0.008411611 -0.0037734183 0.026307782 0.091758244 0.011673081
0.009958954 -0.01144197 0.04858744 -0.0037378094 -0.011728153 0.011959161 -0.017072381 0.004292275
0.013541167 -0.01393996 -0.0021513065 0.05415508 -0.016959604 0.03002239 -0.024793293 6.708637e-05
0.023097765 0.012920743 -0.032334197 -0.054190803 -0.050849617 -0.030645438 0.027455866 0.04210852
-0.016100159 0.043360084 -0.0121567035 0.013363018 0.023453567 -0.027962543 -0.06159516 0.033814184
0.018602418 -0.024437511 -0.05599096 -0.054181337 0.026869595 0.025272531 -0.026201265 0.018648075
-0.015960677 0.025743514 -0.008019712 0.0032158515 0.03485152 -0.029686023 -0.02365969 -0.054647192
-0.017383365 -0.036112297 -0.0011733206 0.03643096 -0.009185823 -0.027830694 -0.035322558 0.057829503
0.029608067 -0.03943004 -0.005401845 0.0030963959 -0.018309692 -0.027651658 0.06131882 -0.012500316
-0.029067568 0.029735208 0.025615154 -0.01222741 -0.024530252 0.016374668 -0.021419689 0.012009308
-0.0057551577 -0.03896589 0.037640948 -0.01867569 0.027215766 0.0260904 -0.021882167 -0.033831302
-0.0014870134 -0.009000579 0.020883368 -0.0008667864 0.06298186 -0.04169894 -0.06716761 -0.0078064287
0.0022266274 0.041040275 0.044196595 -0.0017291202 0.006288135 0.008597776 0.030326504 -0.019383036
0.043024313 0.0006075677 -0.017008612 -0.0067645055 0.01100055 -0.026892684 0.0026725603 0.00188188
0.01068463 -0.003560726 0.009233531 -0.005039794 0.0028957566 -0.015201217 0.0005872384 -0.034749005
0.004410079 -0.037276495 -0.022556333 0.051384434 0.029385004 0.021846214 -0.0009006105 0.0180588
0.0004942524 -0.0074473927 0.047371563 -0.012882081 0.0117554385 -0.0059759044 0.035297833 0.02593458
-0.013413496 0.0187859 -0.008351266 -0.006099665 -0.013784049 0.0127605265 -0.03570334 0.005197574
0.004539086 0.051186197 0.019278519 0.014223406 0.019584948 0.05454933 -0.02493971 -0.04028847
0.008093015 0.041292056 -0.0005404944 -0.04916527 -0.028272884 -0.02709271 -0.04978007 0.046572786
-0.0037586447 0.024780331 0.047108088 0.016313948 -0.02196624 0.04210112 0.0702971 -0.04881973
0.024721239 -0.010109917 -0.119183265 -0.06613646 -0.021837104 -0.06291465 -0.021786578 0.04012545
-0.022160076 0.03947495 0.0066679693 0.060738407 0.026881251 -0.045725383 -0.03449106 -0.044970904
0.029984288 -0.072206095 0.05409004 -0.03204993 -0.046017025 -0.0027275227 -0.034829948 0.061050806
0.04070108 -0.054079432 0.06478717 0.022077244 -0.014452294 -0.027160095 0.11358361 0.027411994
-0.0093368525 0.053010758 0.04721388 -0.006201446 -0.009060885 0.04000678 0.0064367536 -0.033821374
00000000: 6ad0 243a af21 3b3c ed39 86bc 8845 56bc
00000010: 0a4a 1a3c 5a5d ed3b aacd e9bc 5217 d2bb
00000020: 78aa 1e3a 4428 d83c 5184 3e3c f6b9 47bc
00000030: 89ec 573d 3d48 8dbc 057b 71bd 6125 f13c
00000040: d618 b83b b9d2 f43c f913 243d d9b3 0d3c
00000050: 6895 00bc 2109 103d 648a d03c cffb 9cbb
00000060: 1f15 7f3d 1037 cdbb 0396 e0bd 190e 53bd
00000070: e8dd 963b 9b15 a5bb cf02 02bc c84b 733c
00000080: 552a c23b 583c 2b3c 482a 153d 6599 843d
00000090: 0b25 a73c ef90 b5bc 0b5f b0bc 1036 8cbd
000000a0: 70b7 bc3b c0d4 30bd 6287 02bc 20c2 0f3d
000000b0: 7b93 27ba 806b 173d 199a 13bd ecf5 293d
000000c0: 8b98 f53c 5eea 83bd 7ef5 a43c dbd0 09bc
000000d0: 744b 77bb 6b83 d73c bfeb bb3d 7340 3f3c
000000e0: e12a 233c 1a77 3bbc a003 473d 09f6 74bb
000000f0: 7027 40bc 5bf0 433c 61db 8bbc 36a6 8c3b
00000100: c5db 5d3c 6e64 64bc effc 0cbb b8d1 5d3d
00000110: deee 8abc 84f1 f53c 4e1b cbbc b8b0 8c38
00000120: 8637 bd3c 86b1 533c dd70 04bd 2df7 5dbd
00000130: b047 50bd 240c fbbc 20eb e03c fc79 2c3d
00000140: 7be4 83bc 589a 313d e92c 47bc 8ff0 5a3c
00000150: b221 c03c b411 e5bc 354b 7cbd be80 0a3d
00000160: 1964 983c 2d31 c8bc c756 65bd 40ed 5dbd
00000170: a01d dc3c 5708 cf3c 09a4 d6bc d9c3 983c
00000180: f7bf 82bc 10e4 d23c 1c65 03bc 09c1 523b
00000190: 78c0 0e3d 1a30 f3bc f7d1 c1bc bcd5 5fbd
000001a0: 8f67 8ebc 7dea 13bd 1bca 99ba a138 153d
000001b0: 2280 16bc 32fd e3bc 63ae 10bd a1de 6c3d
000001c0: 9e8c f23c 6581 21bd f601 b1bb e7ec 4a3b
000001d0: 35fe 95bc bb85 e2bc 7129 7b3d 20ce 4cbc
000001e0: 1c1f eebc 4097 f33c dfd6 d13c 7a55 48bc
000001f0: abf3 c8bc 2b24 863c 5878 afbc b0c2 443c
00000200: c395 bcbb b29a 1fbd 652d 1a3d c3fd 98bc
00000210: 99f3 de3c 89bb d53c 3b42 b3bc b192 0abd
00000220: e4e7 c2ba 2a77 13bc 9913 ab3c 0d39 63ba
00000230: a2fc 803d 82cc 2abd 2c8f 89bd 12cd ffbb
00000240: 9cec 113b d919 283d 7d07 353d a5a3 e2ba
00000250: b30c ce3b b0dd 0c3c 4a6f f83c 2cc9 9ebc
00000260: 433a 303d 2e45 1f3a a555 8bbc c9a8 ddbb
00000270: a73b 343c 0c4e dcbc 1f26 2f3b 6aa9 f63a
00000280: 960e 2f3c 125b 69bb 3c48 173c db24 a5bb
00000290: bcc6 3d3b 860e 79bc e7f0 193a f954 0ebd
000002a0: 6d82 903b 3daf 18bd 0fc8 b8bc 7c78 523d
000002b0: d2b8 f03c d5f6 b23c f316 6cba 0cf0 933c
000002c0: b890 013a 4209 f4bb af08 423d 5d0f 53bc
000002d0: e299 403c 85d1 c3bb 7694 103d c274 d43c
000002e0: 48c4 5bbc e3e4 993c c0d3 08bc b3df c7bb
000002f0: 7ed6 61bc 8711 513c aa3d 12bd 6950 aa3b
00000300: 9dbc 943b 9ea8 513d fced 9d3c 4a09 693c
00000310: 9d70 a03c 1e6f 5f3d 5d4e ccbc 8605 25bd
00000320: 9198 043c dc21 293d f7af 0dba 8661 49bd
00000330: 899c e7bc 88f1 ddbc 30e6 4bbd 1bc3 3e3d
00000340: 9853 76bb 1f00 cb3c 69f4 403d d4a4 853c
00000350: 8bf2 b3bc 3972 2c3d edf7 8f3d 32f7 47bd
00000360: 3284 ca3c 11a4 25bc 5b16 f4bd 8d72 87bd
00000370: bae3 b2bc 65d9 80bd c479 b2bc 955a 243d
00000380: 0c89 b5bc 7cb0 213d fb7e da3b d6c8 783d
00000390: 1236 dc3c 8a4a 3bbd 7f46 0dbd 6933 38bd
000003a0: 9ca1 f53c cae0 93bd 858d 5d3d ca46 03bd
000003b0: 597c 3cbd 3dc0 32bb d9a9 0ebd 6910 7a3d
000003c0: 2db6 263d 6582 5dbd 23af 843d 56db b43c
000003d0: 51c9 6cbc d97e debc 869e e83d 1e8f e03c
000003e0: 99f9 18bc cf21 593d 5763 413d 8035 cbbb
000003f0: 1b74 14bc 26de 233d 67eb d23b 4888 0abd

lstm.bias_ih_l0 f4 [256]
0.37722087 -0.08263133 -0.05190719 -0.008059145 0.11702696 0.04939331 0.15761888 0.18478715
0.16926701 -0.054536395 -0.09611565 0.034458596 0.15295865 -0.0095887175 0.071820974 0.115394555
0.3940628 -0.09259269 0.08021199 0.14929277 0.13982946 -0.031786874 -0.03268004 0.07481507
0.027033474 0.032911528 0.028951053 0.083347484 0.05337767 0.065575264 0.0033939849 0.080790445
0.16391037 -0.022420352 -0.05911172 0.061512742 0.019625273 -0.032440327 0.08453579 0.15889183
0.07421784 0.006000114 -0.044479918 0.03145152 0.09705406 0.042857863 0.052467894 0.0859113
-0.032822188 -0.056617197 0.10741962 0.06634253 0.030722765 -0.038699485 0.12540068 0.11661728
0.111238606 0.044545405 0.08506362 0.8691062 -0.078539 0.024439579 0.09982459 0.18201083
-0.22004789 -0.1076786 -0.107577324 0.0005880694 -0.09210867 -0.12782757 0.13533482 -0.052286495
-0.049191017 -0.083335884 0.11101392 0.05847875 -0.08986487 -0.027424064 0.039521527 0.026309226
-0.27756485 -0.08552116 -0.10408409 -0.22089279 0.031272966 -0.15611997 -0.02182508 -0.115213305
-0.032202367 -0.1208144 0.066098206 -0.10743104 -0.06852073 -0.069186755 0.0036911408 -0.014815802
0.0022361574 -0.0476658 -0.09699829 0.03860017 -0.08320202 0.09858321 -0.08709107 0.0740315
-0.09071042 0.05726319 0.047504857 -0.10405852 0.01637873 -0.0050704344 0.012551279 0.028234184
-0.12020216 0.086275294 -0.050988406 0.0015120007 -0.0871016 0.0501336 0.09764824 -0.13378897
-0.10579504 -0.09187984 0.018323682 -0.54459864 0.07035978 0.019297667 0.008874847 -0.17127246
-0.023182085 0.082542606 0.061590552 0.008041702 -0.05916732 -0.09729444 -0.008929934 -0.027069362
-0.074492365 -0.078379855 0.048181377 -0.0717193 -0.118111394 -0.06578514 -0.08864923 0.009375979
-0.04615999 -0.089684986 0.036196556 0.1183962 0.06566203 -0.08879657 0.0049612806 0.10624995
-0.08561649 0.034091834 -0.031875562 0.08692879 -0.01297344 -0.0029630174 -0.0030551632 0.11364437
-0.09059087 0.004997659 -0.064795785 0.094910994 -0.004846193 -0.04072761 -0.058023527 0.10222661
-0.009055432 -0.027158437 0.055123672 -0.03838424 -0.023865398 -0.07241317 -0.028126428 0.028236302
0.021022463 -0.033102185 0.024212224 0.10553888 -0.05700344 -0.044586726 0.106958866 -0.0013762008
-0.04502682 -0.14264405 0.09907897 -0.047685172 0.0003296984 -0.043072186 -0.0060757906 0.06655772
0.46438074 0.012244036 0.10879413 0.018826272 0.059575327 0.14423324 0.08446569 0.1887665
0.17532301 0.034155555 -0.027045384 0.122031964 0.12024587 0.10317722 0.14330883 0.034308158
0.3779092 -0.034468833 0.12930147 0.26253405 0.15304697 0.10592421 0.038140774 0.14752117
-0.114973925 0.13006677 0.0028186701 -0.06767075 0.11464812 0.07195672 0.16044497 0.00031552656
0.04986437 0.08467662 0.0066702585 -0.06067148 0.07465062 0.10125156 -0.057406016 0.11258964
0.17106283 -0.07911353 0.03368216 -0.10018937 0.059543766 0.015701512 0.09493797 -0.050570592
-0.10698165 0.092194416 0.13871905 0.13181429 0.1601412 -0.0906987 0.10669249 0.055382803
0.043505482 -0.12689365 0.080235735 0.8439725 0.0800809 0.13647282 0.090099715 0.32724315
00000000: 1823 c13e 9d3a a9bd a29c 54bd 810a 04bc
00000010: d5ab ef3d a450 4a3d d866 213e d838 3d3e
00000020: 5554 2d3e 8e61 5fbd 48d8 c4bd 7524 0d3d
00000030: 31a1 1c3e ff19 1dbc e016 933d fb53 ec3d
00000040: 99c2 c93e 3ca1 bdbd 2f46 a43d 34e0 183e
00000050: 742f 0f3e f432 02bd 81db 05bd a538 993d
00000060: 4e75 dd3c 3dce 063d c22a ed3c 16b2 aa3d
00000070: 8ba2 5a3d 534c 863d 9e6d 5e3b 7675 a53d
00000080: 1fd8 273e e3aa b7bc 221f 72bd c9f4 7b3d
00000090: 2ec5 a03c 26e0 04bd 1a21 ad3d 8ab4 223e
000000a0: 86ff 973d 9b9c c43b 9330 36bd 4fd3 003d
000000b0: 47c4 c63d ba8b 2f3d 93e8 563d 43f2 af3d
000000c0: 8f70 06bd 6fe7 67bd d1fe db3d 98de 873d
000000d0: 4fae fb3c 5a83 1ebd 0969 003e 0ad5 ee3d
000000e0: 11d1 e33d 3e75 363d d635 ae3d be7d 5e3f
000000f0: 0ed9 a0bd 8335 c83c d670 cc3d 0c61 3a3e
00000100: 3c54 61be 9986 dcbd 8051 dcbd ab28 1a3a
00000110: 78a3 bcbd 3be5 02be 3695 0a3e 5d2a 56bd
00000120: 857c 49bd 01ac aabd 445b e33d 6a87 6f3d
00000130: 130b b8bd 6ea8 e0bc 53e1 213d 7286 d73c
00000140: fb1c 8ebe b825 afbd 0a2a d5bd b831 62be
00000150: 1518 003d eadd 1fbe 83ca b2bc f4f4 ebbd
00000160: a1e6 03bd 8a6d f7bd 7f5e 873d ce04 dcbd
00000170: 9954 8cbd c9b1 8dbd 11e7 713b fabd 72bc
00000180: 7f8c 123b 373d 43bd 0aa7 c6bd 361b 1e3d
00000190: d265 aabd fee5 c93d ce5c b2bd d49d 973d
000001a0: 62c6 b9bd cf8c 6a3d 7494 423d a21c d5bd
000001b0: b02c 863c e325 a6bb e1a3 4d3c 604b e73c
000001c0: 8d2c f6bd 1ab1 b03d 38d9 50bd 532e c63a
000001d0: 5362 b2bd e458 4d3d cdfb c73d faff 08be
000001e0: 12ab d8bd 7f2b bcbd 8c1b 963c d16a 0bbf
000001f0: ca18 903d 2416 9e3c ce67 113c 0c62 2fbe
00000200: 5be8 bdbc 190c a93d 6046 7c3d 58c1 033c
00000210: 6f59 72bd 4f42 c7bd dc4e 12bc 91c0 ddbc
00000220: 748f 98bd 9e85 a0bd d659 453d 91e1 92bd
00000230: 63e4 f1bd 5cba 86bd ba8d b5bd b59d 193c
00000240: 4212 3dbd c3ac b7bd d742 143d b579 f23d
00000250: d079 863d fada b5bd 3d92 a23b 9399 d93d
00000260: b357 afbd e1a3 0b3d f38f 02bd b907 b23d
00000270: 8d8e 54bc 2f2f 42bb 2239 48bb 61be e83d
00000280: b587 b9bd 67c3 a33b a7b3 84bd b260 c23d
00000290: d0cc 9ebb ffd1 26bd 14aa 6dbd 2f5c d13d
000002a0: 3c5d 14bc 5f7b debc 5cc9 613d cb38 1dbd
000002b0: 5e81 c3bc 5b4d 94bd 6569 e6bc d14f e73c
000002c0: 4d37 ac3c 2896 07bd b758 c63c c524 d83d
000002d0: 707c 69bd 92a0 36bd 400d db3d a361 b4ba
000002e0: 0b6e 38bd 4811 12be eae9 ca3d 8751 43bd
000002f0: 5fdb ac39 766c 30bd 6d17 c7bb 6a4f 883d
00000300: 50c3 ed3e 369b 483c 75cf de3d 8e39 9a3c
00000310: 4205 743d e1b1 133e 59fc ac3d 014c 413e
00000320: e087 333e b2e6 0b3d 488e ddbc e5eb f93d
00000330: 7743 f63d 944e d33d 8dbf 123e b686 0c3d
00000340: 517d c13e 312f 0dbd 9b67 043e dd6a 863e
00000350: 58b8 1c3e cbee d83d 8039 1c3d ca0f 173e
00000360: 7377 ebbd 3930 053e 70b9 383b f696 8abd
00000370: a2cc ea3d 0b5e 933d b04b 243e 426d a539
00000380: 953e 4c3d f06a ad3d 2f92 da3b a882 78bd
00000390: 6de2 983d fa5c cf3d 9222 6bbd 6695 e63d
000003a0: 182b 2f3e 4606 a2bd 4ef6 093d 1630 cdbd
000003b0: 2ae4 733d 75a0 803c d76e c23d 1c23 4fbd
000003c0: 3219 dbbd 6dd0 bc3d 5e0c 0e3e 53fa 063e
000003d0: 0efc 233e 3dc0 b9bd 9881 da3d 14d9 623d
000003e0: ce32 323d 69f0 01be a252 a43d 950e 583f
000003f0: 7401 a43d 88bf 0b3e 3386 b83d 6a8c a73e

lstm.bias_hh_l0 f4 [256]
0.44487104 0.11491996 0.06985476 0.16824992 0.13718309 0.13335152 0.08822927 0.1683686
0.1597016 0.06783181 0.07474183 -0.045478873 0.15450008 0.034380928 -0.015639782 0.13618067
0.36978057 -0.078341566 -0.01838782 0.18418144 0.14118366 -0.020779243 -0.03454002 0.12889817
0.017283872 0.111335054 0.0012089041 0.04367355 0.14450416 -0.026482282 0.01973488 0.08860183
0.14795223 0.052579004 -0.097143546 0.115054555 0.036385242 -0.042903706 0.07020399 0.15678172
0.17035183 0.02889508 0.084031716 -0.09750738 0.024009591 0.1628474 0.05819522 0.11943191
-0.003810253 0.004170284 0.086427845 0.13216172 -0.017447175 -0.054181553 0.035574317 0.110850155
0.2126629 -0.1389516 -0.05348637 0.84708035 0.07298215 0.09241675 0.00919325 0.18576828
-0.26631072 0.055412065 -0.043812733 -0.06625337 0.081792586 -0.013831769 0.11413735 -0.01255187
-0.025960023 -0.094771594 -0.09323956 -0.01557076 -0.03239707 -0.059680767 0.03148962 0.07497639
-0.20027292 -0.034913156 0.032063063 -0.04435456 0.017136332 -0.018939558 -0.083944105 -0.13787396
0.06899349 0.03570702 -0.029545125 -0.12441413 -0.023858879 0.049095012 -0.036669858 0.048424415
-0.01688676 0.018739665 -0.019511098 0.020629773 -0.0512813 0.115829036 0.080156684 0.17976935
-0.06755911 -0.03181264 -0.065531395 -0.11365681 -0.09013714 -0.073997594 0.033217315 0.08773522
0.014870424 -0.04998836 -0.069525495 -0.017439032 0.035689764 -0.09707917 -0.02571283 -0.116178066
-0.052948136 -0.10361042 -0.06255874 -0.48413154 -0.08609085 -0.07219026 0.060645293 -0.046742793
0.059116144 -0.048617948 -0.058305055 0.03384583 0.06541592 0.09182503 0.09279274 0.034552265
0.097968385 0.041601423 -0.06798957 0.08580704 0.09060776 0.09457487 0.050668772 0.014908277
0.009964497 -0.008343248 -0.07763366 -0.09659222 -0.051047146 0.054172102 0.00847873 -0.072582416
0.05341144 -0.05582847 -0.065315925 -0.07971835 0.026833976 -0.05064022 -0.0140910335 -0.12221644
0.086902045 -0.0456118 -0.056376625 -0.07316735 0.003173039 0.07520758 0.07302358 -0.069690645
0.00015928215 0.004501245 -0.054860257 0.010221064 -0.009119505 0.08359953 -0.022671899 -0.020677244
0.013882939 -0.03743977 -0.016117185 -0.06974543 0.009971553 0.047516126 -0.0070741195 -0.00996093
0.03955285 -0.08647392 -0.047135532 0.0049315514 0.010582487 0.05627099 0.05339721 -0.094359666
0.39543793 -0.058613785 0.03720571 0.10887302 0.04667751 0.060883496 0.1889522 0.15140079
0.11111869 -0.0762244 0.07930327 0.04502708 0.02917276 0.15394334 0.17699902 0.11843853
0.4003653 0.0014945581 0.031006796 0.1404984 0.1338313 -0.0005551068 0.011941752 0.14594722
-0.082972534 -0.004071895 0.011980572 -0.118523784 0.15952581 0.073176555 0.18118204 0.11210476
0.0065002195 0.16484044 -0.00711746 -0.010521573 0.05796555 0.10996137 0.052114263 0.08120542
0.21185869 -0.042130608 -0.011944794 -0.04722149 0.12495976 0.10915592 0.060396686 -0.054514233
-0.072228536 0.08479331 0.005176625 0.10142116 0.1908303 0.056554597 0.07288639 0.11750963
0.09443582 0.06963665 0.071398534 0.86278164 0.10777709 -0.0075885393 -0.018316636 0.17654867
00000000: 23c6 e33e 285b eb3d 0310 8f3d b549 2c3e
00000010: b979 0c3e 4d8d 083e 8cb1 b43d d168 2c3e
00000020: d188 233e 67eb 8a3d 3f12 993d 0e48 3abd
00000030: 4535 1e3e 04d3 0c3d 001f 80bc f272 0b3e
00000040: e153 bd3e 8b71 a0bd 0ea2 96bc 0f9a 3c3e
00000050: 7392 103e 3b39 aabc d679 0dbd e2fd 033e
00000060: e896 8d3c a203 e43d 1774 9e3a 09e3 323d
00000070: e6f8 133e 5ff1 d8bc 0bab a13c e074 b53d
00000080: ca80 173e 155d 573d 32f3 c6bd b9a1 eb3d
00000090: b108 153d ccbb 2fbd 1cc7 8f3d 638b 203e
000000a0: b670 2e3e 60b5 ec3c d218 ac3d f3b1 c7bd
000000b0: c3af c43c 78c1 263e 1c5e 6e3d b898 f43d
000000c0: 70b5 79bb e1a6 883b 1501 b13d 6755 073e
000000d0: 61ed 8ebc 7aed 5dbd 60b6 113d 6805 e33d
000000e0: 4ec4 593e 5449 0ebe 8614 5bbd 42da 583f
000000f0: aa77 953d fe44 bd3d 499f 163c 0a3a 3e3e
00000100: e159 88be c3f7 623d fb74 33bd d9af 87bd
00000110: df82 a73d a59e 62bc d8c0 e93d 5ca6 4dbc
00000120: 1daa d4bc 9c17 c2bd 62f4 bebd 801c 7fbc
00000130: cab2 04bd d273 74bd 43fb 003d 398d 993d
00000140: 5814 4dbe 1901 0fbd 8f54 033d 21ad 35bd
00000150: 7e61 8c3c 2227 9bbc e3ea abbd d52e 0dbe
00000160: 754c 8d3d 8641 123d 9e08 f2bc d6cc febd
00000170: b273 c3bc da17 493d 2233 16bd ae58 463d
00000180: 1a56 8abc ed83 993c bdd5 9fbc c5ff a83c
00000190: 570c 52bd c637 ed3d 3029 a43d 7515 383e
000001a0: 6e5c 8abd f94d 02bd 5335 86bd e7c4 e8bd
000001b0: d299 b8bd 0d8c 97bd e10e 083d 86ae b33d
000001c0: 14a3 733c 98c0 4cbd 6263 8ebd 4ddc 8ebc
000001d0: 6e2f 123d 72d1 c6bd b6a3 d2bc c4ee edbd
000001e0: 25e0 58bd b331 d4bd cc1e 80bd 17e0 f7be
000001f0: 6650 b0bd 7dd8 93bd 3367 783d 5f75 3fbd
00000200: c523 723d 9d23 47bd 48d1 6ebd eda1 0a3d
00000210: c8f8 853d c30e bc3d 1f0a be3d ad86 0d3d
00000220: a6a3 c83d 4166 2a3d 1e3e 8bbd 9abb af3d
00000230: 9090 b93d 78b0 c13d 0f8a 4f3d d941 743c
00000240: 2142 233c 1eb2 08bc 65fe 9ebd 24d2 c5bd
00000250: d016 51bd 91e3 5d3d 5fea 0a3c 17a6 94bd
00000260: f4c5 5a3d 65ac 64bd 5bc4 85bd 6043 a3bd
00000270: edd2 db3c 1f6c 4fbd 14de 66bc 9d4c fabd
00000280: b3f9 b13d 70d3 3abd 2deb 66bd c3d8 95bd
00000290: c3f2 4f3b 6f06 9a3d 638d 953d f8b9 8ebd
000002a0: fa04 2739 2e7f 933b 26b5 60bd 4076 273c
000002b0: fa69 15bc 3b36 ab3d 6bba b9bc 5363 a9bc
000002c0: 4475 633c 725a 19bd 3008 84bc b1d6 8ebd
000002d0: ba5f 233c 45a0 423d 04ce e7bb 2b33 23bc
000002e0: 2b02 223d 3d19 b1bd 3011 41bd da98 a13b
000002f0: 2b62 2d3c 697c 663d 08b7 5a3d a43f c1bd
00000300: d776 ca3e 0215 70bd 0465 183d d1f8 de3d
00000310: eb30 3f3d f960 793d af7c 413e cf08 1b3e
00000320: 3292 e33d 8a1b 9cbd c169 a23d 516e 383d
00000330: b6fb ee3c 53a3 1d3e 3b3f 353e e68f f23d
00000340: aefc cc3e 0ce5 c33a f701 fe3c d0de 0f3e
00000350: 130b 093e 9684 11ba 57a7 433c 3073 153e
00000360: 81ed a9bd 886d 85bb 294a 443c 99bc f2bd
00000370: bc5a 233e 97dd 953d c987 393e 2e97 e53d
00000380: cbff d43b efcb 283e 9539 e9bb ad62 2cbc
00000390: 496d 6d3d 6d33 e13d c475 553d 074f a63d
000003a0: 7cf1 583e 2591 2cbd 19b4 43bc 526b 41bd
000003b0: e7ea ff3d 248d df3d 8462 773d 514a 5fbd
000003c0: 8eec 93bd 1da8 ad3d aea0 a93b e6b5 cf3d
000003d0: 0569 433e cba5 673d 7645 953d e4a8 f03d
000003e0: 9167 c13d a99d 8e3d 6539 923d 42df 5c3f
000003f0: 3cba dc3d 48a9 f8bb c50c 96bc 2dc9 343e

lstm.weight_ih_l1 f4 [256, 64]
0.013082901 -0.012878809 0.0069892313 0.0078882305 0.011970516 -0.0041746534 0.007835861 -0.0002427459
-0.0037250652 0.035732914 0.03084319 -0.0027219348 0.0113780415 -0.05157309 0.047399364 0.03302507
0.00060344127 0.040423475 0.021680007 -0.020348854 -0.042217355 0.051189456 -0.023747675 -0.023649706
0.001849175 -0.0121150045 -0.004483882 -0.038916852 -0.022302518 0.019616712 0.007257198 -0.038856912
0.00993198 0.032202907 0.06310197 -0.009059788 -0.016308319 -0.031073637 0.01851735 0.030853499
-0.0046694707 -0.05419965 -0.0024105348 -0.0030272272 -0.00068222906 0.030091817 0.006609789 -0.018820392
0.019590395 -0.038168326 -0.036492124 -0.03378924 0.016630346 -0.04495733 0.011146607 0.045451097
-0.0026541003 0.0056745945 -0.07577082 -0.03463166 0.04661942 -0.0030437333 0.0014704957 0.0078390455
-0.03145998 -0.0034609083 -4.5772395e-05 0.02156819 0.039946023 0.06626695 -0.023682853 -0.08102122
-0.046197925 0.06602063 0.055978253 0.04129215 0.071570374 0.051819783 -0.067531206 0.03999906
0.026612462 0.017102998 -0.04844183 -0.040221438 0.0466372 0.018942349 -0.057240624 -0.07244887
0.043991085 -0.06859411 -0.05300687 -0.0018148706 0.07583292 0.061552033 0.021345496 -0.031499498
0.027728172 0.010926002 -0.003572596 0.035731398 -0.032562625 -0.02564234 -0.021520624 0.0147193335
0.036497075 -0.06820339 0.07037322 0.013240388 -0.02738655 0.035740774 -0.07612673 0.0037161612
0.054308128 -0.043019164 0.0018771079 0.021056645 -0.024692671 -0.016737657 0.027826013 0.03859932
-0.007921691 0.006734871 -0.051100656 -0.008374296 0.025378548 0.020770555 0.044084348 0.04843686
0.023444343 -0.030849472 0.057306234 0.03704207 0.0021249885 0.015056051 -0.016566085 0.0035630162
-0.0049500903 -0.027893495 -0.018306697 0.037230376 -0.08418198 0.05749214 -0.035890497 0.06561583
0.0064930026 -0.0071142125 -0.031183597 0.006612749 0.07224126 -0.04176196 -0.056673054 0.0021890781
-0.03315853 0.012176003 0.024852023 -0.028066054 0.028259484 0.011096163 -0.03972755 0.0038459045
-0.0136460345 -0.042497996 -0.08750486 0.012941808 0.030363295 0.024923561 -0.009847791 -0.007143419
-0.01580282 0.028029792 0.032542143 -0.040684193 -0.044090416 0.005682923 -0.026415987 -0.0021062307
0.032609377 -0.021839086 -0.03934343 0.032768067 -0.027966216 -0.009715606 0.04817228 -0.03449275
-0.03326191 0.02528224 -0.02682673 0.017974084 0.014416671 -0.010596512 0.033486202 -0.040278077
-0.00022031245 0.0024236708 0.00448468 0.001364538 0.007254415 0.020751446 0.02514658 -0.0030646105
-0.001978932 -0.0029750282 0.008099441 0.009840647 -0.012885166 0.0061378386 0.0061208303 -0.013826924
0.0025258418 0.0042091524 -0.0052285003 0.0022334417 0.0011940326 -0.0066073406 0.001984015 0.004324441
-0.010353184 0.005253578 0.019165153 0.009592604 -0.007390381 0.001799881 0.0016921676 0.0038706597
-0.0063367765 -0.0023546785 -0.013571335 -0.033648066 -0.00091750897 -0.0016720941 0.00045372944 0.012569314
0.00022077918 0.009536846 0.002242732 -0.005457736 -0.0046058777 -0.0095567815 -0.0076799127 0.017071495
-0.000939725 0.004756857 -0.00834416 0.0053517055 -0.001590094 -0.008128651 -0.013892561 -0.0023194863
3.4726905e-05 0.000107965716 -0.018142322 0.0060918066 -0.021103853 -0.0047350926 0.0045850263 -0.002079736
00000000: aa59 563c a401 53bc ec05 e53b a33d 013c
00000010: fc1f 443c 88cb 88bb fc61 003c 9b89 7eb9
00000020: 3920 74bb ad5c 123d dcaa fc3c 7d62 32bb
00000030: f76a 3a3c 4e3e 53bd d625 423d 4c45 073d
00000040: 4230 1e3a 1693 253d 459a b13c a4b2 a6bc
00000050: 1bec 2cbd 09ac 513d 7c8a c2bc 07bd c1bc
00000060: 0460 f23a 037e 46bc 87ed 92bb 4767 1fbd
00000070: c5b3 b6bc 3ab3 a03c cacd ed3b 6d28 1fbd
00000080: beb9 223c 32e7 033d 9b3b 813d 816f 14bc
00000090: 0699 85bc 248e febc b3b1 973c 7ac0 fc3c
000000a0: 5c02 99bb 7400 5ebd 10fa 1dbb 7264 46bb
000000b0: 9ed7 32ba 1d83 f63c ee96 d83b 392d 9abc
000000c0: 097c a03c 6456 1cbd c478 15bd 9666 0abd
000000d0: 5d3c 883c 2d25 38bd 42a0 363c ee2a 3a3d
000000e0: 6af0 2dbb f3f1 b93b bb2d 9bbd edd9 0dbd
000000f0: 01f4 3e3d 5f79 47bb a6bd c03a 576f 003c
00000100: 2edc 00bd 68d0 62bb bcfb 3fb8 c6af b03c
00000110: 719e 233d f7b6 873d 8b02 c2bc 74ee a5bd
00000120: 093a 3dbd d335 873d 7449 653d f521 293d
00000130: 7d93 923d fb40 543d cd4d 8abd 0ed6 233d
00000140: 6102 da3c 961b 8c3c f16a 46bd 3cbf 24bd
00000150: a606 3f3d fc2c 9b3c 2575 6abd 1360 94bd
00000160: ff2f 343d 127b 8cbd bb1d 59bd f4e0 edba
00000170: 4a4e 9b3d fc1d 7c3d c0dc ae3c 9e05 01bd
00000180: 3126 e33c f902 333c 3722 6abb 165b 123d
00000190: 6360 05bd e20f d2bc 054c b0bc 5c29 713c
000001a0: f57d 153d 38ae 8bbd d61f 903d 36ee 583c
000001b0: c259 e0bc eb64 123d 55e8 9bbd d78a 733b
000001c0: 3372 5e3d dd34 30bd 4a09 f63a fc7e ac3c
000001d0: 4948 cabc 691d 89bc 61f3 e33c 521a 1e3d
000001e0: fbc9 01bc 31b0 dc3b ec4e 51bd 5834 09bc
000001f0: ace6 cf3c 0327 aa3c ca91 343d bb65 463d
00000200: 5a0e c03c 08b8 fcbc f1b9 6a3d 6db9 173d
00000210: 6443 0b3b a8ad 763c 99b5 87bc 7e81 693b
00000220: 5e34 a2bb e680 e4bc edf7 95bc e17e 183d
00000230: 9a67 acbd e17c 6b3d ea01 13bd 9861 863d
00000240: 41c3 d43b 571e e9bb be74 ffbc c2af d83b
00000250: 3af3 933d 970e 2bbd 0122 68bd a376 0f3b
00000260: 3dd1 07bd dc7d 473c 7896 cb3c c8ea e5bc
00000270: 6f80 e73c aecc 353c 5bb9 22bd 920b 7c3b
00000280: 9e93 5fbc 6112 2ebd bf35 b3bd e109 543c
00000290: 72bc f83c 7f2c cc3c a158 21bc 5713 eabb
000002a0: ea74 81bc bc9e e53c e94a 053d 78a4 26bd
000002b0: 2798 34bd d037 ba3b 5766 d8bc b008 0abb
000002c0: 6991 053d e2e7 b2bc 9426 21bd cf37 063d
000002d0: 6819 e5bc 352e 1fbc 4c50 453d 4548 0dbd
000002e0: a43d 08bd b31c cf3c bbc3 dbbc 633e 933c
000002f0: e733 6c3c fe9c 2dbc d428 093d a0fa 24bd
00000300: ac03 67b9 73d6 1e3b 39f4 923b 4cda b23a
00000310: 72b6 ed3b f0fe a93c 3300 ce3c a2d7 48bb
00000320: f8b0 01bb b1f8 42bb 85b3 043c aa3a 213c
00000330: 4e1c 53bc ec1f c93b 3f91 c83b 538a 62bc
00000340: 9888 253b eeec 893b d753 abbb ef5e 123b
00000350: 1681 9c3a 6482 d8bb 4006 023b 0ab4 8d3b
00000360: 67a0 29bc 3526 ac3b 3d00 9d3c 4c2a 1d3c
00000370: 022b f2bb fce9 eb3a b9cb dd3a e5aa 7d3b
00000380: bca4 cfbb f350 1abb 4e5a 5ebc 8ed2 09bd
00000390: fc84 70ba 2b2a dbba 89e2 ed39 86ef 4d3c
000003a0: f680 6739 6e40 1c3c cdfa 123b cfd6 b2bb
000003b0: e7ec 96bb 0c94 1cbc c7a7 fbbb 85d9 8b3c
000003c0: e157 76ba 69df 9b3b f2b5 08bc 5c5d af3b
000003d0: b36a d0ba 092e 05bc a09d 63bc 8602 18bb
000003e0: bba7 1138 a76b e238 359f 94bc c79d c73b
000003f0: fde1 acbc d628 9bbb fd3d 963b 2e4c 08bb

lstm.weight_hh_l1 f4 [256, 64]
0.010045635 -0.030722547 -0.0905746 -0.021839675 -0.03997021 0.011675602 0.025991958 -0.014704768
0.09447981 0.03231128 -0.050630365 0.02105238 0.029480314 -0.003192294 0.027799185 0.022691293
-0.07732606 0.074076794 -0.0020777364 0.028254384 -0.07808878 -0.009515064 0.058121968 0.010575871
-0.00264702 -0.024526149 -0.095910996 -0.054746564 0.039497502 0.027749514 0.026549079 -0.0566491
-0.043268904 0.02188064 -0.023074275 0.0459205 0.0034449582 -0.047850896 0.016548425 -0.017912626
-0.011078777 0.037790008 0.031172305 0.017074823 0.03242642 0.040861692 -0.0046102083 -0.0713653
-0.042464916 -0.056018014 -0.020117963 0.056965977 -0.01610977 0.022254739 0.045682553 -0.03794013
0.003093614 0.05587728 0.018268274 0.030106029 -0.02806195 -0.0015994143 -0.0025652305 0.023209173
0.07365703 -0.111327246 0.0061946926 -0.015898962 0.021362565 0.05381288 -0.034858134 0.003092642
0.094620846 -0.03396163 0.055551626 -0.00087112444 0.02861424 0.03515736 0.0017679192 -0.04585394
0.013895583 0.11531361 0.107610226 0.019762086 -0.038912203 -0.09467664 -0.023895524 -0.047890197
-0.00435673 -0.06973159 -0.052185424 -0.07589125 0.012366087 -0.004317413 0.030282104 -0.027261145
-0.013645719 0.06499392 0.020968119 0.09014191 0.008684594 -0.116197295 0.06255204 0.0020491825
0.09575259 0.021165287 0.013291226 0.029524343 -0.00078312884 0.03686539 -0.0503124 0.065189205
-0.09923879 -0.05074515 0.029908141 -0.045781616 -0.05374788 0.07749345 -0.05427797 -0.038411062
0.016052367 -0.073093876 0.14019 -0.022379402 -0.065304756 0.0071793366 -0.057217386 -0.003131635
0.034616172 0.07773511 -0.01964473 0.0118692685 -0.01335928 -0.09568705 -0.029163698 0.028049929
0.04418281 -0.030770067 0.011699452 0.0040137838 -0.077030405 -0.006698927 0.0037342089 -0.0012800051
-0.007100411 -0.005915805 -0.042265404 0.041093268 0.0010952002 -0.052299038 0.01270084 0.029804219
0.002272995 -0.013019349 -0.008518808 -0.0643234 0.0081277955 -0.016361838 -0.030118437 -0.016896289
0.013041931 0.023439454 0.006153712 0.021658393 -0.0051700175 0.0008797872 -0.0065322146 0.009309637
-0.010853575 -0.0038146228 0.006397623 0.033807393 0.014497592 0.002062933 -0.018166898 -0.0015486723
-0.04450142 -0.061079774 -0.0014731879 -0.033377487 0.03361934 0.025954917 0.03604171 -0.009633299
0.029325398 0.033461884 0.03206969 -0.081103906 0.015267396 0.020648755 -0.04216617 -0.016883878
0.008661692 0.004597353 -0.0030595842 0.0033645057 0.0106518585 -0.0038949188 0.014919089 -0.000530431
-0.021256449 0.0062697544 -0.0030493927 0.008267315 -0.00893708 0.00048836996 0.0044613355 0.0015236968
-0.019051267 -0.010165625 0.018688727 0.009551598 -0.010305414 0.012581957 -0.005880334 -0.020169046
0.00033232832 0.010243157 0.006259206 -0.009408339 0.0014042405 -0.0020716202 0.0048566633 -0.021272901
-0.010064122 -0.00483452 0.004829889 -0.011058938 -3.600526e-05 0.0016564634 -0.0006598126 -0.00010002754
-0.035379123 0.002696424 -0.0011467327 0.0035908127 -0.017978976 0.025509689 -0.012279696 0.00052181346
-0.005576926 -0.017706925 -0.018105127 0.0071297 -0.015522352 -0.0041244514 0.007269121 0.01872996
0.0010261183 -0.012576517 -0.0057128086 -0.024398068 0.0002550598 3.0415864e-05 0.024065185 0.00090243766
00000000: 7296 243c daad fbbc 2d7f b9bd 1ee9 b2bc
00000010: ceb7 23bd 064b 3f3c 16ed d43c 44ec 70bc
00000020: a17e c13d d558 043d c961 4fbd 0a76 ac3c
00000030: b380 f13c ce35 51bb 1ebb e33c 17e3 b93c
00000040: 205d 9ebd 93b5 973d a22a 08bb bd75 e73c
00000050: 03ed 9fbd 12e5 1bbc 4d11 6e3d 6b46 2d3c
00000060: a079 2dbb 10eb c8bc fc6c c4bd ef3d 60bd
00000070: 22c8 213d f352 e33c 747d d93c e308 68bd
00000080: bc3a 31bd 073f b33c 4306 bdbc 2217 3c3d
00000090: cfc4 613b 4dff 43bd 9090 873c 80bd 92bc
000000a0: c283 35bc b2c9 1a3d 105d ff3c 80e0 8b3c
000000b0: 91d1 043d 975e 273d 3b11 97bb f827 92bd
000000c0: b1ef 2dbd 2573 65bd 6dce a4bc 2855 693d
000000d0: a3f8 83bc 924f b63c a11d 3b3d 1c67 1bbd
000000e0: 3bbe 4a3b 93df 643d 59a7 953c eba0 f63c
000000f0: 2de2 e5bc 70a3 d1ba 6d1d 28bb 2a21 be3c
00000100: 7fd9 963d 8aff e3bd d9fc ca3b 8a3e 82bc
00000110: 8c00 af3c e56a 5c3d 67c7 0ebd ecad 4a3b
00000120: 93c8 c13d 5a1b 0bbd 1a8a 633d 2c5c 64ba
00000130: 6968 ea3c 2a01 103d 86b9 e73a 57d1 3bbd
00000140: 4daa 633c 8b29 ec3d c062 dc3d 19e4 a13c
00000150: 6762 1fbd d4e5 c1bd 8cc0 c3bc 8328 44bd
00000160: e6c2 8ebb 70cf 8ebd 62c0 55bd df6c 9bbd
00000170: 219b 4a3c 1679 8dbb 2d12 f83c c452 dfbc
00000180: 4b92 5fbc 881b 853d 55c5 ab3c 529c b83d
00000190: d449 0e3c d9f8 edbd 491b 803d 944b 063b
000001a0: ef19 c43d d362 ad3c 71c3 593c 09dd f13c
000001b0: e34a 4dba 2a00 173d 6014 4ebd eb81 853d
000001c0: b53d cbbd 25da 4fbd eb01 f53c 8185 3bbd
000001d0: bd26 5cbd e3b4 9e3d 9452 5ebd eb54 1dbd
000001e0: 4180 833c 3eb2 95bd f88d 0f3e 0255 b7bc
000001f0: 80be 85bd a440 eb3b c75c 6abd 1e3c 4dbb
00000200: b0c9 0d3d 9633 9f3d fced a0bc 5277 423c
00000210: e2e0 5abc 92f7 c3bd b5e8 eebc f7c8 e53c
00000220: 09f9 343d 8211 fcbc 0faf 3f3c 0f86 833b
00000230: 1ec2 9dbd ac82 dbbb a1b9 743b d8c5 a7ba
00000240: 91aa e8bb 5fd9 c1bb 7d1e 2dbd 6a51 283d
00000250: d28c 8f3a 8437 56bd 2f17 503c fa27 f43c
00000260: 87f6 143b 1c4f 55bc 7892 0bbc fdbb 83bd
00000270: 722a 053c 4309 86bc f1ba f6bc 166a 8abc
00000280: d3ad 553c 1904 c03c 14a5 c93b f16c b13c
00000290: 4069 a9bb 85a1 663a 300c d6bb 7387 183c
000002a0: 31d3 31bc c0fe 79bb 27a3 d13b 9f79 0a3d
000002b0: 4f87 6d3c 4632 073b bfd2 94bc d2fc caba
000002c0: 1f47 36bd c92e 7abd fc17 c1ba d5b6 08bd
000002d0: 6fb4 093d 689f d43c 79a0 133d fcd4 1dbc
000002e0: d13b f03c 540f 093d 825b 033d ce19 a6bd
000002f0: 1a24 7a3c 9427 a93c 6fb6 2cbd 0f50 8abc
00000300: c5e9 0d3c 64a5 963b 4e83 48bb 0a7f 5c3b
00000310: 2285 2e3c e541 7fbb 326f 743c 9f0c 0bba
00000320: 0122 aebc 8372 cd3b 52d8 47bb a273 073c
00000330: d56c 12bc f405 003a 6530 923b c8b6 c73a
00000340: 6711 9cbc b98d 26bc 1a19 993c 4e7e 1c3c
00000350: 0ad8 28bc 8d24 4e3c d1af c0bb 8e39 a5bc
00000360: 5a3c ae39 ead2 273c 071a cd3b 6f25 1abc
00000370: 7e0e b83a 05c4 07bb a524 9f3b 8244 aebc
00000380: fde3 24bc e56a 9ebb 0c44 9e3b 8c30 35bc
00000390: 5b04 17b8 b01d d93a 46f7 2cba e0c5 d1b8
000003a0: b3e9 10bd 7db6 303b f74d 96ba d753 6b3b
000003b0: a548 93bc b2f9 d03c c730 49bc 4fca 083a
000003c0: a5be b6bb 1d0e 91bc 3451 94bc 42a0 e93b
000003d0: 7751 7ebc 6826 87bb ce31 ee3b 936f 993c
000003e0: d17e 863a bc0d 4ebc 8332 bbbb 75de c7bc
000003f0: 8cb9 8539 9225 ff37 5a24 c53c 9191 6c3a

lstm.bias_ih_l1 f4 [256]
0.061907146 -0.048284184 0.033305597 -0.09119054 -0.10251996 0.14752026 0.26865944 0.114657
0.07811754 0.067753136 0.024908623 0.022549955 0.09245197 -0.0214705 -0.08517642 -0.013644026
0.021020724 0.027066234 -0.045437437 -0.07269836 -0.02941484 -0.062432863 0.067668945 0.17509663
-0.030747114 -0.039384272 0.0016488838 0.01632789 0.082126506 0.09795769 0.06872024 -0.10239065
0.047833603 0.021961872 0.013606529 0.01632368 -0.07962354 0.040388647 -0.064268194 0.022113724
0.118800536 0.16857268 -0.072426155 0.01360184 0.07064709 -0.071331844 -0.08420907 0.2389678
-0.048084307 0.05906368 -0.033124525 -0.06445185 0.08517464 0.046038166 -0.08053842 -0.061850283
0.07068315 0.103967085 -0.06003996 -0.031458512 0.015286139 0.123160966 0.11497673 -0.06441623
-0.035496973 0.15828176 0.011286067 -0.054909278 -0.04079644 0.08382664 -0.048998337 -0.102059595
0.1478293 -0.107026204 -0.0032078333 -0.044880394 -0.07732763 0.002427851 0.05807047 0.022562575
0.11946488 0.07027509 -0.034820434 0.010185011 -0.03319276 0.091457985 0.048347626 -0.11845922
0.035710372 -0.041321125 -0.007924951 0.05099788 -0.091827445 0.013736862 0.15328567 -0.05704484
0.08000107 -0.028097428 -0.027269337 -0.052978016 0.08960506 -0.07252245 -0.047293764 0.005906018
-0.03294773 -0.052071314 0.09723378 -0.018703636 -0.0468125 -0.034606624 0.0023578512 -0.036734685
-0.010449146 -0.033856824 -0.011987817 0.014971215 -0.07604287 0.11019448 -0.06023166 0.11904804
0.014349287 -0.041937795 0.069890834 0.045935918 -0.0780684 -0.082306966 0.039924897 0.060768712
-0.008677948 -0.051588755 -0.072407044 0.08462731 -0.050471343 -0.038969435 -0.06435251 -0.02761015
0.10892278 -0.02819101 -0.083139695 0.08949785 -0.0783809 0.07033586 0.019804927 0.11866437
0.07215294 0.0238521 0.027648915 0.023900703 0.08786149 -0.051283274 0.11876611 -0.026421431
0.06467825 0.04512325 -0.05840483 -0.101319365 0.01655188 0.03794019 -0.09005708 -0.06804062
0.017071534 0.0073820166 -0.0051383725 0.10609308 -0.072098844 0.0016092301 0.06937567 0.040735267
0.0741926 -0.06357873 0.0035992288 -0.062092457 -0.09226002 -0.073681675 -0.0011842852 0.08016611
0.03931146 0.02731863 0.06111281 0.09278271 -0.05954883 0.12945497 0.100163855 -0.02543622
0.06918227 -0.06726917 0.10722859 -0.096047424 0.054964285 0.0057305293 -0.07333188 -0.07972531
0.12707244 0.10996543 0.072687455 0.015718821 -0.03815597 0.027662814 0.16250922 0.0353979
0.12605235 -0.09822811 -0.003602614 0.10105643 -0.023094041 -0.05192814 0.078496836 0.0051184236
0.063903384 -0.057335485 -0.028294336 0.13529442 -0.010437726 0.082370386 -0.0141630955 0.13371821
-0.044206936 -0.06503424 0.12646489 0.051567078 0.066466905 0.013367838 -0.048046503 -0.027640348
0.11618812 -0.074935086 -0.09777385 0.09293395 -0.093610816 0.086451896 -0.058468007 0.05531995
0.020461228 0.010138102 -0.045118667 -0.048705846 0.030490536 -0.044421967 -0.06275479 0.12232975
0.0862111 -0.10030524 -0.0752419 -0.080268025 0.11665665 -0.04545221 -0.086809136 0.10820652
0.080005504 -0.06454697 0.1382821 -0.07053775 0.07570979 0.12228634 0.061581418 -0.0246254
00000000: 5992 7d3d a3c5 45bd 736b 083d 1bc2 babd
00000010: fcf5 d1bd 8d0f 173e bb8d 893e 4ad1 ea3d
00000020: 17fc 9f3d 28c2 8a3d 2b0d cc3c afba b83c
00000030: 7557 bd3d e7e2 afbc fa70 aebd 318b 5fbc
00000040: a733 ac3c 02ba dd3c 9b1c 3abd e1e2 94bd
00000050: 64f7 f0bc 9ab9 7fbd 0496 8a3d 884c 333e
00000060: 5fe1 fbbc 6751 21bd 5c1f d83a 11c2 853c
00000070: f131 a83d 0b9e c83d 32bd 8c3d 30b2 d1bd
00000080: 2bed 433d 62e9 b33c ebed 5e3c 3db9 853c
00000090: ab11 a3bd 916e 253d 0b9f 83bd d727 b53c
000000a0: b24d f33d 519e 2c3e 2a54 94bd 40da 5e3c
000000b0: 6caf 903d 6e16 92bd ce75 acbd fab3 743e
000000c0: 0df4 44bd c2ec 713d 95ad 07bd 55ff 83bd
000000d0: 0b70 ae3d 8492 3c3d 54f1 a4bd b956 7dbd
000000e0: 54c2 903d b2ec d43d 76ec 75bd a4da 00bd
000000f0: b772 7a3c d13b fc3d eb78 eb3d a8ec 83bd
00000100: 4665 11bd 9d14 223e 32e9 383c 8de8 60bd
00000110: 2b1a 27bd 4dad ab3d 7bb2 48bd 9f04 d1bd
00000120: 9060 173e 8e30 dbbd 833a 52bb 81d4 37bd
00000130: f35d 9ebd 951c 1f3b 4ddb 6d3d 26d5 b83c
00000140: 01aa f43d 63ec 8f3d df9f 0ebd 08df 263c
00000150: 22f5 07bd 534e bb3d 2908 463d bf9a f2bd
00000160: 0a45 123d 5740 29bd a7d7 01bc 27e3 503d
00000170: 0710 bcbd 9310 613c ebf6 1c3e daa7 69bd
00000180: 9ad7 a33d 942c e6bc f263 dfbc 7aff 58bd
00000190: dc82 b73d a686 94bd 1bb7 41bd 4587 c13b
000001a0: 33f4 06bd bb48 55bd 8122 c73d 5e38 99bc
000001b0: 77be 3fbd adbf 0dbd 2e86 1a3b 1c77 16bd
000001c0: e532 2bbc 74ad 0abd 8c68 44bc d449 753c
000001d0: 5dbc 9bbd a5ad e13d 79b5 76bd 75cf f33d
000001e0: 4619 6b3c f7c6 2bbd ed22 8f3d 4d27 3c3d
000001f0: 53e2 9fbd 8e90 a8bd 4a88 233d 9de8 783d
00000200: f42d 0ebc bb4e 53bd 254a 94bd 1551 ad3d
00000210: 0abb 4ebd 6a9e 1fbd 40cb 83bd ae2e e2bc
00000220: e812 df3d d5f0 e6bc 2545 aabd a64a b73d
00000230: 2a86 a0bd 3f0c 903d f13d a23c 4e06 f33d
00000240: ecc4 933d 7b65 c33c fa7f e23c 68cb c33c
00000250: baf0 b33d 690e 52bd a53b f33d c271 d8bc
00000260: 0876 843d 28d3 383d e739 6fbd 8780 cfbd
00000270: cf97 873c 2c67 1b3d d96f b8bd e158 8bbd
00000280: 9ad9 8b3c d8e4 f13b cb5f a8bb 5447 d93d
00000290: 8fa8 93bd cdec d23a d514 8e3d 06da 263d
000002a0: 4af2 973d 9135 82bd 0ae1 6b3b a954 7ebd
000002b0: d2f2 bcbd 6be6 96bd 043a 9bba 212e a43d
000002c0: 0e05 213d 52cb df3c 6d51 7a3d dd04 be3d
000002d0: 79e9 73bd d88f 043e b522 cd3d 9f5f d0bc
000002e0: 6faf 8d3d 6bc4 89bd aa9a db3d 83b4 c4bd
000002f0: 3b22 613d 2ac7 bb3b 062f 96bd 0647 a3bd
00000300: 471f 023e 8e35 e13d 29dd 943d c2c4 803c
00000310: 6f49 1cbd 209d e23c d168 263e 63fd 103d
00000320: de13 013e d22b c9bd d519 6cbb acf6 ce3d
00000330: b72f bdbc 9ab2 54bd f3c2 a03d 73b8 a73b
00000340: c7df 823d 9dd8 6abd 86c9 e7bc 9f8a 0a3e
00000350: ff02 2bbc ceb1 a83d 540c 68bc 6ded 083e
00000360: 5512 35bd ac30 85bd 0380 013e 0038 533d
00000370: cd1f 883d c704 5b3c 69cc 44bd 036e e2bc
00000380: 09f4 ed3d 9177 99bd a83d c8bd 2854 be3d
00000390: 07b7 bfbd b10d b13d 267c 6fbd 2c97 623d
000003a0: 4e9e a73c 481a 263c 5ace 38bd c87f 47bd
000003b0: 4ac7 f93c cff3 35bd 9585 80bd 0588 fa3d
000003c0: 728f b03d d56c cdbd 6d18 9abd 9063 a4bd
000003d0: afe9 ee3d 192c 3abd fdc8 b1bd 619b dd3d
000003e0: edd9 a33d 3431 84bd d399 0d3e 1976 90bd
000003f0: bc0d 9b3d 4371 fa3d cc3c 7c3d 35bb c9bc
