best_ema20_model.pth (torch, 59105 bytes, 12 tensors)

lstm.weight_ih_l0 f4 [128, 4]
00000000: 0d16 a23d 71d3 06bd 44f4 093e ea17 03be
00000010: 64d6 ecbd 2bf5 14be 07bf 10be 4a2f 083d
00000020: b14d dabc 05ab b1bc e562 1dbe 784e 35be
00000030: 7d7f f53d 4885 31bc a456 463d 8737 40be
00000040: d977 be3c b2bb b6bd 7e61 0dbe 5945 97bd
00000050: f481 f73c a332 ea3c 22f7 26be 9576 043e
00000060: 02cb 5a3d c0aa d9ba 2924 cdbd 6ae8 b3bd
00000070: 368d 82bc 66c3 bdbd 352d e73b 1f20 013e
00000080: ddda 9a3d a300 e23d bd5b 36be 38a8 c5bd
00000090: cf74 653c 797f f33d fdc0 833d ff49 b03d
000000a0: 1468 1ebe 5b3b 7d3c a726 dfbd d224 f43b
000000b0: fecb 88bd 2c1c d93c 77b8 253e 0a58 bc3d
000000c0: 81ac f43d a3e4 50bc 76c0 023e 25d4 a3bd
000000d0: 40fd 4637 3cbf cfbd f0c7 5f3d f92c 02bd
000000e0: 81f9 bfbd 3394 21be 182d 433d 099b 693d
000000f0: bf2c 6e3d d5ed 0d3d 4fb2 1d3e 4634 953d
00000100: 75e3 4d3e db81 aebd 0fb5 213e bd3d bd3d
00000110: bc83 40bd 07a7 0f3e f86f 7a3e c71f 1d3e
00000120: 6ef4 24be 853e dbbd 2755 25be 7c3e 6fbe
00000130: 6a8f 03be ef16 1d3e cfb2 003e b68c 123e
00000140: 5716 293c f72c 813d 54aa 9f3c fbfb 1abe
00000150: 2b66 33bd c495 f1bd 7335 b13c 80e4 34be
00000160: 08ba 92bd 8a9f 843c 23ca f73d bfe0 7fbe
00000170: 3439 b1bd 2a5d b03d fa85 543d 52fd 7cbd
00000180: 460d 753d 1b7c 24be 252d 0f3e aa14 553c
00000190: 1149 343e e9cb 6c3d 02c0 173d 6b3a 80bd
000001a0: a1b1 853e e566 193e 0060 7f3e 3730 f93d
000001b0: 407b 143e 0269 3a3e 3f55 333e ae91 cebd
000001c0: cfd4 8ebd 9b19 b5bd dd97 c2bd db17 8f3d
000001d0: 2af5 acbe 94f7 1ebe ec78 adbe 7a46 08be
000001e0: 556d 2b3d 36df 5abc d3fe bf3b e5ad 683d
000001f0: e7b5 3e3e ddc6 0bbe 676a 513d c9d4 b03d
00000200: 1150 ea3d e2a5 7bbd 6ff2 473e 4cde cbbb
00000210: 1175 a6bd 5d15 f2bd b4f5 0abe 78be 293e
00000220: 21bf d43d 9433 e0bc 61ec ac3d dcb9 49be
00000230: 07f1 333d 539d 063e 5ba2 0f3e d64b d53d
00000240: 5fd6 c9bd 591a 7dbd 514c 42be 7225 b03d
00000250: cfa2 c3bd 5039 c23d 99e1 443e 6172 283e
00000260: c903 f1bd 4468 fb3d 1006 b63c 6fec 29be
00000270: 1a06 babd 2d22 03be 79fc d9bd a51b 4e3e
00000280: 0fa1 efbd b315 46be ba91 d7bc 707b 94bc
00000290: caf8 5c3d 54b5 293d d4d9 2a3e 0297 a5bd
000002a0: 46b0 1d3e 1c20 183e 36af bb3b 8e39 533e
000002b0: ffee 433e b349 3d3e 6290 223e d49c 263d
000002c0: 4e81 493e 83f3 2ebb 53d0 e9bc 9cbe 27be
000002d0: 8d94 4b3d 8f4a 1ebe 5313 453d ee3f 2a3e
000002e0: 909a 513e 2b63 11bc cc65 85bd 2170 8e3e
000002f0: 302d 143d 1936 82bd a259 01be 939a 7fba
00000300: f487 183e 9887 edbd 6158 113d 4624 e8bd
00000310: e86d 9c3d 1656 293e 9803 c33d 5dac 043e
00000320: d47c 65be 2d80 8cbc 8cd6 ba3c f64c 7bbe
00000330: 3403 0cbe 9275 82bd 9012 3d3e 316b e4bd
00000340: aa23 83bd 13ad 523d de6d 473d ec84 12be
00000350: 826f 93bc 5a00 8bbc 59a5 e2bd 37eb 3cbe
00000360: 50f6 323e 8ec1 12bd 549a 0a3e c30a 7d3d
00000370: b9f5 b63d a63e 29be 2f2a 4b3d 5a89 e83d
00000380: d5e0 bebd 45be 13be f326 91bb 3e96 f8bc
00000390: 1fb9 a5bd 3466 1c3e 8529 333e 4a81 f9bc
000003a0: afb2 6f3e ecbe ac3d b48c dd3d ebda 3b3e
000003b0: 7793 903d 34ae 693d 429e 053c c8b6 913d
000003c0: af4f 0e3e 6797 953d 65ea 6f3e 3c97 94bd
000003d0: a2d3 49bd cb47 27be 2071 07be 7b31 ca3d
000003e0: 5c5c aa3d 1565 2e3e f38e 663b e4e9 1abe
000003f0: d53e 5ebd 3949 9ebd dc94 51bd 930a ed3d
0.07914362 -0.03291649 0.13472086 -0.12802091 -0.11564329 -0.14546649 -0.14135371 0.033248223
-0.026648374 -0.021687994 -0.15369757 -0.17705715 0.11987207 -0.010834999 0.04842247 -0.18771182
0.023250507 -0.08922519 -0.13806722 -0.07386274 0.030213334 0.028588599 -0.16305211 0.1293586
0.05341626 -0.0016606674 -0.100166626 -0.08784564 -0.015936475 -0.09265785 0.0070549496 0.1260991
0.07561276 0.11035278 -0.17808433 -0.09651226 0.0140049 0.11889548 0.06433294 0.08607864
-0.1546939 0.015456046 -0.10896044 0.0074506784 -0.066795334 0.026502691 0.16183649 0.091964796
0.11946965 -0.012749824 0.1276873 -0.07999448 1.1860684e-05 -0.10143897 0.054634035 -0.03178117
-0.09373761 -0.1577919 0.047650427 0.05703262 0.058148142 0.034650642 0.1540005 0.07285361
0.20106299 -0.08520862 0.15791725 0.09240291 -0.04700063 0.1402856 0.24456775 0.15344153
-0.16108868 -0.10705284 -0.16145764 -0.2336368 -0.12847677 0.1534078 0.1256821 0.1431149
0.010320268 0.063074045 0.019490398 -0.15135185 -0.043798607 -0.11796144 0.021631932 -0.17665291
-0.07164389 0.016189355 0.120991014 -0.24988078 -0.08653489 0.0861152 0.051885583 -0.061765023
0.05982711 -0.16062967 0.13982065 0.013005415 0.17605998 0.05781165 0.037048347 -0.06261142
0.26112083 0.14980657 0.24938965 0.121673994 0.14500141 0.1820412 0.17512988 -0.1008638
-0.06974184 -0.088427745 -0.09501622 0.06986972 -0.33780795 -0.15524131 -0.3388132 -0.13308135
0.041852314 -0.013358882 0.005859235 0.056806464 0.18624078 -0.13650079 0.051126864 0.086343355
0.11441053 -0.061437495 0.19526075 -0.006221568 -0.081277974 -0.11820481 -0.13570291 0.16576564
0.103880174 -0.027368344 0.08443523 -0.19699806 0.043931033 0.13145952 0.14026777 0.10414855
-0.09855341 -0.061792705 -0.18974425 0.08600892 -0.09552538 0.09483588 0.19226684 0.16449882
-0.117683 0.122757465 0.022219688 -0.16594099 -0.09083195 -0.12806006 -0.106438585 0.20127733
-0.11700641 -0.19344215 -0.026314605 -0.018125266 0.0539482 0.041432694 0.16684657 -0.08085443
0.15399274 0.14855999 0.005727674 0.20627424 0.19134139 0.18485145 0.1587539 0.040676907
0.19678232 -0.0026695437 -0.02854172 -0.16381305 0.049702216 -0.1545813 0.048114132 0.1662595
0.20469117 -0.008873741 -0.06513557 0.27819923 0.036175907 -0.063579746 -0.12631848 -0.00097505114
0.14895612 -0.11598128 0.035484675 -0.113350436 0.076381505 0.16536745 0.0952217 0.12956376
-0.224109 -0.017150963 0.022807382 -0.24541077 -0.13673097 -0.06370081 0.18464112 -0.11153258
-0.06403287 0.051434588 0.048688762 -0.14308518 -0.017997507 -0.016967941 -0.11066694 -0.18449102
0.17476773 -0.03582912 0.13535434 0.06177784 0.089335866 -0.16527805 0.049600776 0.11354323
-0.09320227 -0.14428051 -0.004429692 -0.030345079 -0.0809195 0.15273362 0.17496307 -0.030457158
0.23408006 0.08434853 0.108178526 0.1834523 0.07059377 0.0570509 0.008155407 0.07114941
0.13897584 0.07304268 0.23429258 -0.07255408 -0.049274094 -0.1633598 -0.13226748 0.09872719
0.083183974 0.17030747 0.003518042 -0.15128285 -0.05425914 -0.0772881 -0.051167354 0.115742825

lstm.weight_hh_l0 f4 [128, 32]
00000000: eec0 0fbc 9d68 143d bbfd 60be e1ba 813d
00000010: b7f2 d2bd a21a 09be 6a8a 953d c9d6 a03d
00000020: 9b40 00be 939e 6a3e 5642 b63d 766e dabc
00000030: 621b b5bd 06cd 063e 7dd9 09be 0abe d83d
00000040: dee2 613d ab48 c0bd 0d3b 8d3d 78f0 7fbd
00000050: 7400 4e3d f817 86bd 0972 21be 5ac6 f63c
00000060: 64f5 f3bd 299b 0a3e 2e30 5fbe ad76 93ba
00000070: 07e1 67be 409e 28be 0519 9f3d cb0b 54bd
00000080: d574 c7bd 844d ee3c 986b b7bd 8455 d0bc
00000090: eb98 1dbd a5f7 1f3e 85a5 1bbe 6515 36be
000000a0: 6720 e53d 1cda 39be a521 18be 11df 803d
000000b0: facf 803d bc1d 00be 16fb 72bd c752 cf3c
000000c0: 5431 eabc c386 903d 527f b43d da6f 063e
000000d0: 750c 30be ee41 143e af30 303e f5d5 d93d
000000e0: 4a17 f73b 6429 de3d 6590 363e 65f9 153e
000000f0: c1b4 3abd e5f9 a63d 7662 073e 3659 77bd
00000100: e0f1 543e fe9f 923d 6ce0 013e 61be 853e
00000110: 565f 13be 9c57 393e 1e94 203e 14cf 893d
00000120: 261b efbd 06c0 0ebe 142c 1d3e 8f2a be3d
00000130: e7f6 d3bc 6352 24bc 4ec8 f3bd fd53 e53d
00000140: 30d1 143b bf61 83bd fcb8 b13d fca0 04bd
00000150: 8003 2b3e 5956 8b3e eb38 923d 5a2c 343e
00000160: 5881 6d3c 73ea ae3c 1052 8bbd 6bc7 613e
00000170: d52a d9bd 3b56 58be a436 1b3c 3e4a f03c
00000180: 2a44 053e ac70 123d 0ba6 21be 5e40 95bc
00000190: cf80 2fbd 9338 a43d 7c5c 693e c66e 693d
000001a0: 9e82 2e3e 538a b53d 245b 3f3e f10d afbd
000001b0: 8e81 1cbc a5e2 d7bd 7664 853c 84be 35be
000001c0: ff41 7d3d 2acb efbd d7b2 793e 471c 0ebe
000001d0: 6672 3a3d abf9 873c f605 6bbd b07a f1b9
000001e0: 8898 15be aa0c b7bc f139 4cbe 8fbd 80bd
000001f0: 26f1 90bd b7bb 383e 6dd4 89bc 15ca f73c
00000200: bf80 93bd b3e3 d6bd 0eae 423d 64c6 c63d
00000210: 899e 89bc 1cf9 333e 356d bd3d 984e 973c
00000220: 7d32 833d bf4f f53c 14fa 39bd 4084 83bd
00000230: 8112 3fbd 8ab2 e33d 8377 b43c 64b5 733d
00000240: f4ec b53d bb48 773c ca00 c63d 8b1c 803d
00000250: 6424 5cbd 2711 c6bd d59b 213e 23b2 febd
00000260: fbef 4bbb 2da2 283e 041d ddbd c08b eebd
00000270: 099c 203e 554d 2abe 330e 20bd c13d 6ebc
00000280: 4b4e 043d 9d09 f8bc 7620 eebd 4890 a13d
00000290: 3b0c 613d 11ad a3bc 80ba c73d d19a 043b
000002a0: d033 b93d 071f 913d 02d0 de3d f24a d9bd
000002b0: baac f6bd 6617 563e fccb cebd f616 dfbd
000002c0: 9641 12be 6066 833d aa71 893e bea3 083e
000002d0: 04d8 513e b7e1 283e eb9c 65be df02 c63d
000002e0: c115 76bd 0ad9 853d 631b d13b 1e93 493d
000002f0: ae88 3abe 2a2d 2f3e feb8 5b3c cb8f ecbd
00000300: 966f 9b3d 59e3 7ebd 5104 11be 0b20 d53d
00000310: dfd4 1e3e af2a 9a3d a2b1 613d 3c66 ef3d
00000320: 7cc2 fb3d 4c80 85bc e768 963d 4372 8dbb
00000330: afd4 77bd 343d 813d 6d77 e7bd de44 34be
00000340: 3379 0bbe afc2 63be 902d 203e c854 1dbe
00000350: a800 483e 3f9f ebbd ee5f 75bd 74a2 dcbd
00000360: 1a40 883d 1857 2a3c 518b 6cbe 59b9 c53d
00000370: f11e 26be e639 f63d 3e21 3ebe 0acb 173e
00000380: e520 553d ecc6 ac3d 1c1a 9e3d b709 ea3c
00000390: d891 cfbd b0ec 0d3e 0728 b1bd 45eb 913d
000003a0: d20a 1cbe ad37 0dbe fcf3 3a3d 5e45 e1bc
000003b0: 5f87 2b3e 16c7 9dbc d0b7 823d af5f b1bc
000003c0: 1d64 883d 70f4 e5bd 03ee fabd 6903 d0bd
000003d0: 0e72 00be a859 8fbd 61ba 993d 0910 b53d
000003e0: 4fd8 dd3d e83c 3fbe dfd1 073c 08e7 3bbe
000003f0: 836c 733e 7f07 b43d de6e af3d f882 d1bd
-0.008774025 0.03623258 -0.2197179 0.063344724 -0.103002004 -0.13389066 0.07301791 0.07853467
-0.12524645 0.22912054 0.08899371 -0.026664 -0.088431135 0.13164148 -0.13461871 0.10583122
0.055147998 -0.0938886 0.06896029 -0.06248519 0.0502934 -0.065475404 -0.15766157 0.030123878
-0.11912039 0.13535751 -0.21795723 -0.0011250578 -0.22644435 -0.16466618 0.07768444 -0.05176906
-0.09739081 0.029089697 -0.08956069 -0.025431402 -0.038475912 0.15621813 -0.1519986 -0.17781599
0.11187821 -0.18149608 -0.14856584 0.062925465 0.062896684 -0.12511343 -0.059321485 0.025308026
-0.028587975 0.07056954 0.08813347 0.13128605 -0.17192252 0.14478275 0.17206071 0.10636512
0.007540618 0.108477384 0.1782852 0.14645918 -0.045582537 0.08153132 0.13221154 -0.060387813
0.20795393 0.07159422 0.12683266 0.2612181 -0.14391837 0.18099827 0.15681502 0.0672895
-0.116751 -0.13940439 0.15348846 0.09285461 -0.025874568 -0.010029408 -0.119034395 0.1119766
0.0022707693 -0.06415128 0.08677861 -0.03238009 0.16700554 0.27214316 0.071397625 0.17595044
0.01449617 0.021352028 -0.068027616 0.22048728 -0.10603873 -0.21126644 0.009473477 0.029332276
0.13014284 0.035751984 -0.15785997 -0.01821917 -0.04284745 0.08018603 0.22789186 0.056990407
0.17042014 0.08864274 0.18687111 -0.08547581 -0.009552373 -0.10541276 0.016283255 -0.17748457
0.061830517 -0.11708672 0.24384628 -0.13877974 0.045519255 0.016598543 -0.05737873 -0.0004605851
-0.14608967 -0.022344906 -0.19943978 -0.062861554 -0.070772454 0.18040358 -0.016824925 0.030247727
-0.07202291 -0.10492649 0.047529273 0.09705809 -0.016799228 0.17575496 0.09249345 0.018470094
0.06406114 0.029945252 -0.04540451 -0.06421709 -0.046648506 0.11118038 0.022029644 0.05949916
0.08883086 0.015093024 0.09668119 0.06255444 -0.053745642 -0.0967124 0.15782101 -0.12436321
-0.0031118381 0.16468115 -0.1079655 -0.11647749 0.15684523 -0.16631062 -0.03907604 -0.0145410905
0.03230123 -0.030278021 -0.11627285 0.078888476 0.054943305 -0.019979985 0.09752369 0.002023388
0.090430856 0.07085996 0.10879518 -0.10609998 -0.12044664 0.20907363 -0.10097501 -0.10893051
-0.14282832 0.06416011 0.2684453 0.13343713 0.2049256 0.16492353 -0.2242314 0.09668516
-0.06007934 0.065355375 0.0063814386 0.049212568 -0.18216202 0.17107072 0.013410805 -0.11550864
0.07589643 -0.062228534 -0.14161803 0.10406502 0.15510891 0.075276725 0.055101044 0.116894215
0.12292954 -0.016296528 0.07344227 -0.0043165996 -0.060505565 0.06310502 -0.113020755 -0.17604396
-0.13620453 -0.22242235 0.1564238 -0.15364373 0.195315 -0.11504983 -0.05990594 -0.10773173
0.066528514 0.010396741 -0.2310002 0.09654493 -0.1622274 0.12022762 -0.18567368 0.14823547
0.052033324 0.08436379 0.07719824 0.028569086 -0.10135239 0.1385982 -0.08650213 0.07124952
-0.15238503 -0.1379077 0.045642838 -0.027498897 0.16750859 -0.01925997 0.06382716 -0.02165207
0.0665972 -0.112282634 -0.122524284 -0.101569004 -0.12543508 -0.069995224 0.07506252 0.08840949
0.10832273 -0.18675578 0.008289783 -0.1834985 0.23771863 0.08790492 0.08566068 -0.102300584

lstm.bias_ih_l0 f4 [128]
00000000: 3baf 91bd e344 f1bd 425b 5a3d 16c8 c13c
00000010: 313e 7ebd 56d2 193e 5f7e 3b3e f721 83bc
00000020: de76 89bd c5de 6bbd c3e0 6cbc 6845 343d
00000030: 4f9e 9f3d 9e4e 083e 499c 353e b1b3 493e
00000040: d324 0d3e 224b a03b bec0 ea3d 6cdb f0bd
00000050: 9962 4e3e 1616 e43c f4af 5b3d 8c0a 7a3e
00000060: b06f babd da75 ab3c 6588 103e ece3 8cbb
00000070: e096 76bd 97ee bebc e49c d73d 46a4 033d
00000080: 6899 723c 1e28 79bd 63a0 303e 1362 4d3d
00000090: 6725 243e 0874 d33d 8fff 103c ac11 5abc
000000a0: 5370 003e 848d ff3d e043 5b3e 3527 c9bd
000000b0: 6591 ebbc 8f09 c1bd 181d 1a3d f9a7 b5bd
000000c0: de06 513d 99b5 f83c 33ff 0b3e a847 5dbd
000000d0: cf06 223b 7a0b 7cbc 0eb8 363e b308 cdbc
000000e0: fd0a 00bd 35c2 933d 7897 c039 ba1e eebd
000000f0: 0137 133e 5096 7abd b4d7 7ebb 3a46 753e
00000100: a843 bf3d e452 ee3d 260d e0bd fcc4 b3bc
00000110: ed7e 67bd 1c47 6c3c d74e 4e3d 24ed 883d
00000120: cc5b 593d e4e5 1d3e 3cef 153e 9283 993d
00000130: 96c6 e43d 8290 bb3d d391 35be 2013 97bd
00000140: 328d babd 03fd f9bd 13f2 263e 8079 1c3e
00000150: 7069 9e3d 31d3 86bd db57 db3d 69a1 46bd
00000160: 8f3b 1c3d 0d47 af3d acf1 2cbd dd0e 0b3d
00000170: 354e b5bd e8da ddbd 8585 32be 2df2 eabd
00000180: d96c ae3d bce5 913d fcc6 6a3e feb0 93bd
00000190: 9e0a e6bd ffe6 26bd 9f19 c6bd 74c5 cbbd
000001a0: 7263 1ebd db5a 4c3e c63b e43d 0396 12bd
000001b0: c4e2 fa3d 9f41 8cbd f844 c03d 50f2 463e
000001c0: 0168 263d 6653 afbd a341 9f3d c98f 34bd
000001d0: 1995 d73b 7148 0cbe 7a36 913c 18c7 863e
000001e0: dd14 14bd 9e98 24bd fead e13d d6d2 683d
000001f0: 3694 e8bc 9de1 bdbd bdc0 ddbc 93d4 303e
-0.07113501 -0.11780717 0.053309686 0.023654979 -0.06207103 0.15021643 0.18309925 -0.016007407
-0.06712125 -0.057585496 -0.014457884 0.044011503 0.07793867 0.1331124 0.177354 0.19697453
0.13783579 0.004891769 0.11462544 -0.117606014 0.201548 0.027842563 0.0536346 0.24418086
-0.09103334 0.02093022 0.1411453 -0.0042996313 -0.06020248 -0.023307128 0.105279714 0.032139085
0.014807083 -0.060829274 0.17248683 0.05014236 0.16029893 0.103248656 0.008849992 -0.013309877
0.12542848 0.12478164 0.21412611 -0.09821931 -0.028755853 -0.09425651 0.037625402 -0.08869929
0.05103194 0.03036003 0.1367157 -0.054023415 0.0024723297 -0.015383596 0.17843649 -0.025028562
-0.03126048 0.072147764 0.00036733947 -0.116269544 0.14376451 -0.061178505 -0.0038885893 0.2395257
0.09339076 0.11636904 -0.10940008 -0.021944515 -0.05651753 0.014421251 0.050368156 0.06685856
0.05306606 0.15419728 0.14642042 0.07495798 0.1117069 0.09158422 -0.17731409 -0.07376695
-0.09108962 -0.12206461 0.16303281 0.15280724 0.07734954 -0.0658325 0.107101165 -0.048493776
0.038142737 0.08558474 -0.042222664 0.03394972 -0.088528074 -0.10832769 -0.17433746 -0.114719726
0.08516855 0.071238965 0.22927469 -0.07211493 -0.11232494 -0.04074764 -0.096728556 -0.099497706
-0.038669057 0.19956534 0.111442134 -0.035787594 0.12250283 -0.06848454 0.09388155 0.19428372
0.04062653 -0.08560829 0.07776191 -0.044082437 0.006579053 -0.13699509 0.017726172 0.2632377
-0.03615271 -0.04018461 0.110195145 0.056841694 -0.028390985 -0.09271548 -0.027069444 0.1726859

lstm.bias_hh_l0 f4 [128]
00000000: 17d3 513e fbff a6bd 97e5 c13b 7bed 113d
00000010: 878a 32be 70a1 3a3e f3df b7bd 15b6 74bd
00000020: 8cae 913d b879 733d fa0c a7bd cd56 a73d
00000030: 3324 503e c205 77bd 4701 2bbd 0926 c2bd
00000040: 4d53 48bd 8aea 5dbd da19 893c dc30 c43d
00000050: 2381 413d 07e7 0abe 422d 4d3d 58c2 123e
00000060: c414 893c 3059 253e db37 4fbd e07a 703d
00000070: 49cf 873c 10d7 363e 9e20 633d f180 fabd
00000080: 0478 353c 464b 083e 2b67 f53d 74d0 d63d
00000090: 3aa5 ac3d 0e08 e4bd 66d3 a93d 1beb fabd
000000a0: 956a 9d3d d605 883d c51c 373d df28 7c3e
000000b0: 234f a9bd 62c6 a63d 338c b93d 5b98 5a3e
000000c0: bcfe e53d 7b17 493e ce10 e53c 907a 9cbc
000000d0: 0bef 3b3e 05c2 003c fe2b 503d 3105 f93d
000000e0: 9191 503d 7fe8 ce3d a3f4 af3d fb29 8b3d
000000f0: cccc b4bd bd7d 21b9 7642 d83d cfe1 873d
00000100: 3eee 07bc 19b6 10be bd45 83bc 362e fb3d
00000110: 7b20 14bd 5f96 9b3d 2ad4 333e 181b 243d
00000120: 8029 69bb 206a 983c 854f 253e 304c 03be
00000130: 33d8 16be 6a92 3d3e db59 9c3d c506 f13d
00000140: 1990 e83d 5456 2bbc de15 5f3d 2dfe 1e3e
00000150: dec8 2b3e cd73 383e b10d 0bbe ad5b ba3d
00000160: e46f 74bc 4b2f 283e ed19 9c3d bad9 1e3e
00000170: efc3 1dbd 7c34 ccbc cc75 cfbd 5b69 ec3d
00000180: 2168 0f3e 323d 833d 697a b53d 3fe5 bbbd
00000190: b0eb 003e 824f 543e 5945 473e a637 35be
000001a0: 1b63 eebd d58b 3c3e 972a ec3d a928 2fbd
000001b0: 9350 2cbc c3fd fcbc e2ad ca3d 4c88 583e
000001c0: f80e 7d3d b864 553e 2882 3d3e 0341 45bd
000001d0: 1a2b 483e 92a7 a03d e121 f53d 1df8 113d
000001e0: 65c0 153e 83e4 27bd 37ea 133e 3848 89bd
000001f0: 80be 803d e129 243c 9aec 323e 3a76 753d
0.2049068 -0.08154293 0.005917262 0.03562687 -0.17435656 0.18225646 -0.08978262 -0.05974396
0.0711337 0.059442252 -0.08156772 0.08170853 0.20326309 -0.060308225 -0.041749265 -0.09479911
-0.048907567 -0.054178752 0.01673596 0.09579632 0.047242295 -0.13564692 0.05009199 0.14331949
0.016733535 0.16147304 -0.050590377 0.058710933 0.016578333 0.17855477 0.055451028 -0.12231625
0.011075977 0.13309965 0.11982568 0.10488978 0.08429952 -0.11134349 0.08292274 -0.12251874
0.076863445 0.06641738 0.04470517 0.24624966 -0.08267047 0.08143307 0.09059944 0.21347181
0.11230227 0.19637863 0.027962115 -0.019101411 0.18352906 0.007858758 0.050823204 0.12159193
0.050920073 0.10102939 0.085915826 0.067951165 -0.088281244 -0.00015400998 0.105595514 0.066348664
-0.008296547 -0.14131965 -0.016024465 0.122646734 -0.03616379 0.075970404 0.17561403 0.0400649
-0.0035577714 0.018605292 0.16143616 -0.12822032 -0.14730911 0.18512884 0.07634326 0.11768869
0.113556094 -0.010457594 0.054464214 0.15526648 0.16775844 0.18012924 -0.13579442 0.09099517
-0.014919255 0.16424291 0.076221325 0.15512744 -0.038516935 -0.02492737 -0.1012989 0.115435325
0.14004566 0.064081565 0.088612385 -0.091745846 0.12589908 0.20733455 0.19460048 -0.1769701
-0.116399966 0.18412717 0.11531561 -0.042763386 -0.010517257 -0.030882722 0.09896447 0.21145743
0.061781853 0.20839202 0.18506682 -0.048157703 0.19547692 0.078444615 0.119693525 0.03563701
0.14624174 -0.04098941 0.14444815 -0.06703228 0.06286335 0.01001975 0.17473069 0.059927203

lstm.weight_ih_l1 f4 [128, 32]
00000000: 7c29 633d 568a 0c3e 4268 bc3c f2e0 fd3c
00000010: b47e db3d ef4d 29bd cd78 073e 089d 173d
00000020: 3528 59be 7c5c f0bd 80ad 2338 5b25 51bd
00000030: 2f11 1cbe 57d5 cd3d 81d2 bfbd de91 d83d
00000040: cae1 633e 95cc 123e 0157 cabc f5f1 b4bd
00000050: 3254 763d db18 8fbb 17e1 62bd 2b7b 163e
00000060: 1590 21bd 4b6a 063e 1f3d 2fbd a7a7 b3bd
00000070: 3d75 2dbc 19eb d53d 283a dbbb 4923 56be
00000080: 1161 cf3c c4bf 08be d4ec 34be d66f 47bd
00000090: d902 63bc 8bec 523d e2e8 56bd cb5b c1bc
000000a0: de76 9c3d e25b 0bbd d281 1e3e a518 bb3d
000000b0: 9507 54bd 0f0a 933d ba24 7c39 63d8 383e
000000c0: b73e 89bd 95a2 ae3d 12e4 3bbc 4fc0 bebd
000000d0: 7dd7 debd 8bd7 023c ee6a 6c3d 919d 11be
000000e0: 26a7 babd 2220 1c3e 564f 42be 03de e7bd
000000f0: 2977 18be 5fb4 3e3e 9da9 a9bd 9a65 3fbe
00000100: 839f 7d3d ed3c 223d 9a5f 3bbd 1cc4 003e
00000110: ce6e fc3c 5543 2dbe 2ffd 81bd 7ce7 163e
00000120: dc17 ef3d ebfe bb3c a63a 8e3b dbd3 05bd
00000130: ee7a e1bd 544b d9bd e19b bfbd a6c2 b53c
00000140: ee30 b33d 8404 d53b de61 ffbd c7c4 2ebd
00000150: f884 a33d 09f0 ee3d a7cc de3d 08dc ecbd
00000160: 1e17 34bc a048 babd 7fec 50be f0db 173e
00000170: e516 67be fbd3 8b3d c128 b2bd 7414 183e
00000180: 9387 29be e63c afbd fdc0 623b 297a 6d3d
00000190: 34c8 38be 9db1 473e 4652 d03c 3fa4 2f3c
000001a0: f555 19be 9cb8 debd dde3 033e f495 a03b
000001b0: 6cfc 2a3e b860 043e 0cfe 26be ccb9 053e
000001c0: 23c0 33bd 0e96 cfbd 75e8 0ebd 6174 debb
000001d0: dc8e 733d dc98 7b3e 65e1 84bd 5001 163d
000001e0: b787 123e a753 1f3e 5663 95bd ae3d 83bd
000001f0: 7dc3 3d3d 83a1 bf3d ec13 393d a864 b43c
00000200: 2283 db3d 67b2 383e 722a 873d 379a 01be
00000210: f946 0cbe d717 27be 6000 a6bd f1dd b43d
00000220: b8e9 4bbe 214a df3d 5a89 9bbd 4f8a 203e
00000230: 33ef 05be f9cb 273e 63a5 bc3d 6504 8fbd
00000240: f32e 523e c44e a13d 5c92 babd 336e d7bb
00000250: 4cdb 903d 9d0d 38bc c32d 38be 122f fb3d
00000260: e660 363e 01a7 d6bd 236d 403c f464 103e
00000270: f132 343d 8207 f4bd eeb2 2dbe f753 96bc
00000280: aa4f 4b3e 400f f5bd f178 ee3d b7d1 193e
00000290: 4797 813d e1b9 45bd 2697 223e 8463 c53d
000002a0: e6fb 90bd 04b7 ffbd fdc3 06be 6f93 1e3c
000002b0: 1643 403d 54c0 f33d 343d afbb cc81 c73d
000002c0: a1a0 7a3b 791c b53d 43f6 55bd ff86 cfbc
000002d0: 148f f83d 3183 953d 2dad cb3c 8782 bbbd
000002e0: 7145 0f3d dcb2 a33d 28a5 c5bd 45cc 1cbe
000002f0: 58ed 03be a459 803d 72e2 2bbd 4312 58bc
00000300: 8fca 773e 6e77 b0bd 9ab3 a13b 58e6 263e
00000310: e192 41be de47 17be 4f9f 8abd f426 cebd
00000320: 032b 63bd 7f94 2d3c 1af4 6d3d 3761 a33d
00000330: f048 5abc 4630 853d ec08 cdbd 2035 a43d
00000340: b3f8 753e 9654 8cbc 9763 99bd 465a ea3d
00000350: 8f14 0e3e 0cc1 433c 2d1a dc3d 7e91 47bd
00000360: 631f 23bd 7f2f 003e f4ec 14be d363 fa3d
00000370: efe1 fabc 0602 15be d385 b3bd adf9 43be
00000380: 9f84 223e 4b10 3c3e 1bfb 20bd ca34 2b3b
00000390: f60d c1bd 9f5c 6b3c 8076 83bd dc4c 0bbe
000003a0: 4a49 ee3b 471c 08be 7012 553e 2ea2 7abc
000003b0: 7a4b 62be 7189 a4bd acb4 a7bd eb16 9c3d
000003c0: ea3b 4f3d dcdd 02be 974f 9ebd 1a95 a73d
000003d0: 85f6 373e 153a 5ebc 3cdf 37be 5e64 6f3d
000003e0: f43c 023e 0315 b3bd 0ff6 da3d 4d43 44bd
000003f0: eca9 cbbd 623a 373e 21c5 b63d d013 e23c
0.055459484 0.13724646 0.022998933 0.030991051 0.10717526 -0.04133409 0.13229676 0.03701499
-0.21206744 -0.1173639 3.9023813e-05 -0.051061016 -0.1524093 0.10050457 -0.09366322 0.10574697
0.222541 0.14335854 -0.02469969 -0.08835212 0.06013889 -0.0043669767 -0.055390444 0.14695422
-0.039444048 0.13126485 -0.0427829 -0.087722115 -0.010587034 0.10445232 -0.0066902824 -0.20911898
0.02531484 -0.13354403 -0.17668468 -0.04869064 -0.013855659 0.051495116 -0.052468188 -0.02360334
0.076398596 -0.034023173 0.1547921 0.0913556 -0.051765043 0.07179653 0.00024046274 0.18051295
-0.06701415 0.08527104 -0.01146795 -0.09314024 -0.10880945 0.00798596 0.057719164 -0.14220263
-0.09113912 0.15246633 -0.18975577 -0.11321642 -0.14889206 0.18623494 -0.08284304 -0.18691102
0.0619197 0.039608885 -0.04574547 0.1257481 0.030814555 -0.16920216 -0.06347119 0.14736742
0.11674473 0.022948703 0.0043404875 -0.032672744 -0.11009775 -0.10610071 -0.093559034 0.022187542
0.08749567 0.0065007824 -0.124698386 -0.04266813 0.07984346 0.11666877 0.10878878 -0.11565405
-0.01099184 -0.09095883 -0.20402716 0.14829993 -0.22567327 0.068275414 -0.086991794 0.14851552
-0.16555624 -0.08556537 0.0034599893 0.05797783 -0.18045121 0.19501348 0.025429856 0.010720312
-0.14974196 -0.10875055 0.12879892 0.0049006883 0.16697854 0.1292752 -0.16307849 0.13059157
-0.043884408 -0.101360425 -0.034889657 -0.006788776 0.059462413 0.2457003 -0.06488303 0.036622345
0.14309584 0.15559255 -0.072943375 -0.06408249 0.04632901 0.09356978 0.045185015 0.022020653
0.10718371 0.18036805 0.06599893 -0.12656485 -0.13698949 -0.16317688 -0.0810554 0.088313945
-0.19913375 0.10902811 -0.07594557 0.1567776 -0.13079529 0.16386403 0.092112325 -0.0698326
0.20525722 0.078763515 -0.09109947 -0.006574416 0.070730776 -0.011233714 -0.17986207 0.12264837
0.17810401 -0.10481072 0.01174477 0.1410101 0.043993894 -0.119154945 -0.16962788 -0.018350584
0.19854608 -0.11965799 0.116441615 0.15021406 0.06327682 -0.04827297 0.15877971 0.09638122
-0.07079296 -0.12486079 -0.13160701 0.009678706 0.046938978 0.11901918 -0.005347872 0.09741554
0.0038242715 0.08843321 -0.052236807 -0.025332926 0.12136665 0.073004134 0.02486285 -0.091557555
0.034978334 0.07993099 -0.09650642 -0.15312298 -0.12883508 0.062670976 -0.041964002 -0.013187948
0.24198364 -0.086165294 0.0049347403 0.16298807 -0.18903686 -0.14773509 -0.06768667 -0.100660235
-0.05546094 0.010594486 0.05809412 0.07977527 -0.013323054 0.06503348 -0.10011467 0.08017945
0.24020652 -0.017130177 -0.074896984 0.114429995 0.1387503 0.011947881 0.1074718 -0.048722737
-0.039824855 0.12518118 -0.14543515 0.12226071 -0.030625312 -0.14551553 -0.08765759 -0.19138213
0.15870903 0.1836559 -0.039301973 0.0026123994 -0.09426491 0.014365344 -0.064190865 -0.13603538
0.0072719203 -0.13292037 0.20807815 -0.015297456 -0.22099105 -0.08034027 -0.08188757 0.07621559
0.050594248 -0.12779945 -0.07730024 0.08182736 0.17965133 -0.0135636525 -0.17956251 0.058445327
0.12718564 -0.08744242 0.10691463 -0.047915746 -0.099445194 0.17893365 0.08924318 0.027597338

lstm.weight_hh_l1 f4 [128, 32]
00000000: aa45 1c3e 91c0 67bd ddc6 583d 9f0b 183e
00000010: d002 2a3e 7826 f93d 2b2d b93c 9784 d23d
00000020: 8b53 88bd 8274 263e ff98 04be 9301 73bd
00000030: e93b 31bd f95e 00be 0ed5 733d 9d99 2d3c
00000040: ecac 93bd bc42 52be 4f81 9b3d 5433 0bbd
00000050: e332 863d 154f 853d 2d1d b53d f5a7 0bbc
00000060: 8c24 fdbd 2410 ba3d 5f19 30be 9255 d53d
00000070: 6dd7 453d 3642 03bd 1eb1 63bd df31 043e
00000080: e437 a2bd 6437 d4ba 506e 09be 81b7 8bbd
00000090: 9b6b a03d 7e34 9e3c 057c ce3d c7b5 483d
000000a0: bd11 e63d 4b8e 003e 5857 1abe 84e0 c1bd
000000b0: 802f d8bd d1bd 823d b886 0c3e 28cb 47bd
000000c0: f733 81bd 8c9a 4cbd 1a68 cebd f60c 73bd
000000d0: 59b4 d0bd c823 88bd 08ec a03c ccdd babd
000000e0: 05a3 87bd 228e 5a3e cc92 0f3c 18ad 0cbe
000000f0: c7dc 9aba 16de 083e 8b4f 32bd 1eb1 c9bd
00000100: 73d0 c03d d6e1 a4bd 9124 45be ad06 323e
00000110: 6f2b 14be fc8f 04be 2e64 e53a d8c8 f13c
00000120: 6655 353e 5cea e73c a51d 0d3e 197e be3d
00000130: dc2e 163d 03eb 18be 143b e6bd 4a12 bc3d
00000140: 5edf 053e bfd0 53be e684 28bd cb55 d2bd
00000150: c2a1 b23b d4ed bfbd d1d6 a4bd e4e6 eabd
00000160: fadc 9abb c819 e83c c4ac 383d f358 ea3d
00000170: f91b 5fbc c5b1 2fbd f669 aa3d 647b cc3b
00000180: 474b cdba cac2 3abd 54a8 f7b9 a786 13bd
00000190: 21e0 85bd 2618 bc3d 31ec 6cbd 11dd 8d3c
000001a0: 6e18 51bd 0b9d c53b de44 f5bc bc02 25be
000001b0: 7d30 053e f397 583d 40da cabd 7987 a93c
000001c0: 4cb8 fbbc af8d 153c 68b7 943d 966c b9bc
000001d0: 7006 ef3d 9f86 ab3c c104 64be 4dca 8cbd
000001e0: 744a bd3b 0eee 0b3e 7372 dabc 538b 7dbc
000001f0: 66bb e73d 8a92 e2bd 6e64 c63d cf05 05be
00000200: 1c97 9a3c 5aa6 cbbd 0d0c b23b 24a8 783e
00000210: 35a0 6b3d acc4 19be f75f 1cbe 0c76 e33d
00000220: 4c87 9e3c 0505 acbd 8cc7 19be 4f18 c7bd
00000230: 73f7 cd3d e720 8a3d 221c c13d 0cb5 37be
00000240: dbb5 bdbd a077 0fbe 9807 91bc ff52 623d
00000250: c542 9ebd 1e4a f4bd a77a 2e3d e708 e93d
00000260: 7e75 873d 3c0d a73d 9abe 933d f82f c93d
00000270: 553f 6d3d 5a6b 14be 86ea 043e 8b01 d2bc
00000280: 0824 86bd eb69 853d 19de f93d 1eda bebc
00000290: 2004 6cbd 743c 1ebe a705 44be f8cd 14be
000002a0: d8a8 023e fee7 4f3d 0e5a 9abd 3cfe c13c
000002b0: ab0e fa38 12bc 07be e55e c1bd 440d 40be
000002c0: fd8a 663c 8e87 95bd f7c9 f23c 7f4c 6d3d
000002d0: 5b55 afbd 09b0 03be ce46 b13c 70ec bcbd
000002e0: 0f0f e63d 2eb7 d5bd 63de 00be c2f3 553d
000002f0: 4051 433d 54cb 203d 7b60 e2ba 2ebb d73d
00000300: c975 2a3d 42d2 043e 83b3 0fbc da59 81bd
00000310: c367 66bd 71f8 4bbe 570a b73c cd69 883d
00000320: 1f02 c4bd 8b4a 0e3e 696d 08be 105c 52bc
00000330: 20d4 2bb7 c4d3 34be 5583 713d 24e2 133e
00000340: e6a5 63bd 8bf4 2c3d 3318 ca3d a45b 02b9
00000350: d2ee b3bd e9b3 f73d 702b ebbd b971 90bd
00000360: 64e6 6b3d a1c3 203e 822f bbbd 6a80 93bd
00000370: 0814 d53d 9296 db3c 3c5b d33d bae4 023e
00000380: 4981 c2bd 7c3d 45be 2e3f 56be a5af 3c3e
00000390: d127 593e fd2c cc3c 59a1 fbbc 5a68 debd
000003a0: 87d1 1f3e d65f bebc b40b c1bc 79a7 983d
000003b0: 39ff 3ebd 4838 0e3d d1a5 03be 1b0b 1ebe
000003c0: 428e c7bd 22ca 2cbd 9b4f cbbd 3a1c 08be
000003d0: f2bc 4abe fbba 043e f12f 19be d77a 27be
000003e0: 13fb 08be f4e8 663e c288 61bd 8c62 4d3a
000003f0: 145c ca3d 0ce9 283d 89f1 d53d 0469 87bd
0.1526095 -0.05658013 0.052924026 0.14848183 0.16602635 0.121655405 0.022604546 0.10279196
-0.066565596 0.16255382 -0.12948988 -0.059327673 -0.043270025 -0.12536229 0.059529357 0.010595706
-0.072107166 -0.2053327 0.07593023 -0.033984497 0.065526746 0.06509224 0.088434555 -0.008523931
-0.123604864 0.0908511 -0.17197178 0.10416712 0.04830115 -0.032045566 -0.055588834 0.1290965
-0.079208165 -0.0016190824 -0.13420987 -0.0682211 0.07833024 0.01931214 0.100822486 0.04900148
0.11233852 0.1255428 -0.15072381 -0.09466651 -0.10555935 0.06383861 0.13723266 -0.04877773
-0.0630874 -0.049952075 -0.100784495 -0.059338532 -0.101906486 -0.0664745 0.019643798 -0.09124336
-0.066228904 0.21343282 0.008763026 -0.13737905 -0.0011815064 0.13365969 -0.04353289 -0.098482355
0.094147585 -0.08050887 -0.1925223 0.17385359 -0.14469694 -0.1294555 0.0017501169 0.029514715
0.17708358 0.028309993 0.1378084 0.09301395 0.036665782 -0.149334 -0.11241737 0.09183176
0.13073489 -0.20685099 -0.041142367 -0.1027027 0.005451412 -0.09371534 -0.080487855 -0.1146982
-0.0047260495 0.028332606 0.045086637 0.11442747 -0.013617509 -0.042894144 0.08320992 0.0062402952
-0.0015662693 -0.04559592 -0.00047236925 -0.036017086 -0.0653689 0.091842934 -0.057842437 0.017317327
-0.05104869 0.006030684 -0.029940065 -0.16114324 0.13006778 0.052879285 -0.09904909 0.020694481
-0.030727528 0.009128018 0.072615445 -0.022634786 0.1167115 0.020938216 -0.22267438 -0.06874523
0.005776698 0.1366503 -0.026665902 -0.015475112 0.1131504 -0.11063106 0.09687124 -0.12990497
0.018870883 -0.099438384 0.0054335655 0.2428289 0.057525832 -0.1501643 -0.15270983 0.111065
0.019351624 -0.08399395 -0.15017527 -0.09721433 0.10056963 0.06744557 0.09429194 -0.17940158
-0.09263202 -0.14010477 -0.017703816 0.055254932 -0.07727579 -0.11928199 0.04259744 0.11378651
0.06614207 0.08156821 0.07214089 0.098236024 0.057921726 -0.14494076 0.12980089 -0.025635501
-0.06549841 0.06514343 0.12200565 -0.023297366 -0.05762112 -0.15452749 -0.19142781 -0.14531696
0.12759721 0.050758354 -0.07536708 0.023680799 0.00011923661 -0.13255337 -0.09441928 -0.1875506
0.014071223 -0.07301246 0.02963732 0.05793428 -0.08561202 -0.12860121 0.021640208 -0.092247844
0.11233341 -0.104353294 -0.12584834 0.05223442 0.047684908 0.03925641 -0.0017271185 0.105337486
0.041616235 0.12970832 -0.008770826 -0.06315966 -0.0562513 -0.19918992 0.022343798 0.06660805
-0.09570717 0.13895623 -0.13322987 -0.012839332 -1.02417835e-05 -0.17658907 0.05896314 0.14441735
-0.055578135 0.0422254 0.09867897 -0.00012431905 -0.08785786 0.12094862 -0.114828944 -0.07052941
0.057592764 0.15699627 -0.09139921 -0.072022274 0.10404211 0.026805196 0.10320136 0.12782565
-0.094973154 -0.19261736 -0.20922539 0.18426378 0.21206595 0.024923796 -0.030716585 -0.10859747
0.15607272 -0.023239058 -0.02356515 0.07453818 -0.046630118 0.034721643 -0.12856223 -0.15433924
-0.097439304 -0.042184956 -0.09927293 -0.13292018 -0.1979864 0.12961952 -0.14959694 -0.16355453
-0.13377027 0.22549802 -0.055062063 0.0007834814 0.09880844 0.041237876 0.1044646 -0.06611827

lstm.bias_ih_l1 f4 [128]
00000000: e644 563d b70a f03d 55b5 e4bc f5ba 2fbd
00000010: cecf adbc aec4 97bb 115c 863d 59ba c83d
00000020: 7ab4 c6bd dd5e 0bbc 74d0 a03c 61ac dbbc
00000030: 71cb 443c 96f9 7abd fb37 013e c7b6 5a3d
00000040: c788 0dbc dcc0 05bd f1eb d4bd 493e 5dbd
00000050: 221b aebd 0ca4 0bbe 8e81 56bd 6481 ae3d
00000060: 56d1 1c3e c36f 3b3e bb10 4cbd 0f1b 673d
00000070: 8ead a3bb 5ee4 123e 47d6 943c dc58 5f3c
00000080: fc79 e9bd 961c 263e 964b 2e3e ee8a 753d
00000090: ab9b 2d3d 7162 abbc 22e6 b43c 9d9e 333d
000000a0: a094 e73d 40d9 a33d 79dc ee3d 5967 f9bd
000000b0: 0b55 043e f025 ee3d da2d bdbd dfe2 c23c
000000c0: d9a3 e63d c697 193e 1581 143e 5e19 7cbd
000000d0: 87f4 313e 0231 83bc 3d31 fbbc 2aee 4d3d
000000e0: 2fe6 843c 2c10 193d 7526 3d3e b110 22bd
000000f0: 6b4c 1c3e b2db 93bb 1dcb 47bd c888 133e
00000100: eb9b 32bc 9221 febd cc66 f8bd da7c fdbd
00000110: 17cf f3bd 9fb9 2fbd ac3a 9c3d 08c4 ff3c
00000120: 2abf e1bc d625 e13d 268a 17be 222e 8b3c
00000130: 9625 aabc 2a92 15be 4e9f 013e 39ec dbbd
00000140: d19f e13d 3222 f1bc 9a0c 18be 3f1e a73d
00000150: c7c6 acbd 607b 373e 99d2 22be 1d69 af3d
00000160: 18d8 af3d b539 193e 8f43 ccbd 5a23 bd3c
00000170: 4584 223d 2f35 fa3c 4abd b2bd 98c4 8bbd
00000180: 307b 263e acd1 083e e6ea 2d3e e93e 323e
00000190: 3c4e 8fbd fee2 02bd 08bc 193e d9c9 acbd
000001a0: 81a3 0e3e e9bb de3d 088a 1e3e df8e 433e
000001b0: 46d0 033e 684d 403e db54 3d3e b8b7 fc3d
000001c0: f42e 2b3e 6e3c 163d a9f9 f6bd 7652 563b
000001d0: b3f1 4e3c 4233 8f3d 0e64 4e3e 7001 62bd
000001e0: 315e 0d3e bcc7 4a3d 4262 f5bd dee5 613e
000001f0: 9ede 68bc 9230 a13c a264 6cbd 33c1 c53d
0.0523118 0.11720794 -0.027918497 -0.042902905 -0.021217253 -0.0046316003 0.06560529 0.09801168
-0.09702392 -0.008506504 0.019630648 -0.026815595 0.012011395 -0.06127318 0.12619011 0.053396966
-0.008638567 -0.03265463 -0.10396565 -0.054014478 -0.08501269 -0.13636798 -0.052369647 0.08520773
0.1531423 0.18304352 -0.049820643 0.05642229 -0.0049950546 0.14344928 0.018168582 0.013632026
-0.1140022 0.16221842 0.17021021 0.059946947 0.042384785 -0.020920964 0.022082392 0.043852437
0.11307645 0.080004215 0.116631456 -0.12177915 0.12923066 0.1162833 -0.09237261 0.023789821
0.1126172 0.14999303 0.14502366 -0.06154763 0.17378436 -0.01601458 -0.030663127 0.05027596
0.016223041 0.03736894 0.18471701 -0.0395667 0.15263526 -0.0045122737 -0.04877769 0.14407647
-0.010901432 -0.12408747 -0.12128982 -0.12377329 -0.11904734 -0.04290163 0.07628378 0.031221405
-0.027556974 0.10993545 -0.14798793 0.016989771 -0.020769875 -0.14606538 0.12658426 -0.10738415
0.11016811 -0.02943525 -0.14848557 0.08160066 -0.08436351 0.17918158 -0.15900649 0.08564971
0.085861385 0.1496342 -0.09973823 0.023088146 0.039676923 0.030542938 -0.0872751 -0.06824607
0.1625793 0.13361233 0.16984138 0.17406811 -0.06997344 -0.031954758 0.15013134 -0.08436937
0.1392956 0.10875685 0.15482342 0.1909747 0.12872419 0.18779528 0.18489401 0.12339729
0.1671713 0.036678724 -0.12059338 0.003270296 0.012630868 0.069921985 0.20155355 -0.055177152
0.13805462 0.049506888 -0.11981632 0.22060344 -0.014213232 0.01967648 -0.05771316 0.096559905

lstm.bias_hh_l1 f4 [128]
00000000: 8079 debc 2294 2a3e 6ae5 103e a603 9dbd
00000010: dbe5 4d3e 3eab 903d 4e8a 643d e942 47bd
00000020: c273 193e 3a32 523b 1058 9d3c 0e53 84bd
00000030: 5935 483e 15f2 d93d 8081 163d b561 003e
00000040: 7eca 77bb a87e c8bc f03d 613e 1da0 57bd
00000050: 21d9 603e a1a6 8dbc bed5 a8bd ecbf f9bd
00000060: 1584 283e 8e44 503e 2cc5 9fbd 9519 1dbd
00000070: e5c9 f23d db3a 7fbc 8f08 67bd 1bb2 9dbd
00000080: dc88 1b3e 7710 05be 10b2 bbbd 58dd 9b3d
00000090: 125a d23d 5d1a e73d 4437 a0bd 920f 833d
000000a0: da68 a3bd a747 59bd d0b1 0dbe 1e34 3abd
000000b0: 40ce 9c3d e1f9 17bc 44c3 973d eff0 583e
000000c0: d291 173d bd7b 84bd 57bb ef3d c0f6 b2bd
000000d0: 66b6 80bd 9ab6 c53d 3c13 fc3d aad8 43bc
000000e0: 230e 9b3d cd4b 49bc d435 c1bc 32b2 09bd
000000f0: 8555 1bbd ef48 96bd b973 793c 3742 8d3d
00000100: 7b65 223e e8f3 1fbe a98a 023c 29f5 0b3e
00000110: 9db9 1b3e 8af1 f4bd 50ad d93c ec7c 06be
00000120: bbed 133e 2545 0a3c 01c0 32bd 8565 41be
00000130: 036f b2bd afff 2fbd fe5a ec3d c159 d33d
00000140: 9f9e 2abe 87da 97bd 9488 003e af76 babd
00000150: c665 6b3d 0f06 ea3d 592a 94bd e5bb a0bd
00000160: 4dd2 a1bd 1223 eb3d 7891 54bd 3e53 483d
00000170: b117 173d 64e8 dfbd 5487 043e 72e5 a0ba
00000180: 692d 88bb 874e 303e 5b41 3d3c 82e7 7f3d
00000190: 0ec1 bfbd 97f6 983d a77f d9bd c701 c43d
000001a0: 6746 1cbc b215 713d 194d 603d a212 f13d
000001b0: 9a60 d33d 0bfc 5d3e d018 323e 9f91 743e
000001c0: f52f 02be 52dd f33c 00ad dc3c 6be6 97bd
000001d0: 17c8 c13d 4d2b 24bd df6e 03be bf64 17be
000001e0: e6b2 11bd af35 473e 0aa7 243d aa2e bc3b
000001f0: b5ae 1a3d 6d62 983d 9dd2 64bd 8c89 77bd
-0.027157545 0.1665807 0.14150015 -0.076667115 0.20107214 0.07063912 0.05579596 -0.048647795
0.14985564 0.0032073394 0.01920703 -0.06461154 0.195516 0.106418766 0.036744595 0.12537272
-0.0037809904 -0.024474457 0.21996284 -0.05264293 0.21957828 -0.017291369 -0.08243893 -0.12194809
0.16456635 0.20338652 -0.078012794 -0.038354475 0.118549146 -0.015577997 -0.056404646 -0.076999865
0.15188926 -0.12994562 -0.09164822 0.07610577 0.10271086 0.11284325 -0.07823041 0.06399454
-0.07978983 -0.05304685 -0.13837361 -0.04545986 0.076565266 -0.009275884 0.07410291 0.21185659
0.0370043 -0.06468914 0.11705654 -0.0873847 -0.0628479 0.09653969 0.12308356 -0.011953512
0.07571056 -0.012286139 -0.023585238 -0.033617206 -0.037923355 -0.0733813 0.015225344 0.06897395
0.15859024 -0.15620387 0.0079676295 0.1366774 0.15207525 -0.119601324 0.0265719 -0.13133591
0.14446156 0.008439337 -0.04364014 -0.18886383 -0.0871258 -0.04296845 0.11540793 0.103198536
-0.16662072 -0.07414728 0.125521 -0.09104668 0.057470106 0.11426937 -0.0723464 -0.07848338
-0.0790144 0.114812985 -0.051896542 0.04890751 0.03688783 -0.10932997 0.12942249 -0.0012275411
-0.004155804 0.17217456 0.0115512265 0.062476642 -0.09362994 0.07468908 -0.10620051 0.095706515
-0.00953827 0.05885858 0.054761026 0.11771132 0.1032116 0.21678178 0.17392278 0.23883675
-0.12713607 0.02976862 0.026937962 -0.074169956 0.09461992 -0.040080357 -0.12835263 -0.14784525
-0.035571 0.19454072 0.040198363 0.0057428675 0.03776427 0.07440648 -0.05586492 -0.06043391

fc.0.weight f4 [8, 32]
00000000: fa2f 3b3d 6f40 2dbe 5a98 afbd 3bfd b73d
00000010: 6571 963d 32f7 983d 9aff ca3d 0406 713d
00000020: 32df 31bd 7f46 fa3d 0b55 29be 7fdc 0fbe
00000030: 4b63 90bd 723e c73d ddc1 4a3e 9478 72bd
00000040: 3f84 a0bd 57f9 16bc e312 873d 1eb9 eabd
00000050: 3ce2 8cbd 6d28 8a3c ac34 973d afb4 0d3e
00000060: 77a7 4cbe 6ff8 18be 9939 793d 5d17 19be
00000070: 94b7 f63d 1694 d4bd dc4d 7f3d 7832 913c
00000080: 44f1 9dbb 6c86 e63b ff37 79b6 ccb4 85bb
00000090: 7037 1fbc 63de ca36 5962 3738 fac6 2939
000000a0: 9491 a3ba 8719 b2ba 4dba 1e3c e13a adbc
000000b0: 4792 8ab9 35de cc36 3555 583a eabb b2b6
000000c0: 1493 0339 1537 5dbc 40ed 1f3c 3917 9db8
000000d0: ba16 0bbb b215 483b 9cb2 4b3a 20ad a933
000000e0: beda 52bb 8e85 8b3c 0142 643b e243 86b9
000000f0: 775f c5ba f88e 8b3a 668e 6a32 759b bdb1
00000100: 66a9 a23d 93c8 71ba 16bb 02bd 8bb3 9bbd
00000110: 3b47 853c 3ddb 92bd 9621 01be bf8c 21bd
00000120: 9a8a ef3d 4c39 a0bd 4d87 dbbd 3bcf 3fbe
00000130: 0c3f cabb 3c12 2fbd 6560 05bd 006c c0bd
00000140: deaf 1cbe 147b 2e3d 0b18 16be 8911 f6bd
00000150: 6842 fe3d 9a4d 043e 919c 4d3d d782 0a3d
00000160: a473 f0bd 06ba bf3d 6ce1 08be a595 b4bd
00000170: 232d ee3d 634f 093d a45f f03c a7f2 acbc
00000180: 5899 8f3d f150 11be 4a3b 8f3d 2393 943d
00000190: eea2 cb3d 9fb3 aebd d769 52be 954a 07be
000001a0: 3365 443e 59a0 2a3e 179e 10bd cf6b 81bd
000001b0: 4cdb 983d b4bf 4ebe 63f2 fc3d 3ace 61be
000001c0: 7ecb 11be 4eef 083d bf27 21bd 4586 1e3e
000001d0: 3891 003e 048d c33d 9261 2a3e 35d3 2abd
000001e0: 5823 05be f5d4 a0bc a734 38be 8241 cebd
000001f0: 9268 ca3c 2075 cc3d 7cc9 673d c615 a93d
00000200: 414f 7d3c 8daa 8a3d 0b15 153e 29dd 9bbd
00000210: 2f89 a0bd fdca ea3d 54fb 7c3e 73ad 463d
00000220: 8b0f d2bd 72b7 ecbd 5904 b03d fd75 b83d
00000230: 5447 85bd 13c1 b53d cf6f 4fbd 3bca 233e
00000240: 82a7 9f3d e9f3 333e 4290 d23d 6b15 ddbd
00000250: d369 733d 1372 0d3c b2c4 0abe fd72 463e
00000260: 225f d53d b882 103e 60ad 85bd 8025 2e3e
00000270: 1302 afbd e9ce 2cbd 07ec 47be 82b8 a83d
00000280: a360 a531 a20d 3c3b 7a65 9db1 1c1e 4534
00000290: c229 9231 bc7d 82b3 8e92 3036 7c4c 2136
000002a0: 4f59 3bbc 1f66 a0b5 56d8 53b5 860f 7432
000002b0: 4f63 8632 bccc 8f33 3375 a1b2 24de 81b1
000002c0: 7415 54b6 4cc9 4bb3 a985 3432 973a 77b8
000002d0: 7a55 a6b4 f253 9935 d750 4a3a 5a11 ef34
000002e0: dcfe 8bb2 efbe 48b7 1cc4 dc3b dd2a 7bbb
000002f0: 5afc ca35 1a3e 10ba 0027 b1bb bee1 9c31
00000300: e38b 283c 8eac 4fbe 1d4d aa3c 1eca 22bd
00000310: 70e4 6abd 8a1f 3ebe 6ff2 79bd 5d5e 7cbd
00000320: c5a1 ef3d b09e e3bd f790 cdbc 91e0 743d
00000330: 9ace 7c3d efad 81bc d45a 5d3e eb7c 5bbd
00000340: 487b 4c3d 5197 49be 72c4 57be 64c0 d63d
00000350: 5468 74bd e66e 6a3d 2838 06be 541b 99bd
00000360: 05a5 603d 5025 6bbd d549 173e cf88 13bd
00000370: d13c b03d 16e4 4e3e 8aa8 523e d2b7 a8bd
00000380: 2578 053e b48d fbbd 6a82 57be d8af bd3a
00000390: 1186 323e a631 00be b41d 09bd a0a2 92bd
000003a0: 0453 70bd bfc3 a33c 1e85 4abe 4854 12be
000003b0: f538 f5bd b475 02be 9406 573e 3d9d cc3c
000003c0: 9af6 d3bc 7cb6 01be 4a02 56be d757 bdbd
000003d0: ec30 04bd 0a39 6ebc 6f20 eb3d 3a59 2fbe
000003e0: 33d8 14be 49f2 3ebd 4eae cdbd db19 3bbe
000003f0: 14ec 283e 5161 403e 2b19 3fbd 12dc a8bd
0.04570005 -0.1691911 -0.08573981 0.08983847 0.07345847 0.07469024 0.099120334 0.058843628
-0.043425746 0.12220477 -0.16536348 -0.14048956 -0.07050189 0.097287074 0.19800515 -0.059197024
-0.07837724 -0.009214721 0.06595399 -0.114610896 -0.06879088 0.01686498 0.07383093 0.13838457
-0.19985758 -0.1493852 0.060845945 -0.14950319 0.120467335 -0.10379808 0.06233011 0.01772426
-0.004820021 0.0070350673 -3.7136485e-06 -0.0040803906 -0.009717807 6.0459583e-06 4.3722193e-05 0.0001619122
-0.0012479299 -0.001358793 0.009687972 -0.02114624 -0.00026430396 6.105542e-06 0.0008252443 -5.3266895e-06
0.00012547924 -0.013501902 0.009761155 -7.490669e-05 -0.0021223263 0.003053051 0.00077704503 7.901167e-08
-0.0032173838 0.017031457 0.003482938 -0.00025609048 -0.0015058358 0.0010647466 1.365297e-08 -5.5182974e-09
0.079424664 -0.00092233083 -0.0319167 -0.076026045 0.016269317 -0.07170723 -0.12610468 -0.039440867
0.11696358 -0.078234285 -0.10719166 -0.18731396 -0.0061720666 -0.042742 -0.032562632 -0.09395599
-0.15301463 0.042597845 -0.14657609 -0.12015063 0.1241501 0.12920228 0.05019814 0.033816185
-0.11740807 0.09361653 -0.13367242 -0.08817605 0.11629703 0.033522975 0.02934248 -0.0211118
0.0701167 -0.14191033 0.0699373 0.072546266 0.09943186 -0.08530354 -0.20548187 -0.13212045
0.1917923 0.1666273 -0.035307016 -0.06319391 0.074637026 -0.20190316 0.12350919 -0.22051325
-0.14237782 0.033431344 -0.039344545 0.15480907 0.12555397 0.09548381 0.16638783 -0.04170533
-0.13001764 -0.019632796 -0.17988835 -0.100710884 0.024708066 0.09983277 0.056588635 0.08256106
0.01546079 0.06770811 0.14558809 -0.07610542 -0.07838666 0.11464498 0.24705249 0.048505258
-0.10256871 -0.11558427 0.08594579 0.090068795 -0.065077454 0.088747166 -0.05064374 0.15995114
0.077956215 0.17573513 0.10281421 -0.10795101 0.059427094 0.008633154 -0.13551596 0.19379802
0.10418536 0.14112365 -0.06527209 0.17006493 -0.085453175 -0.042189512 -0.19523631 0.08238317
4.8131183e-09 0.002869465 -4.580838e-09 1.8358008e-07 4.2539066e-09 -6.076468e-08 2.631135e-06 2.403539e-06
-0.011434867 -1.195065e-06 -7.8918436e-07 1.4206199e-08 1.5644813e-08 6.6961974e-08 -1.8796163e-08 -3.7796486e-09
-3.160295e-06 -4.74477e-08 1.050777e-08 -5.8943955e-05 -3.0982102e-07 1.142382e-06 0.00077177346 4.4529844e-07
-1.6297626e-08 -1.1965384e-05 0.0067372452 -0.003832511 1.5123617e-06 -0.0005502418 -0.0054062605 4.5658615e-09
0.010287258 -0.20280668 0.020788724 -0.039743535 -0.05734676 -0.18566719 -0.06102222 -0.06161343
0.11700777 -0.111142516 -0.025093539 0.059784476 0.061720468 -0.015830008 0.2161668 -0.053585928
0.049922258 -0.19686629 -0.21071032 0.10485914 -0.059669808 0.057234667 -0.1310736 -0.074759156
0.054844875 -0.05740863 0.14774258 -0.036019143 0.0860535 0.20204195 0.20572105 -0.08238186
0.13034113 -0.12282887 -0.21045843 0.0014471961 0.17433955 -0.1251894 -0.033475593 -0.071599245
-0.05867292 0.0199908 -0.19777343 -0.14289963 -0.11973754 -0.12740213 0.20998603 0.02497732
-0.025874425 -0.12667269 -0.2089931 -0.0924527 -0.032273218 -0.014539966 0.114807956 -0.17123881
-0.14535598 -0.04661778 -0.100430116 -0.18271582 0.16496307 0.18787123 -0.04665486 -0.082451

fc.0.bias f4 [8]
00000000: 6289 cc3d 8574 0bbd 6ebb 96bc 4deb f23d
00000010: 36eb cf3d a633 d9bb 53ca ac3d 6598 1e3e
0.09987141 -0.03404667 -0.01839992 0.11861286 0.10152285 -0.0066284714 0.08437028 0.15487821

fc.2.weight f4 [2, 8]
00000000: 9752 013e 7ac0 e5bc 7938 703e 89d7 b43e
00000010: e8c8 80be 07d1 d0bd e8a9 513e 4c5d c13d
00000020: f226 853d f2a0 ecbc 2791 c13d b5d9 853d
00000030: 71ba 943e b0d3 213b f109 13be 0638 c8be
0.12629162 -0.028045882 0.23459043 0.3532069 -0.2515328 -0.10196119 0.2047497 0.09441623
0.06501569 -0.028885338 0.09451514 0.06535665 0.29048494 0.0024692826 -0.14359261 -0.39105242

fc.2.bias f4 [2]
00000000: 235c abbe ef6a 9f3e
-0.33468732 0.3113627
