fno_spy_model.pth (torch, 143677 bytes, 13 tensors)

fc0.weight f4 [8, 1]
00000000: cb99 0dbc 5a91 debe 6846 46bc 0394 51bf
00000010: 2c5f f7be 4c87 1abd d405 22bf 4aae 6b3c
-0.008642624 -0.4347027 -0.012101747 -0.8186647 -0.48314798 -0.037726685 -0.63290143 0.0143848155

fc0.bias f4 [8]
00000000: 5825 8d40 3728 4b3d 19a2 583f 5b4b 55bf
00000010: 819b 42bf a189 0340 dc63 23be 8256 79c0
4.4108086 0.0495989 0.8462234 -0.8331811 -0.7601853 2.0552752 -0.15956062 -3.895905

w0.weight f4 [8, 8, 1]
00000000: a87c bb3e 3273 a33e 706b 40be 9431 4ebe
00000010: 7a0b ed3d 986d b43e 615c 3ebd 2a37 963c
00000020: 5852 b33d 064c 913e 0295 a8bd be75 1a3e
00000030: 1f75 923e 6ede 333e 28c5 c33e 3fcd 96be
00000040: c847 023d c812 473e c25d 89be 6d79 b23c
00000050: 6c48 9e3e 8ce7 f8bd 6392 73be 759f 903d
00000060: dcfa 903c cc41 3dbd 6790 e1bd bf4c ccbe
00000070: f64c cbbb ef13 bfbe a097 d8be 6caa 6d3e
00000080: 3cbd 063d 364b 38bd c2b4 b2bc d0df a4be
00000090: 05b9 8dbd 86cb fd3d dea2 c0be 8fc4 84bd
000000a0: d626 063e 5f81 d93c 63bd 693e 701b 833c
000000b0: df0e f1bd 0cca 9e3e 822e c13e 76d2 7f3c
000000c0: 9863 663e f51c 84be b9a8 92bc 9384 843e
000000d0: 4b7b 4a3d ca62 80bd 502e a8bd 9af7 09be
000000e0: 08cd d03d 8e1d 93be 1a05 b0bc 69bb 40be
000000f0: e093 743e 408b 51bd 06e0 bd3e f59a 4fbd
0.36618543 0.31923825 -0.18790984 -0.201361 0.115744546 0.35239863 -0.04647482 0.018336851
0.0875594 0.28378314 -0.08231546 0.15083978 0.2860498 0.17565319 0.38236356 -0.29453465
0.031806737 0.19440758 -0.26829344 0.021786416 0.30914629 -0.12153539 -0.23786311 0.07061664
0.017697744 -0.046205327 -0.11013871 -0.39902303 -0.006204243 -0.37319896 -0.4230318 0.23209542
0.03289531 -0.0449936 -0.021814708 -0.32202005 -0.06920055 0.12392335 -0.37624258 -0.06482803
0.13100752 0.026550947 0.22826152 0.016004294 -0.117704146 0.31013525 0.37730795 0.015614143
0.2249893 -0.25803342 -0.017902719 0.25882396 0.049433988 -0.062688425 -0.082119584 -0.13473359
0.101953566 -0.28733486 -0.021486808 -0.18821491 0.23884535 -0.05115819 0.3708498 -0.050684888

w0.bias f4 [8]
00000000: 103b 90be 8e62 4340 0576 283e 17cf 61c0
00000010: 3138 833f e428 953d 6b3b a0bf e5dd 19be
-0.2817006 3.0528903 0.16451271 -3.5282648 1.0251523 0.0728319 -1.2518133 -0.15026052

w1.weight f4 [8, 8, 1]
00000000: 53dc 36be 9401 8ebe dd9d df3d 7b37 b7bb
00000010: bc80 e9be e0ff edbd dbd4 483c 3d2f d33d
00000020: e9c7 98bd 9746 01be 3a58 0ebe c159 a1bd
00000030: 4e64 8bbe 6121 4ebe a569 97be 39ba 44bd
00000040: 8d3d 9d3e 78b1 75be e95d 183d e732 96be
00000050: b471 dcbd 15ca b4be 8bc2 663d 6d4c 433e
00000060: b1b9 6c3e 2791 9f3d b341 1b3e 2ab2 bfbe
00000070: 855c 34bd d267 10be c329 15bd 7aa1 66bc
00000080: d05b 803e 7e42 88bf d927 ffbd 233f 9dbd
00000090: 9b73 243d 2a2d 9f3c 4025 803d c347 a83d
000000a0: 5d3f 953d 2d2b 293e b01f 203d 2299 6cbc
000000b0: e6d5 e83e a739 26bc 7e4d a93d 5211 67be
000000c0: b824 cbbd 5737 6b3e 59db 63be 1d9c 593c
000000d0: c239 9bbd b4fc d2bd f63c e7bc 9e62 adbd
000000e0: 491a a13e 1c73 77be 85c5 2e3d 7220 e53c
000000f0: af7a 393e e06a cabb 581c dd3c 1374 a83e
-0.17857485 -0.2773558 0.10918782 -0.0055913306 -0.4560603 -0.1162107 0.01225778 0.10311744
-0.07460005 -0.12624584 -0.13900843 -0.07878447 -0.27224964 -0.2012992 -0.29572788 -0.04802916
0.30711022 -0.2399348 0.037198935 -0.2933571 -0.10763875 -0.35310426 0.056337874 0.19072123
0.2311771 0.077913575 0.15161781 -0.37440616 -0.044033546 -0.14102104 -0.03641678 -0.014076585
0.25070047 -1.0645292 -0.12458772 -0.07678058 0.040149312 0.019430716 0.06257105 0.082168125
0.07287476 0.16520377 0.03909272 -0.014440807 0.45475692 -0.010145581 0.082667336 -0.22565201
-0.09919113 0.22970329 -0.22251643 0.013281849 -0.07579376 -0.103021055 -0.02822731 -0.08466075
0.31465366 -0.24165004 0.042668838 0.027969573 0.18113206 -0.0061772913 0.026991054 0.32901058

w1.bias f4 [8]
00000000: d3b6 d8be 4e2d 9f3e 9741 7bc0 5ec8 f03f
00000010: fd1b 0c40 7004 563f 63f4 abc0 4123 6cbf
-0.42326984 0.31089252 -3.9258783 1.8811147 2.1892083 0.8360052 -5.3735824 -0.92241293

w2.weight f4 [8, 8, 1]
00000000: 86f7 133d 361c 863e 8fcd 37bc 2f57 253c
00000010: 1675 963c e4df aebd 1af6 cebc b82c 113e
00000020: dfa8 36be ec86 a83e e142 6a3b 4537 0abd
00000030: 2bfc 003c 98f7 e63e 3ef1 67b9 598f 01be
00000040: 389a 283e f2d0 8f3e 101f dcbd 17ed f2bc
00000050: 6eeb 063d aff1 bfbe a993 11bd 48f9 71bc
00000060: 9e3e 903c abe1 26be 8a37 8dbd d1d5 073e
00000070: ea2b 453d 5ed1 e3be eb20 04be b860 eebb
00000080: 8a55 093e 5b6b fbbd ca12 2dbd 12fa 82bc
00000090: 6805 443b fb00 373e 3c45 f43b f53d 8e3e
000000a0: 6b5f 2b3e 8664 aabe ff4c 673d 9458 c53d
000000b0: c4b1 02bd 04d0 a03e d493 82bd 9373 1abe
000000c0: f9e7 5abe 5bc6 8e3e 1480 2bbd 4c7f e03c
000000d0: 6afe 5f3c 2223 b43d bd4b 953c cff7 173e
000000e0: 86c2 653d 63a3 8bbd 1749 5bbd 001e 183d
000000f0: 069d 2e3c fe45 bebd 5f51 93bc c980 d7bc
0.03612473 0.26193398 -0.011218443 0.010091587 0.018366378 -0.085387975 -0.025263835 0.14177215
-0.17837857 0.32915437 0.003574543 -0.033744115 0.0078726215 0.45110774 -0.00022119746 -0.12652339
0.1646508 0.280891 -0.10748112 -0.029654069 0.032939367 -0.37489077 -0.03554121 -0.014768906
0.017607983 -0.16297023 -0.06895359 0.13265158 0.048137583 -0.44495672 -0.12903182 -0.0072747134
0.13411537 -0.12276336 -0.042254247 -0.015988383 0.002991045 0.17871468 0.0074545424 0.27781644
0.16735618 -0.33279818 0.056469914 0.096360356 -0.03190781 0.31408703 -0.06375852 -0.1508315
-0.21377553 0.27885708 -0.04187019 0.02740445 0.013671497 0.087957636 0.018224591 0.14840625
0.056093715 -0.06818273 -0.0535365 0.037137985 0.0106575545 -0.09290694 -0.017983137 -0.026306527

w2.bias f4 [8]
00000000: dfcc 46c0 dc03 8f3f 10b8 1c3e 54a6 65be
00000010: 90eb ba3f 86f2 863f e6d0 ce3f 9229 81bd
-3.1062543 1.1173053 0.1530459 -0.2242673 1.4603138 1.0542762 1.6157501 -0.06306757

w3.weight f4 [8, 8, 1]
00000000: f868 4dbd d285 fc3d 2874 a9be 7db9 5a3d
00000010: a2a0 80be 31e8 253d 2586 1d3e 73b4 36be
00000020: e890 30be 00c5 c53d e294 5abe aa3d a7be
00000030: e127 623e cd12 a9bd ea6f 953d 30a2 293e
00000040: ef23 8e3d 967c 413e b225 8b3e 7997 83bd
00000050: 0c0d 743e 2fdf d6bd addf 48bd 30d4 523e
00000060: 2c59 853e 4bb7 b5bd c531 253e adfc a5be
00000070: 59bd 8abe dda8 87bd cdc8 563c f13b 6dbe
00000080: 6959 49be bf0a 25be 00e8 6bbe fcdf ea3d
00000090: b14f b3bd 9d7b abbe e8c9 4dbe 63b6 463e
000000a0: 397e 543e ffba 263e 6fa8 593e 7c44 8f3e
000000b0: e786 613e 3552 81be 09e0 96be 0261 a83d
000000c0: aa83 dd3c 9aaa ad3e 2e83 8f3e d2c6 e93d
000000d0: a05e 62bd b9ba 95be f7bd ab3e 7eb5 84be
000000e0: 6793 6d3e 43a4 7a3e 167d 88be 6053 9bbe
000000f0: d8f5 7e3e 45c4 1b3d a407 10be df45 703e
-0.050148934 0.12330212 -0.33096433 0.05339955 -0.25122553 0.040504638 0.15383203 -0.17842273
-0.17242777 0.096567154 -0.21345857 -0.32664233 0.22085525 -0.08255539 0.072967365 0.16565776
0.069404475 0.18895182 0.27177197 -0.064253755 0.23833102 -0.10491788 -0.04904144 0.20588756
0.26044595 -0.08872851 0.16132267 -0.3241934 -0.27097586 -0.06624005 0.013109398 -0.23167397
-0.19663014 -0.1611738 -0.2303772 0.11468503 -0.08755434 -0.33492747 -0.20096552 0.19405513
0.20751275 0.16282271 0.21255659 0.27981937 0.22024117 -0.2525803 -0.294678 0.08221628
0.027040321 0.3391922 0.2802977 0.11414875 -0.055266023 -0.2924402 0.3354337 -0.25919718
0.23200761 0.24476723 -0.26657933 -0.30337048 0.2489847 0.038028974 -0.14065415 0.23464154

w3.bias f4 [8]
00000000: 40ce 403e 5398 ab3d 74fc 49be 6cb5 213e
00000010: c46b aabe 139f 29be 3e97 9e3c d5d0 303e
0.18828678 0.08378663 -0.1972521 0.15791863 -0.33285344 -0.16564588 0.019359227 0.17267163

fc1.weight f4 [128, 8]
00000000: 3e63 0cbe 6a56 a9be c851 12be d75a c6bd
00000010: 2c8c d73d 2ae1 c7be fc2e 05be 67f2 e23d
00000020: 9cfb d2be fc22 8b3c a5db 803c 73e0 3e3d
00000030: a480 fd3d ba9e 06be 5fda 3cbe d14e 363e
00000040: c5d8 71be 9975 083f 1311 913d bfb5 8a3e
00000050: 2e68 713e 6995 a63e 6a56 e53e 5454 3cbd
00000060: 6ded ad3e e979 2d3f 785d d0bc 3e5b 5c3e
00000070: 44a2 f5be fc5b 5cbf f32e 44bf 974b dc3d
00000080: d01e 00bf 7794 033e da61 9b3e 19ee c33d
00000090: ed5c ff3e b81a 413e 0bf9 963e 2dfb 0e3e
000000a0: b651 a1be 9cb6 e13d dbbd 0c3d ec2e 20bb
000000b0: a1a6 963e 9773 d63e ef09 de3e fc62 c6be
000000c0: d501 23be e544 c33e c639 3f3e c271 443e
000000d0: c305 813d b5b2 963e b2df 7a3e 5730 193e
000000e0: 0f9b 8e3f e6e2 56be a405 ae3d f157 a0be
000000f0: f176 e43e 797d f7be 7874 99bf 05fb cc3e
00000100: 550d e13e a659 12bf 21b9 533e 316e a93e
00000110: d30b 81be 485b 593d 0dda 27be 0e09 9cbf
00000120: c14c 55bf f2fa 03bf dd21 1c3c ae49 62be
00000130: a01f cd3e fd3a 04bf 6d07 35bf 9473 42be
00000140: fe3b 90bf ec1e d03e 6974 d33e 0102 9b3e
00000150: faf3 f4bd aece 413e 17f9 d63e 9f4b 803e
00000160: 22fa b03d 491f e9bd aa07 ad3d 6270 a73e
00000170: 6d13 71bc 4494 88be cf25 f6bd 0baa 243e
00000180: 7154 6abe 7e7c 9f3e d7cc 01be dcbb 3b3e
00000190: c73f 43be 0962 703d d3ad f93d 9abd 27bf
000001a0: 3f7b d9be 9083 b23e 3fcd a6bd f89a 8f3e
000001b0: 7b96 763c 96b5 563d 5d2d ae3e f0e6 06bf
000001c0: 78bf 0b3f c4e2 9e3e 0699 a3be 93a5 97bd
000001d0: 486f f3bd 0014 a3bf 77c8 393e e460 413f
000001e0: d62b fbbd 3082 41bf e539 c0bd 1f7b 02be
000001f0: 789a 073e 43f1 f93e 2d0f f83e 9b25 1bbe
00000200: af77 87c0 fd19 cabe 9292 5c3d 7263 60be
00000210: 4bed f73e 3e14 27bf 0f3a de3e a82e 7dbe
00000220: 443f 0c3f 96be d5be a3cb 81be d61e 653d
00000230: 982b ac3e 3ade 8bbf 2369 c83e 9b33 c63e
00000240: 1935 773d 7eb6 0b3e 780a 7c3e 5344 b1be
00000250: abe9 08bf 0018 fabe 624b abbe 7731 dcbe
00000260: 708b c7bf bd8e 3b3e 8f4f 953e cb11 603e
00000270: c7d6 3f3e 99da c8bf d827 0ebf 95ce b63c
00000280: e01e 99be b032 15be e281 6f3e 6a11 41be
00000290: 8bdf c5be e1e2 e1be 262d 083e ca65 323d
000002a0: dbab 87be 63c0 ea3c 398a 5f3e a1c8 6ebe
000002b0: 95fb f5bd 0490 e3be 1f81 a0be aeb9 9dbe
000002c0: 17c6 d53d e751 bfbd 538c aa3e 2bd1 adbb
000002d0: 4580 e0be eb26 bfbe ad30 f73d 8be5 f7bc
000002e0: 99af a63d ed81 923d ffd3 3cbe 169d adbe
000002f0: cc43 79be b2c1 fbbe 023e d8be a6e8 1b3e
00000300: a234 0fbf 49ae 29bc cfbe 93bd 4a50 a2bd
00000310: fadd 09be f636 8abe fda3 0cbe 077d 8abe
00000320: 357c f6be f44a 3cbe 3b3c 923e cd11 373c
00000330: 70da 90bb 9b20 ffbd a17c e73d 3e28 1bbf
00000340: 2210 a5bd 1cd2 a1bf a158 2abe 9d3b 4fbe
00000350: 00d6 f9bd 721d 903e 25da 51bf 6444 c43d
00000360: 55ef 723f 3511 51be bdeb a0be 1d83 eebd
00000370: 415f c53d e925 183e 4e90 bdbf e337 4bbf
00000380: 593b ffbd ba6a 91bd 3235 03be 6c78 9cbe
00000390: 5c1f 39be 6b7e 4ebe a0a5 37be b374 933d
000003a0: 0ba4 77be 09af 453e 19ab fbbd c003 9f3e
000003b0: 101d 4b3e 9712 81be a43b 6d3e a01a 50be
000003c0: e3e1 6dbe 4e07 99bd 3905 5e3e 2ec1 963d
000003d0: 0f48 f1be 7f8a 0fbe 8280 cf3d 0c1a 023e
000003e0: c9df c5be b675 21be 6e7f 60bd dea8 e53d
000003f0: 57ea 3ebd 36f6 553e b242 cabe e18e 56bf
-0.13709733 -0.3307374 -0.1428901 -0.09685295 0.105247825 -0.39038974 -0.13006204 0.11081391
-0.41207588 0.016984455 0.015729735 0.04660077 0.12378052 -0.13146487 -0.18442677 0.17803504
-0.23617847 0.5330444 0.07083335 0.27091786 0.23574898 0.32535866 0.4479249 -0.04597886
0.33970204 0.67764145 -0.025435194 0.21519181 -0.4797536 -0.86077857 -0.7663414 0.10756605
-0.50047016 0.12849604 0.30348092 0.09566898 0.49875584 0.18857849 0.2948688 0.13963003
-0.31507653 0.11021158 0.034360748 -0.002444203 0.29424003 0.41885063 0.43366954 -0.38747394
-0.15918668 0.381385 0.18674383 0.1918402 0.06299927 0.29433218 0.24499395 0.14959846
1.114107 -0.20984992 0.084971696 -0.31317094 0.44621995 -0.48337916 -1.1988668 0.40035263
0.43955484 -0.5716804 0.2067609 0.33091882 -0.25204334 0.05306557 -0.16391774 -1.2190263
-0.8332024 -0.5155479 0.009529558 -0.22098419 0.4006319 -0.5165251 -0.70714456 -0.18989402
-1.1268308 0.40648592 0.4129975 0.30274966 -0.11960597 0.18926498 0.41986915 0.25057694
0.08641459 -0.1138292 0.084487274 0.3270293 -0.014714104 -0.26675618 -0.1201893 0.16080491
-0.22883774 0.31149668 -0.12675796 0.18333381 -0.19067298 0.058687244 0.121913575 -0.65523684
-0.42476842 0.34866 -0.08144616 0.2804792 0.015050526 0.052419268 0.34018984 -0.5269613
0.54589033 0.31032383 -0.31952685 -0.07404628 -0.118864596 -1.2740479 0.18142878 0.7553847
-0.122642204 -0.75589275 -0.093860425 -0.1274228 0.13242519 0.4881688 0.48449078 -0.15151064
-4.23336 -0.39472952 0.053850718 -0.21912935 0.48423228 -0.6526526 0.4340367 -0.24724829
0.54784036 -0.41746968 -0.25350675 0.05593761 0.3362701 -1.0927193 0.39142713 0.38711247
0.060353372 0.13643834 0.24613369 -0.3462244 -0.5348155 -0.48846436 -0.3345595 -0.4300649
-1.5589428 0.18316169 0.2916226 0.21881787 0.18734275 -1.5691711 -0.55529547 0.022315303
-0.29906368 -0.14570117 0.2338939 -0.18854299 -0.38647112 -0.44118407 0.13298473 0.043554105
-0.26498303 0.02865619 0.21830072 -0.23318721 -0.12010876 -0.44445813 -0.31348512 -0.30805725
0.10438173 -0.093417935 0.33310184 -0.005304476 -0.43847862 -0.3733438 0.12069831 -0.030260822
0.08138961 0.071536876 -0.18440245 -0.3390891 -0.24342269 -0.49171215 -0.42234808 0.15225467
-0.55939686 -0.010356494 -0.07214128 -0.0792547 -0.13463584 -0.26995057 -0.13734432 -0.27048513
-0.48141637 -0.18387967 0.28561577 0.011173678 -0.004420571 -0.12457391 0.11303068 -0.6060828
-0.08059718 -1.2642245 -0.16635372 -0.20237584 -0.121990204 0.28147465 -0.8197349 0.09583357
0.9489644 -0.2041672 -0.31429854 -0.116461016 0.09637309 0.14858212 -1.4809663 -0.7938215
-0.124624915 -0.071004346 -0.12813261 -0.30560625 -0.18078369 -0.20165412 -0.17934275 0.07199993
-0.24183671 0.19305052 -0.12288494 0.3105755 0.19835305 -0.25209495 0.23167282 -0.20322657
-0.232307 -0.074720964 0.2168168 0.07361065 -0.4712529 -0.14017676 0.10131933 0.12705249
-0.38647297 -0.1576756 -0.054809026 0.112138495 -0.046610203 0.20894703 -0.3950401 -0.83811766

fc1.bias f4 [128]
00000000: 7f1a 1dbe 7d23 8b3f f17b cd3f 6eb8 0c40
00000010: 34cc b33f 5460 9e3f 3678 9b3f 30d5 f33f
00000020: 3c34 02bf 73f0 e13b 3690 733f 7123 bdbc
00000030: fb00 8b3f d11a b33f d432 0f40 1376 b140
00000040: eb6c 2140 4e85 8640 fe05 843e fdad 51be
00000050: 12f3 66be acb1 2dbe 983d e6bb 0c6f 253e
00000060: cbc6 2cbe 1ca4 3e3f 56d7 483e 35f8 e43f
00000070: 5599 7e3d 7ad3 d03f c1c2 02bd 7400 523f
00000080: 4d36 debe 3ff2 9f3d df70 cc3f 7cf7 da3f
00000090: 555b 1140 6131 fabe 77b2 1940 23b6 bf3e
000000a0: 86af 3b3e f822 58be 2754 5840 862d e83e
000000b0: db17 c43f c5ee c03e e35c 54bd 9b4d a63f
000000c0: 5a2b ba3f 7a69 dd3f c9d3 d33f 9a46 903e
000000d0: 6be2 e73f 5982 d33f bca8 cebc b01b 8b40
000000e0: 0799 653e a5eb 43be 0a93 c13f 3f9e 3f3e
000000f0: 056c d03e dfe2 9c3f 6303 e5bd 5547 9f3f
00000100: f428 893e 0392 273f 60ad 803e 455f 6ac0
00000110: 04f2 b9bd fdf5 1f3e 7e6c e73f 8351 323d
00000120: 9ac7 933f 488f 613f ad3c 673f eaea 60be
00000130: 3fcd b63f 135c d43e fad8 c540 8f04 d0be
00000140: 5c89 8d3f efba 9640 6c92 a13f 15cd 9e3f
00000150: 7b5b 803e b277 aa3f 1701 9840 8db9 ee3d
00000160: d16a a03f 0a94 b6bd 12cc b43e 61c3 6540
00000170: f7f6 993f 2cb3 97be bf8b a73f 1462 c53f
00000180: 4d23 b53f 69b0 ddbe 8aba 55bd e0c7 aa3f
00000190: 6aad b63d 0951 62be d07c c0be 1904 b83f
000001a0: b182 cd3f e2e0 3bbf a1c5 993d 2094 c6bf
000001b0: b4a7 9f3f 0c61 6d3f f2cc 44bf 979c 173e
000001c0: c89c a13f 5787 823e 05f4 943f 020e d0bb
000001d0: 8cb7 943f 928e 7b3d c21a 0b3e 2144 47bd
000001e0: cbf0 cb40 6918 1a3f 2c8e e93f 2098 4440
000001f0: 5969 b83d 6557 fe3c deac 4b40 a8fa c63d
-0.15342139 1.0870205 1.6053449 2.1987567 1.4046693 1.2373147 1.214606 1.9049435
-0.50860953 0.006895119 0.95141923 -0.023088189 1.0859674 1.3992559 2.2374773 5.5456634
2.5222728 4.2037725 0.25785822 -0.20476528 -0.22553661 -0.16962308 -0.0070263855 0.16155642
-0.16872708 0.7446916 0.19613394 1.7888247 0.062157948 1.6314538 -0.031924013 0.8203194
-0.43400803 0.07809877 1.5971946 1.7106776 2.2711995 -0.48865798 2.4015176 0.37443647
0.18328676 -0.2110709 3.3801363 0.45347232 1.531978 0.37682167 -0.051846396 1.2992433
1.454448 1.7297814 1.6549007 0.28178865 1.8115972 1.6524154 -0.025226943 4.34713
0.22421657 -0.1913286 1.5122998 0.1871271 0.40707412 1.2256736 -0.111822866 1.2443644
0.26789057 0.6545717 0.25132275 -3.6620648 -0.09079364 0.15621181 1.8079984 0.043534767
1.1545289 0.88109255 0.9032696 -0.21964613 1.4281386 0.41476497 6.1827364 -0.40628478
1.1057544 4.710319 1.262281 1.2406336 0.25069794 1.3317778 4.750133 0.11656485
1.2532598 -0.08914955 0.35311943 3.59005 1.2028493 -0.29628885 1.3089522 1.5420556
1.4151398 -0.43298653 -0.05217985 1.3342247 0.08919795 -0.22101225 -0.37595224 1.437625
1.6055509 -0.7339002 0.07508398 -1.5513954 1.2473054 0.92726207 -0.7687522 0.14805828
1.2625971 0.2549388 1.1636969 -0.006349326 1.1618514 0.061415263 0.13584426 -0.048648957
6.3731437 0.60193497 1.8246512 3.071785 0.090044685 0.031047532 3.182426 0.09715778

fc2.weight f4 [1, 128]
00000000: e003 c43d cebb 0ebc 7c68 893e 9ea6 103f
00000010: 836f 6e3e cca3 7c3e 7e55 643e 5e12 093f
00000020: cc4e c0bc 48c7 523e 853b 5b3e 6218 fb3a
00000030: b737 9b3d 5a9f 343e d3c2 8f3e f0e1 ca3d
00000040: 8fbc f03e ea77 463e 182f 033e fb61 22bf
00000050: e324 1dbd 2042 833c 5836 793d ef43 44bc
00000060: 9db9 2ebb ab44 753c cf9d cf3e a51e 863e
00000070: 7c6d 2a3c 1a0d a73d da6e 7dbd 1c12 ecbc
00000080: e7e8 0dbf a24c 20bd 7141 e03d d60b b23e
00000090: b038 8a3e 862b bf3d 68e8 203e e997 be3d
000000a0: 9605 d33c d70a 23be 40fc 8c3e e11b cabc
000000b0: bc92 02bd 9cfd 8d3e c0d4 ac3d 7317 54bf
000000c0: cb99 353e ac20 6b3e 3337 fc3d e00f 86bd
000000d0: fc20 1d3e b3c7 213d cdf3 14be 11b2 1abe
000000e0: 34d9 65bc bf9f 763d faaf 883e 0a69 ba3e
000000f0: e3a6 57be c13d 443e e6cc 6abe c0a2 903e
00000100: 73bd 853c 2034 1bbe 4482 163d 42a6 03bf
00000110: 7b75 2e3c f494 653c b007 473e b38c b33d
00000120: a947 71bc f06c 0cbc f3a6 193f 2a65 f53b
00000130: 60cc 953a 8452 053f 8de2 dd3e 0255 64bd
00000140: c636 b6bd a7c0 963d a14b 77be ad0c 483c
00000150: dff8 8338 3e48 c33d b3a6 b83e 1ecd d33e
00000160: 3f77 183d e9ef 75bd d8b0 60bd bb1c 043f
00000170: 98e4 553d 2109 743d e696 8a3b c82c 46bc
00000180: e534 6e3e be47 bf3d 8e61 24be d7ba 2b3e
00000190: 202f 5abc 7a17 8d3d 03e6 1cbc 03f1 9ebd
000001a0: 5e70 943e 0118 e6be 277d 443e f137 99bd
000001b0: 7dda 1c3e b63c ebbe fd07 bfbd 050d 56bd
000001c0: ecff 85bd ab76 f0b9 dbec 903e 0963 483c
000001d0: 5c0e 0b3e ebdf 633b d081 b5bd 9001 3ebd
000001e0: d590 acbe 6978 69bc 15f9 3a3e 35e3 d1be
000001f0: d2bb d73c 85c2 883d a464 9cbf d352 183d
0.095710516 -0.008711768 0.26837528 0.5650424 0.23284726 0.24671859 0.22298238 0.5354365
-0.023475073 0.20583832 0.21409424 0.0019157047 0.07578986 0.17638913 0.28078327 0.099063754
0.4701886 0.19381681 0.12810934 -0.63430756 -0.038365256 0.016022742 0.060842842 -0.011979087
-0.0026660927 0.014969985 0.40550086 0.26195255 0.01040208 0.08156796 -0.061873294 -0.028817229
-0.55433506 -0.039135583 0.10949982 0.34774655 0.26996374 0.09334473 0.15713656 0.09306318
0.0257595 -0.15922104 0.275362 -0.024671497 -0.031878218 0.2773255 0.08439016 -0.8284828
0.17734449 0.22961682 0.12315216 -0.06545997 0.15344614 0.03949709 -0.14546128 -0.1510699
-0.014028836 0.06021094 0.2669676 0.36408263 -0.21059756 0.19164182 -0.22929725 0.28249168
0.016325688 -0.15156603 0.036745325 -0.51425564 0.010648127 0.014012564 0.19436526 0.087670706
-0.014726558 -0.008570895 0.6002037 0.0074888663 0.0011428706 0.52079034 0.43336907 -0.055745132
-0.08897166 0.07360964 -0.24149944 0.012210053 6.2929226e-05 0.095352635 0.3606468 0.4136743
0.037223097 -0.06004325 -0.05485615 0.5160634 0.052219957 0.05957902 0.0042294143 -0.012095638
0.23262365 0.093398556 -0.16052839 0.16770492 -0.0133169 0.068892434 -0.009576323 -0.07760813
0.2899198 -0.4494019 0.19188367 -0.07481373 0.15317722 -0.45944756 -0.093276955 -0.05225851
-0.06542954 -0.00045864782 0.28305706 0.012230643 0.13579696 0.0034770917 -0.088626504 -0.04638821
-0.33704248 -0.014249899 0.1825908 -0.40993658 0.026334677 0.06677727 -1.2218213 0.037188362
